alexnet
Initializing parameters...
Finished.
================================================================================================================================================================
Layer (type:depth-idx)                   Input Shape          Output Shape         Param #              Mult-Adds            Param %              Trainable
================================================================================================================================================================
AlexNet                                  [1, 3, 224, 224]     [1, 1000]            --                   --                        --              True
├─Sequential: 1-1                        [1, 3, 224, 224]     [1, 256, 6, 6]       --                   --                        --              True
│    └─Conv2d: 2-1                       [1, 3, 224, 224]     [1, 64, 55, 55]      23,296               70,470,400             0.04%              True
│    └─ReLU: 2-2                         [1, 64, 55, 55]      [1, 64, 55, 55]      --                   --                        --              --
│    └─MaxPool2d: 2-3                    [1, 64, 55, 55]      [1, 64, 27, 27]      --                   --                        --              --
│    └─Conv2d: 2-4                       [1, 64, 27, 27]      [1, 192, 27, 27]     307,392              224,088,768            0.50%              True
│    └─ReLU: 2-5                         [1, 192, 27, 27]     [1, 192, 27, 27]     --                   --                        --              --
│    └─MaxPool2d: 2-6                    [1, 192, 27, 27]     [1, 192, 13, 13]     --                   --                        --              --
│    └─Conv2d: 2-7                       [1, 192, 13, 13]     [1, 384, 13, 13]     663,936              112,205,184            1.09%              True
│    └─ReLU: 2-8                         [1, 384, 13, 13]     [1, 384, 13, 13]     --                   --                        --              --
│    └─Conv2d: 2-9                       [1, 384, 13, 13]     [1, 256, 13, 13]     884,992              149,563,648            1.45%              True
│    └─ReLU: 2-10                        [1, 256, 13, 13]     [1, 256, 13, 13]     --                   --                        --              --
│    └─Conv2d: 2-11                      [1, 256, 13, 13]     [1, 256, 13, 13]     590,080              99,723,520             0.97%              True
│    └─ReLU: 2-12                        [1, 256, 13, 13]     [1, 256, 13, 13]     --                   --                        --              --
│    └─MaxPool2d: 2-13                   [1, 256, 13, 13]     [1, 256, 6, 6]       --                   --                        --              --
├─AdaptiveAvgPool2d: 1-2                 [1, 256, 6, 6]       [1, 256, 6, 6]       --                   --                        --              --
├─Sequential: 1-3                        [1, 9216]            [1, 1000]            --                   --                        --              True
│    └─Dropout: 2-14                     [1, 9216]            [1, 9216]            --                   --                        --              --
│    └─Linear: 2-15                      [1, 9216]            [1, 4096]            37,752,832           37,752,832            61.79%              True
│    └─ReLU: 2-16                        [1, 4096]            [1, 4096]            --                   --                        --              --
│    └─Dropout: 2-17                     [1, 4096]            [1, 4096]            --                   --                        --              --
│    └─Linear: 2-18                      [1, 4096]            [1, 4096]            16,781,312           16,781,312            27.46%              True
│    └─ReLU: 2-19                        [1, 4096]            [1, 4096]            --                   --                        --              --
│    └─Linear: 2-20                      [1, 4096]            [1, 1000]            4,097,000            4,097,000              6.71%              True
================================================================================================================================================================
Total params: 61,100,840
Trainable params: 61,100,840
Non-trainable params: 0
Total mult-adds (Units.MEGABYTES): 714.68
================================================================================================================================================================
…
##########################################################################################3


googlenet
Initializing parameters...
Finished.
================================================================================================================================================================
Layer (type:depth-idx)                   Input Shape          Output Shape         Param #              Mult-Adds            Param %              Trainable
================================================================================================================================================================
GoogLeNet                                [1, 3, 224, 224]     [1, 1000]            6,379,984            --                    49.06%              True
├─BasicConv2d: 1-1                       [1, 3, 224, 224]     [1, 64, 112, 112]    --                   --                        --              True
│    └─Conv2d: 2-1                       [1, 3, 224, 224]     [1, 64, 112, 112]    9,408                118,013,952            0.07%              True
│    └─BatchNorm2d: 2-2                  [1, 64, 112, 112]    [1, 64, 112, 112]    128                  128                    0.00%              True
├─MaxPool2d: 1-2                         [1, 64, 112, 112]    [1, 64, 56, 56]      --                   --                        --              --
├─BasicConv2d: 1-3                       [1, 64, 56, 56]      [1, 64, 56, 56]      --                   --                        --              True
│    └─Conv2d: 2-3                       [1, 64, 56, 56]      [1, 64, 56, 56]      4,096                12,845,056             0.03%              True
│    └─BatchNorm2d: 2-4                  [1, 64, 56, 56]      [1, 64, 56, 56]      128                  128                    0.00%              True
├─BasicConv2d: 1-4                       [1, 64, 56, 56]      [1, 192, 56, 56]     --                   --                        --              True
│    └─Conv2d: 2-5                       [1, 64, 56, 56]      [1, 192, 56, 56]     110,592              346,816,512            0.85%              True
│    └─BatchNorm2d: 2-6                  [1, 192, 56, 56]     [1, 192, 56, 56]     384                  384                    0.00%              True
├─MaxPool2d: 1-5                         [1, 192, 56, 56]     [1, 192, 28, 28]     --                   --                        --              --
├─Inception: 1-6                         [1, 192, 28, 28]     [1, 256, 28, 28]     --                   --                        --              True
│    └─BasicConv2d: 2-7                  [1, 192, 28, 28]     [1, 64, 28, 28]      --                   --                        --              True
│    │    └─Conv2d: 3-1                  [1, 192, 28, 28]     [1, 64, 28, 28]      12,288               9,633,792              0.09%              True
│    │    └─BatchNorm2d: 3-2             [1, 64, 28, 28]      [1, 64, 28, 28]      128                  128                    0.00%              True
│    └─Sequential: 2-8                   [1, 192, 28, 28]     [1, 128, 28, 28]     --                   --                        --              True
│    │    └─BasicConv2d: 3-3             [1, 192, 28, 28]     [1, 96, 28, 28]      18,624               14,450,880             0.14%              True
│    │    └─BasicConv2d: 3-4             [1, 96, 28, 28]      [1, 128, 28, 28]     110,848              86,704,384             0.85%              True
│    └─Sequential: 2-9                   [1, 192, 28, 28]     [1, 32, 28, 28]      --                   --                        --              True
│    │    └─BasicConv2d: 3-5             [1, 192, 28, 28]     [1, 16, 28, 28]      3,104                2,408,480              0.02%              True
│    │    └─BasicConv2d: 3-6             [1, 16, 28, 28]      [1, 32, 28, 28]      4,672                3,612,736              0.04%              True
│    └─Sequential: 2-10                  [1, 192, 28, 28]     [1, 32, 28, 28]      --                   --                        --              True
│    │    └─MaxPool2d: 3-7               [1, 192, 28, 28]     [1, 192, 28, 28]     --                   --                        --              --
│    │    └─BasicConv2d: 3-8             [1, 192, 28, 28]     [1, 32, 28, 28]      6,208                4,816,960              0.05%              True
├─Inception: 1-7                         [1, 256, 28, 28]     [1, 480, 28, 28]     --                   --                        --              True
│    └─BasicConv2d: 2-11                 [1, 256, 28, 28]     [1, 128, 28, 28]     --                   --                        --              True
│    │    └─Conv2d: 3-9                  [1, 256, 28, 28]     [1, 128, 28, 28]     32,768               25,690,112             0.25%              True
│    │    └─BatchNorm2d: 3-10            [1, 128, 28, 28]     [1, 128, 28, 28]     256                  256                    0.00%              True
│    └─Sequential: 2-12                  [1, 256, 28, 28]     [1, 192, 28, 28]     --                   --                        --              True
│    │    └─BasicConv2d: 3-11            [1, 256, 28, 28]     [1, 128, 28, 28]     33,024               25,690,368             0.25%              True
│    │    └─BasicConv2d: 3-12            [1, 128, 28, 28]     [1, 192, 28, 28]     221,568              173,408,640            1.70%              True
│    └─Sequential: 2-13                  [1, 256, 28, 28]     [1, 96, 28, 28]      --                   --                        --              True
│    │    └─BasicConv2d: 3-13            [1, 256, 28, 28]     [1, 32, 28, 28]      8,256                6,422,592              0.06%              True
│    │    └─BasicConv2d: 3-14            [1, 32, 28, 28]      [1, 96, 28, 28]      27,840               21,676,224             0.21%              True
│    └─Sequential: 2-14                  [1, 256, 28, 28]     [1, 64, 28, 28]      --                   --                        --              True
│    │    └─MaxPool2d: 3-15              [1, 256, 28, 28]     [1, 256, 28, 28]     --                   --                        --              --
│    │    └─BasicConv2d: 3-16            [1, 256, 28, 28]     [1, 64, 28, 28]      16,512               12,845,184             0.13%              True
├─MaxPool2d: 1-8                         [1, 480, 28, 28]     [1, 480, 14, 14]     --                   --                        --              --
├─Inception: 1-9                         [1, 480, 14, 14]     [1, 512, 14, 14]     --                   --                        --              True
│    └─BasicConv2d: 2-15                 [1, 480, 14, 14]     [1, 192, 14, 14]     --                   --                        --              True
│    │    └─Conv2d: 3-17                 [1, 480, 14, 14]     [1, 192, 14, 14]     92,160               18,063,360             0.71%              True
│    │    └─BatchNorm2d: 3-18            [1, 192, 14, 14]     [1, 192, 14, 14]     384                  384                    0.00%              True
│    └─Sequential: 2-16                  [1, 480, 14, 14]     [1, 208, 14, 14]     --                   --                        --              True
│    │    └─BasicConv2d: 3-19            [1, 480, 14, 14]     [1, 96, 14, 14]      46,272               9,031,872              0.36%              True
│    │    └─BasicConv2d: 3-20            [1, 96, 14, 14]      [1, 208, 14, 14]     180,128              35,223,968             1.39%              True
│    └─Sequential: 2-17                  [1, 480, 14, 14]     [1, 48, 14, 14]      --                   --                        --              True
│    │    └─BasicConv2d: 3-21            [1, 480, 14, 14]     [1, 16, 14, 14]      7,712                1,505,312              0.06%              True
│    │    └─BasicConv2d: 3-22            [1, 16, 14, 14]      [1, 48, 14, 14]      7,008                1,354,848              0.05%              True
│    └─Sequential: 2-18                  [1, 480, 14, 14]     [1, 64, 14, 14]      --                   --                        --              True
│    │    └─MaxPool2d: 3-23              [1, 480, 14, 14]     [1, 480, 14, 14]     --                   --                        --              --
│    │    └─BasicConv2d: 3-24            [1, 480, 14, 14]     [1, 64, 14, 14]      30,848               6,021,248              0.24%              True
├─Inception: 1-10                        [1, 512, 14, 14]     [1, 512, 14, 14]     --                   --                        --              True
│    └─BasicConv2d: 2-19                 [1, 512, 14, 14]     [1, 160, 14, 14]     --                   --                        --              True
│    │    └─Conv2d: 3-25                 [1, 512, 14, 14]     [1, 160, 14, 14]     81,920               16,056,320             0.63%              True
│    │    └─BatchNorm2d: 3-26            [1, 160, 14, 14]     [1, 160, 14, 14]     320                  320                    0.00%              True
│    └─Sequential: 2-20                  [1, 512, 14, 14]     [1, 224, 14, 14]     --                   --                        --              True
│    │    └─BasicConv2d: 3-27            [1, 512, 14, 14]     [1, 112, 14, 14]     57,568               11,239,648             0.44%              True
│    │    └─BasicConv2d: 3-28            [1, 112, 14, 14]     [1, 224, 14, 14]     226,240              44,255,680             1.74%              True
│    └─Sequential: 2-21                  [1, 512, 14, 14]     [1, 64, 14, 14]      --                   --                        --              True
│    │    └─BasicConv2d: 3-29            [1, 512, 14, 14]     [1, 24, 14, 14]      12,336               2,408,496              0.09%              True
│    │    └─BasicConv2d: 3-30            [1, 24, 14, 14]      [1, 64, 14, 14]      13,952               2,709,632              0.11%              True
│    └─Sequential: 2-22                  [1, 512, 14, 14]     [1, 64, 14, 14]      --                   --                        --              True
│    │    └─MaxPool2d: 3-31              [1, 512, 14, 14]     [1, 512, 14, 14]     --                   --                        --              --
│    │    └─BasicConv2d: 3-32            [1, 512, 14, 14]     [1, 64, 14, 14]      32,896               6,422,656              0.25%              True
├─Inception: 1-11                        [1, 512, 14, 14]     [1, 512, 14, 14]     --                   --                        --              True
│    └─BasicConv2d: 2-23                 [1, 512, 14, 14]     [1, 128, 14, 14]     --                   --                        --              True
│    │    └─Conv2d: 3-33                 [1, 512, 14, 14]     [1, 128, 14, 14]     65,536               12,845,056             0.50%              True
│    │    └─BatchNorm2d: 3-34            [1, 128, 14, 14]     [1, 128, 14, 14]     256                  256                    0.00%              True
│    └─Sequential: 2-24                  [1, 512, 14, 14]     [1, 256, 14, 14]     --                   --                        --              True
│    │    └─BasicConv2d: 3-35            [1, 512, 14, 14]     [1, 128, 14, 14]     65,792               12,845,312             0.51%              True
│    │    └─BasicConv2d: 3-36            [1, 128, 14, 14]     [1, 256, 14, 14]     295,424              57,803,264             2.27%              True
│    └─Sequential: 2-25                  [1, 512, 14, 14]     [1, 64, 14, 14]      --                   --                        --              True
│    │    └─BasicConv2d: 3-37            [1, 512, 14, 14]     [1, 24, 14, 14]      12,336               2,408,496              0.09%              True
│    │    └─BasicConv2d: 3-38            [1, 24, 14, 14]      [1, 64, 14, 14]      13,952               2,709,632              0.11%              True
│    └─Sequential: 2-26                  [1, 512, 14, 14]     [1, 64, 14, 14]      --                   --                        --              True
│    │    └─MaxPool2d: 3-39              [1, 512, 14, 14]     [1, 512, 14, 14]     --                   --                        --              --
│    │    └─BasicConv2d: 3-40            [1, 512, 14, 14]     [1, 64, 14, 14]      32,896               6,422,656              0.25%              True
├─Inception: 1-12                        [1, 512, 14, 14]     [1, 528, 14, 14]     --                   --                        --              True
│    └─BasicConv2d: 2-27                 [1, 512, 14, 14]     [1, 112, 14, 14]     --                   --                        --              True
│    │    └─Conv2d: 3-41                 [1, 512, 14, 14]     [1, 112, 14, 14]     57,344               11,239,424             0.44%              True
│    │    └─BatchNorm2d: 3-42            [1, 112, 14, 14]     [1, 112, 14, 14]     224                  224                    0.00%              True
│    └─Sequential: 2-28                  [1, 512, 14, 14]     [1, 288, 14, 14]     --                   --                        --              True
│    │    └─BasicConv2d: 3-43            [1, 512, 14, 14]     [1, 144, 14, 14]     74,016               14,450,976             0.57%              True
│    │    └─BasicConv2d: 3-44            [1, 144, 14, 14]     [1, 288, 14, 14]     373,824              73,157,184             2.87%              True
│    └─Sequential: 2-29                  [1, 512, 14, 14]     [1, 64, 14, 14]      --                   --                        --              True
│    │    └─BasicConv2d: 3-45            [1, 512, 14, 14]     [1, 32, 14, 14]      16,448               3,211,328              0.13%              True
│    │    └─BasicConv2d: 3-46            [1, 32, 14, 14]      [1, 64, 14, 14]      18,560               3,612,800              0.14%              True
│    └─Sequential: 2-30                  [1, 512, 14, 14]     [1, 64, 14, 14]      --                   --                        --              True
│    │    └─MaxPool2d: 3-47              [1, 512, 14, 14]     [1, 512, 14, 14]     --                   --                        --              --
│    │    └─BasicConv2d: 3-48            [1, 512, 14, 14]     [1, 64, 14, 14]      32,896               6,422,656              0.25%              True
├─Inception: 1-13                        [1, 528, 14, 14]     [1, 832, 14, 14]     --                   --                        --              True
│    └─BasicConv2d: 2-31                 [1, 528, 14, 14]     [1, 256, 14, 14]     --                   --                        --              True
│    │    └─Conv2d: 3-49                 [1, 528, 14, 14]     [1, 256, 14, 14]     135,168              26,492,928             1.04%              True
│    │    └─BatchNorm2d: 3-50            [1, 256, 14, 14]     [1, 256, 14, 14]     512                  512                    0.00%              True
│    └─Sequential: 2-32                  [1, 528, 14, 14]     [1, 320, 14, 14]     --                   --                        --              True
│    │    └─BasicConv2d: 3-51            [1, 528, 14, 14]     [1, 160, 14, 14]     84,800               16,558,400             0.65%              True
│    │    └─BasicConv2d: 3-52            [1, 160, 14, 14]     [1, 320, 14, 14]     461,440              90,317,440             3.55%              True
│    └─Sequential: 2-33                  [1, 528, 14, 14]     [1, 128, 14, 14]     --                   --                        --              True
│    │    └─BasicConv2d: 3-53            [1, 528, 14, 14]     [1, 32, 14, 14]      16,960               3,311,680              0.13%              True
│    │    └─BasicConv2d: 3-54            [1, 32, 14, 14]      [1, 128, 14, 14]     37,120               7,225,600              0.29%              True
│    └─Sequential: 2-34                  [1, 528, 14, 14]     [1, 128, 14, 14]     --                   --                        --              True
│    │    └─MaxPool2d: 3-55              [1, 528, 14, 14]     [1, 528, 14, 14]     --                   --                        --              --
│    │    └─BasicConv2d: 3-56            [1, 528, 14, 14]     [1, 128, 14, 14]     67,840               13,246,720             0.52%              True
├─MaxPool2d: 1-14                        [1, 832, 14, 14]     [1, 832, 7, 7]       --                   --                        --              --
├─Inception: 1-15                        [1, 832, 7, 7]       [1, 832, 7, 7]       --                   --                        --              True
│    └─BasicConv2d: 2-35                 [1, 832, 7, 7]       [1, 256, 7, 7]       --                   --                        --              True
│    │    └─Conv2d: 3-57                 [1, 832, 7, 7]       [1, 256, 7, 7]       212,992              10,436,608             1.64%              True
│    │    └─BatchNorm2d: 3-58            [1, 256, 7, 7]       [1, 256, 7, 7]       512                  512                    0.00%              True
│    └─Sequential: 2-36                  [1, 832, 7, 7]       [1, 320, 7, 7]       --                   --                        --              True
│    │    └─BasicConv2d: 3-59            [1, 832, 7, 7]       [1, 160, 7, 7]       133,440              6,523,200              1.03%              True
│    │    └─BasicConv2d: 3-60            [1, 160, 7, 7]       [1, 320, 7, 7]       461,440              22,579,840             3.55%              True
│    └─Sequential: 2-37                  [1, 832, 7, 7]       [1, 128, 7, 7]       --                   --                        --              True
│    │    └─BasicConv2d: 3-61            [1, 832, 7, 7]       [1, 32, 7, 7]        26,688               1,304,640              0.21%              True
│    │    └─BasicConv2d: 3-62            [1, 32, 7, 7]        [1, 128, 7, 7]       37,120               1,806,592              0.29%              True
│    └─Sequential: 2-38                  [1, 832, 7, 7]       [1, 128, 7, 7]       --                   --                        --              True
│    │    └─MaxPool2d: 3-63              [1, 832, 7, 7]       [1, 832, 7, 7]       --                   --                        --              --
│    │    └─BasicConv2d: 3-64            [1, 832, 7, 7]       [1, 128, 7, 7]       106,752              5,218,560              0.82%              True
├─Inception: 1-16                        [1, 832, 7, 7]       [1, 1024, 7, 7]      --                   --                        --              True
│    └─BasicConv2d: 2-39                 [1, 832, 7, 7]       [1, 384, 7, 7]       --                   --                        --              True
│    │    └─Conv2d: 3-65                 [1, 832, 7, 7]       [1, 384, 7, 7]       319,488              15,654,912             2.46%              True
│    │    └─BatchNorm2d: 3-66            [1, 384, 7, 7]       [1, 384, 7, 7]       768                  768                    0.01%              True
│    └─Sequential: 2-40                  [1, 832, 7, 7]       [1, 384, 7, 7]       --                   --                        --              True
│    │    └─BasicConv2d: 3-67            [1, 832, 7, 7]       [1, 192, 7, 7]       160,128              7,827,840              1.23%              True
│    │    └─BasicConv2d: 3-68            [1, 192, 7, 7]       [1, 384, 7, 7]       664,320              32,514,816             5.11%              True
│    └─Sequential: 2-41                  [1, 832, 7, 7]       [1, 128, 7, 7]       --                   --                        --              True
│    │    └─BasicConv2d: 3-69            [1, 832, 7, 7]       [1, 48, 7, 7]        40,032               1,956,960              0.31%              True
│    │    └─BasicConv2d: 3-70            [1, 48, 7, 7]        [1, 128, 7, 7]       55,552               2,709,760              0.43%              True
│    └─Sequential: 2-42                  [1, 832, 7, 7]       [1, 128, 7, 7]       --                   --                        --              True
│    │    └─MaxPool2d: 3-71              [1, 832, 7, 7]       [1, 832, 7, 7]       --                   --                        --              --
│    │    └─BasicConv2d: 3-72            [1, 832, 7, 7]       [1, 128, 7, 7]       106,752              5,218,560              0.82%              True
├─AdaptiveAvgPool2d: 1-17                [1, 1024, 7, 7]      [1, 1024, 1, 1]      --                   --                        --              --
├─Dropout: 1-18                          [1, 1024]            [1, 1024]            --                   --                        --              --
├─Linear: 1-19                           [1, 1024]            [1, 1000]            1,025,000            1,025,000              7.88%              True
================================================================================================================================================================
Total params: 13,004,888
Trainable params: 13,004,888
Non-trainable params: 0
Total mult-adds (Units.GIGABYTES): 1.50
================================================================================================================================================================
…
convnext_base
Initializing parameters...
Finished.
=====================================================================================================================================================================
Layer (type:depth-idx)                        Input Shape          Output Shape         Param #              Mult-Adds            Param %              Trainable
=====================================================================================================================================================================
ConvNeXt                                      [1, 3, 224, 224]     [1, 1000]            --                   --                        --              True
├─Sequential: 1-1                             [1, 3, 224, 224]     [1, 1024, 7, 7]      --                   --                        --              True
│    └─Conv2dNormActivation: 2-1              [1, 3, 224, 224]     [1, 128, 56, 56]     --                   --                        --              True
│    │    └─Conv2d: 3-1                       [1, 3, 224, 224]     [1, 128, 56, 56]     6,272                19,668,992             0.01%              True
│    │    └─LayerNorm2d: 3-2                  [1, 128, 56, 56]     [1, 128, 56, 56]     256                  256                    0.00%              True
│    └─Sequential: 2-2                        [1, 128, 56, 56]     [1, 128, 56, 56]     --                   --                        --              True
│    │    └─CNBlock: 3-3                      [1, 128, 56, 56]     [1, 128, 56, 56]     138,496              20,202,368             0.16%              True
│    │    └─CNBlock: 3-4                      [1, 128, 56, 56]     [1, 128, 56, 56]     138,496              20,202,368             0.16%              True
│    │    └─CNBlock: 3-5                      [1, 128, 56, 56]     [1, 128, 56, 56]     138,496              20,202,368             0.16%              True
│    └─Sequential: 2-3                        [1, 128, 56, 56]     [1, 256, 28, 28]     --                   --                        --              True
│    │    └─LayerNorm2d: 3-6                  [1, 128, 56, 56]     [1, 128, 56, 56]     256                  256                    0.00%              True
│    │    └─Conv2d: 3-7                       [1, 128, 56, 56]     [1, 256, 28, 28]     131,328              102,961,152            0.15%              True
│    └─Sequential: 2-4                        [1, 256, 28, 28]     [1, 256, 28, 28]     --                   --                        --              True
│    │    └─CNBlock: 3-8                      [1, 256, 28, 28]     [1, 256, 28, 28]     539,136              10,561,280             0.61%              True
│    │    └─CNBlock: 3-9                      [1, 256, 28, 28]     [1, 256, 28, 28]     539,136              10,561,280             0.61%              True
│    │    └─CNBlock: 3-10                     [1, 256, 28, 28]     [1, 256, 28, 28]     539,136              10,561,280             0.61%              True
│    └─Sequential: 2-5                        [1, 256, 28, 28]     [1, 512, 14, 14]     --                   --                        --              True
│    │    └─LayerNorm2d: 3-11                 [1, 256, 28, 28]     [1, 256, 28, 28]     512                  512                    0.00%              True
│    │    └─Conv2d: 3-12                      [1, 256, 28, 28]     [1, 512, 14, 14]     524,800              102,860,800            0.59%              True
│    └─Sequential: 2-6                        [1, 512, 14, 14]     [1, 512, 14, 14]     --                   --                        --              True
│    │    └─CNBlock: 3-13                     [1, 512, 14, 14]     [1, 512, 14, 14]     2,126,848            7,118,336              2.40%              True
│    │    └─CNBlock: 3-14                     [1, 512, 14, 14]     [1, 512, 14, 14]     2,126,848            7,118,336              2.40%              True
│    │    └─CNBlock: 3-15                     [1, 512, 14, 14]     [1, 512, 14, 14]     2,126,848            7,118,336              2.40%              True
│    │    └─CNBlock: 3-16                     [1, 512, 14, 14]     [1, 512, 14, 14]     2,126,848            7,118,336              2.40%              True
│    │    └─CNBlock: 3-17                     [1, 512, 14, 14]     [1, 512, 14, 14]     2,126,848            7,118,336              2.40%              True
│    │    └─CNBlock: 3-18                     [1, 512, 14, 14]     [1, 512, 14, 14]     2,126,848            7,118,336              2.40%              True
│    │    └─CNBlock: 3-19                     [1, 512, 14, 14]     [1, 512, 14, 14]     2,126,848            7,118,336              2.40%              True
│    │    └─CNBlock: 3-20                     [1, 512, 14, 14]     [1, 512, 14, 14]     2,126,848            7,118,336              2.40%              True
│    │    └─CNBlock: 3-21                     [1, 512, 14, 14]     [1, 512, 14, 14]     2,126,848            7,118,336              2.40%              True
│    │    └─CNBlock: 3-22                     [1, 512, 14, 14]     [1, 512, 14, 14]     2,126,848            7,118,336              2.40%              True
│    │    └─CNBlock: 3-23                     [1, 512, 14, 14]     [1, 512, 14, 14]     2,126,848            7,118,336              2.40%              True
│    │    └─CNBlock: 3-24                     [1, 512, 14, 14]     [1, 512, 14, 14]     2,126,848            7,118,336              2.40%              True
│    │    └─CNBlock: 3-25                     [1, 512, 14, 14]     [1, 512, 14, 14]     2,126,848            7,118,336              2.40%              True
│    │    └─CNBlock: 3-26                     [1, 512, 14, 14]     [1, 512, 14, 14]     2,126,848            7,118,336              2.40%              True
│    │    └─CNBlock: 3-27                     [1, 512, 14, 14]     [1, 512, 14, 14]     2,126,848            7,118,336              2.40%              True
│    │    └─CNBlock: 3-28                     [1, 512, 14, 14]     [1, 512, 14, 14]     2,126,848            7,118,336              2.40%              True
│    │    └─CNBlock: 3-29                     [1, 512, 14, 14]     [1, 512, 14, 14]     2,126,848            7,118,336              2.40%              True
│    │    └─CNBlock: 3-30                     [1, 512, 14, 14]     [1, 512, 14, 14]     2,126,848            7,118,336              2.40%              True
│    │    └─CNBlock: 3-31                     [1, 512, 14, 14]     [1, 512, 14, 14]     2,126,848            7,118,336              2.40%              True
│    │    └─CNBlock: 3-32                     [1, 512, 14, 14]     [1, 512, 14, 14]     2,126,848            7,118,336              2.40%              True
│    │    └─CNBlock: 3-33                     [1, 512, 14, 14]     [1, 512, 14, 14]     2,126,848            7,118,336              2.40%              True
│    │    └─CNBlock: 3-34                     [1, 512, 14, 14]     [1, 512, 14, 14]     2,126,848            7,118,336              2.40%              True
│    │    └─CNBlock: 3-35                     [1, 512, 14, 14]     [1, 512, 14, 14]     2,126,848            7,118,336              2.40%              True
│    │    └─CNBlock: 3-36                     [1, 512, 14, 14]     [1, 512, 14, 14]     2,126,848            7,118,336              2.40%              True
│    │    └─CNBlock: 3-37                     [1, 512, 14, 14]     [1, 512, 14, 14]     2,126,848            7,118,336              2.40%              True
│    │    └─CNBlock: 3-38                     [1, 512, 14, 14]     [1, 512, 14, 14]     2,126,848            7,118,336              2.40%              True
│    │    └─CNBlock: 3-39                     [1, 512, 14, 14]     [1, 512, 14, 14]     2,126,848            7,118,336              2.40%              True
│    └─Sequential: 2-7                        [1, 512, 14, 14]     [1, 1024, 7, 7]      --                   --                        --              True
│    │    └─LayerNorm2d: 3-40                 [1, 512, 14, 14]     [1, 512, 14, 14]     1,024                1,024                  0.00%              True
│    │    └─Conv2d: 3-41                      [1, 512, 14, 14]     [1, 1024, 7, 7]      2,098,176            102,810,624            2.37%              True
│    └─Sequential: 2-8                        [1, 1024, 7, 7]      [1, 1024, 7, 7]      --                   --                        --              True
│    │    └─CNBlock: 3-42                     [1, 1024, 7, 7]      [1, 1024, 7, 7]      8,448,000            10,904,576             9.54%              True
│    │    └─CNBlock: 3-43                     [1, 1024, 7, 7]      [1, 1024, 7, 7]      8,448,000            10,904,576             9.54%              True
│    │    └─CNBlock: 3-44                     [1, 1024, 7, 7]      [1, 1024, 7, 7]      8,448,000            10,904,576             9.54%              True
├─AdaptiveAvgPool2d: 1-2                      [1, 1024, 7, 7]      [1, 1024, 1, 1]      --                   --                        --              --
├─Sequential: 1-3                             [1, 1024, 1, 1]      [1, 1000]            --                   --                        --              True
│    └─LayerNorm2d: 2-9                       [1, 1024, 1, 1]      [1, 1024, 1, 1]      2,048                2,048                  0.00%              True
│    └─Flatten: 2-10                          [1, 1024, 1, 1]      [1, 1024]            --                   --                        --              --
│    └─Linear: 2-11                           [1, 1024]            [1, 1000]            1,025,000            1,025,000              1.16%              True
=====================================================================================================================================================================
Total params: 88,591,464
Trainable params: 88,591,464
Non-trainable params: 0
Total mult-adds (Units.MEGABYTES): 646.53
=====================================================================================================================================================================
…
convnext_tiny
Initializing parameters...
Finished.
=====================================================================================================================================================================
Layer (type:depth-idx)                        Input Shape          Output Shape         Param #              Mult-Adds            Param %              Trainable
=====================================================================================================================================================================
ConvNeXt                                      [1, 3, 224, 224]     [1, 1000]            --                   --                        --              True
├─Sequential: 1-1                             [1, 3, 224, 224]     [1, 768, 7, 7]       --                   --                        --              True
│    └─Conv2dNormActivation: 2-1              [1, 3, 224, 224]     [1, 96, 56, 56]      --                   --                        --              True
│    │    └─Conv2d: 3-1                       [1, 3, 224, 224]     [1, 96, 56, 56]      4,704                14,751,744             0.02%              True
│    │    └─LayerNorm2d: 3-2                  [1, 96, 56, 56]      [1, 96, 56, 56]      192                  192                    0.00%              True
│    └─Sequential: 2-2                        [1, 96, 56, 56]      [1, 96, 56, 56]      --                   --                        --              True
│    │    └─CNBlock: 3-3                      [1, 96, 56, 56]      [1, 96, 56, 56]      79,296               15,127,200             0.28%              True
│    │    └─CNBlock: 3-4                      [1, 96, 56, 56]      [1, 96, 56, 56]      79,296               15,127,200             0.28%              True
│    │    └─CNBlock: 3-5                      [1, 96, 56, 56]      [1, 96, 56, 56]      79,296               15,127,200             0.28%              True
│    └─Sequential: 2-3                        [1, 96, 56, 56]      [1, 192, 28, 28]     --                   --                        --              True
│    │    └─LayerNorm2d: 3-6                  [1, 96, 56, 56]      [1, 96, 56, 56]      192                  192                    0.00%              True
│    │    └─Conv2d: 3-7                       [1, 96, 56, 56]      [1, 192, 28, 28]     73,920               57,953,280             0.26%              True
│    └─Sequential: 2-4                        [1, 192, 28, 28]     [1, 192, 28, 28]     --                   --                        --              True
│    │    └─CNBlock: 3-8                      [1, 192, 28, 28]     [1, 192, 28, 28]     306,048              7,822,656              1.07%              True
│    │    └─CNBlock: 3-9                      [1, 192, 28, 28]     [1, 192, 28, 28]     306,048              7,822,656              1.07%              True
│    │    └─CNBlock: 3-10                     [1, 192, 28, 28]     [1, 192, 28, 28]     306,048              7,822,656              1.07%              True
│    └─Sequential: 2-5                        [1, 192, 28, 28]     [1, 384, 14, 14]     --                   --                        --              True
│    │    └─LayerNorm2d: 3-11                 [1, 192, 28, 28]     [1, 192, 28, 28]     384                  384                    0.00%              True
│    │    └─Conv2d: 3-12                      [1, 192, 28, 28]     [1, 384, 14, 14]     295,296              57,878,016             1.03%              True
│    └─Sequential: 2-6                        [1, 384, 14, 14]     [1, 384, 14, 14]     --                   --                        --              True
│    │    └─CNBlock: 3-13                     [1, 384, 14, 14]     [1, 384, 14, 14]     1,201,920            4,945,536              4.20%              True
│    │    └─CNBlock: 3-14                     [1, 384, 14, 14]     [1, 384, 14, 14]     1,201,920            4,945,536              4.20%              True
│    │    └─CNBlock: 3-15                     [1, 384, 14, 14]     [1, 384, 14, 14]     1,201,920            4,945,536              4.20%              True
│    │    └─CNBlock: 3-16                     [1, 384, 14, 14]     [1, 384, 14, 14]     1,201,920            4,945,536              4.20%              True
│    │    └─CNBlock: 3-17                     [1, 384, 14, 14]     [1, 384, 14, 14]     1,201,920            4,945,536              4.20%              True
│    │    └─CNBlock: 3-18                     [1, 384, 14, 14]     [1, 384, 14, 14]     1,201,920            4,945,536              4.20%              True
│    │    └─CNBlock: 3-19                     [1, 384, 14, 14]     [1, 384, 14, 14]     1,201,920            4,945,536              4.20%              True
│    │    └─CNBlock: 3-20                     [1, 384, 14, 14]     [1, 384, 14, 14]     1,201,920            4,945,536              4.20%              True
│    │    └─CNBlock: 3-21                     [1, 384, 14, 14]     [1, 384, 14, 14]     1,201,920            4,945,536              4.20%              True
│    └─Sequential: 2-7                        [1, 384, 14, 14]     [1, 768, 7, 7]       --                   --                        --              True
│    │    └─LayerNorm2d: 3-22                 [1, 384, 14, 14]     [1, 384, 14, 14]     768                  768                    0.00%              True
│    │    └─Conv2d: 3-23                      [1, 384, 14, 14]     [1, 768, 7, 7]       1,180,416            57,840,384             4.13%              True
│    └─Sequential: 2-8                        [1, 768, 7, 7]       [1, 768, 7, 7]       --                   --                        --              True
│    │    └─CNBlock: 3-24                     [1, 768, 7, 7]       [1, 768, 7, 7]       4,763,136            6,605,568             16.66%              True
│    │    └─CNBlock: 3-25                     [1, 768, 7, 7]       [1, 768, 7, 7]       4,763,136            6,605,568             16.66%              True
│    │    └─CNBlock: 3-26                     [1, 768, 7, 7]       [1, 768, 7, 7]       4,763,136            6,605,568             16.66%              True
├─AdaptiveAvgPool2d: 1-2                      [1, 768, 7, 7]       [1, 768, 1, 1]       --                   --                        --              --
├─Sequential: 1-3                             [1, 768, 1, 1]       [1, 1000]            --                   --                        --              True
│    └─LayerNorm2d: 2-9                       [1, 768, 1, 1]       [1, 768, 1, 1]       1,536                1,536                  0.01%              True
│    └─Flatten: 2-10                          [1, 768, 1, 1]       [1, 768]             --                   --                        --              --
│    └─Linear: 2-11                           [1, 768]             [1, 1000]            769,000              769,000                2.69%              True
=====================================================================================================================================================================
Total params: 28,589,128
Trainable params: 28,589,128
Non-trainable params: 0
Total mult-adds (Units.MEGABYTES): 322.37
=====================================================================================================================================================================
…
convnext_small
Initializing parameters...
Finished.
=====================================================================================================================================================================
Layer (type:depth-idx)                        Input Shape          Output Shape         Param #              Mult-Adds            Param %              Trainable
=====================================================================================================================================================================
ConvNeXt                                      [1, 3, 224, 224]     [1, 1000]            --                   --                        --              True
├─Sequential: 1-1                             [1, 3, 224, 224]     [1, 768, 7, 7]       --                   --                        --              True
│    └─Conv2dNormActivation: 2-1              [1, 3, 224, 224]     [1, 96, 56, 56]      --                   --                        --              True
│    │    └─Conv2d: 3-1                       [1, 3, 224, 224]     [1, 96, 56, 56]      4,704                14,751,744             0.01%              True
│    │    └─LayerNorm2d: 3-2                  [1, 96, 56, 56]      [1, 96, 56, 56]      192                  192                    0.00%              True
│    └─Sequential: 2-2                        [1, 96, 56, 56]      [1, 96, 56, 56]      --                   --                        --              True
│    │    └─CNBlock: 3-3                      [1, 96, 56, 56]      [1, 96, 56, 56]      79,296               15,127,200             0.16%              True
│    │    └─CNBlock: 3-4                      [1, 96, 56, 56]      [1, 96, 56, 56]      79,296               15,127,200             0.16%              True
│    │    └─CNBlock: 3-5                      [1, 96, 56, 56]      [1, 96, 56, 56]      79,296               15,127,200             0.16%              True
│    └─Sequential: 2-3                        [1, 96, 56, 56]      [1, 192, 28, 28]     --                   --                        --              True
│    │    └─LayerNorm2d: 3-6                  [1, 96, 56, 56]      [1, 96, 56, 56]      192                  192                    0.00%              True
│    │    └─Conv2d: 3-7                       [1, 96, 56, 56]      [1, 192, 28, 28]     73,920               57,953,280             0.15%              True
│    └─Sequential: 2-4                        [1, 192, 28, 28]     [1, 192, 28, 28]     --                   --                        --              True
│    │    └─CNBlock: 3-8                      [1, 192, 28, 28]     [1, 192, 28, 28]     306,048              7,822,656              0.61%              True
│    │    └─CNBlock: 3-9                      [1, 192, 28, 28]     [1, 192, 28, 28]     306,048              7,822,656              0.61%              True
│    │    └─CNBlock: 3-10                     [1, 192, 28, 28]     [1, 192, 28, 28]     306,048              7,822,656              0.61%              True
│    └─Sequential: 2-5                        [1, 192, 28, 28]     [1, 384, 14, 14]     --                   --                        --              True
│    │    └─LayerNorm2d: 3-11                 [1, 192, 28, 28]     [1, 192, 28, 28]     384                  384                    0.00%              True
│    │    └─Conv2d: 3-12                      [1, 192, 28, 28]     [1, 384, 14, 14]     295,296              57,878,016             0.59%              True
│    └─Sequential: 2-6                        [1, 384, 14, 14]     [1, 384, 14, 14]     --                   --                        --              True
│    │    └─CNBlock: 3-13                     [1, 384, 14, 14]     [1, 384, 14, 14]     1,201,920            4,945,536              2.39%              True
│    │    └─CNBlock: 3-14                     [1, 384, 14, 14]     [1, 384, 14, 14]     1,201,920            4,945,536              2.39%              True
│    │    └─CNBlock: 3-15                     [1, 384, 14, 14]     [1, 384, 14, 14]     1,201,920            4,945,536              2.39%              True
│    │    └─CNBlock: 3-16                     [1, 384, 14, 14]     [1, 384, 14, 14]     1,201,920            4,945,536              2.39%              True
│    │    └─CNBlock: 3-17                     [1, 384, 14, 14]     [1, 384, 14, 14]     1,201,920            4,945,536              2.39%              True
│    │    └─CNBlock: 3-18                     [1, 384, 14, 14]     [1, 384, 14, 14]     1,201,920            4,945,536              2.39%              True
│    │    └─CNBlock: 3-19                     [1, 384, 14, 14]     [1, 384, 14, 14]     1,201,920            4,945,536              2.39%              True
│    │    └─CNBlock: 3-20                     [1, 384, 14, 14]     [1, 384, 14, 14]     1,201,920            4,945,536              2.39%              True
│    │    └─CNBlock: 3-21                     [1, 384, 14, 14]     [1, 384, 14, 14]     1,201,920            4,945,536              2.39%              True
│    │    └─CNBlock: 3-22                     [1, 384, 14, 14]     [1, 384, 14, 14]     1,201,920            4,945,536              2.39%              True
│    │    └─CNBlock: 3-23                     [1, 384, 14, 14]     [1, 384, 14, 14]     1,201,920            4,945,536              2.39%              True
│    │    └─CNBlock: 3-24                     [1, 384, 14, 14]     [1, 384, 14, 14]     1,201,920            4,945,536              2.39%              True
│    │    └─CNBlock: 3-25                     [1, 384, 14, 14]     [1, 384, 14, 14]     1,201,920            4,945,536              2.39%              True
│    │    └─CNBlock: 3-26                     [1, 384, 14, 14]     [1, 384, 14, 14]     1,201,920            4,945,536              2.39%              True
│    │    └─CNBlock: 3-27                     [1, 384, 14, 14]     [1, 384, 14, 14]     1,201,920            4,945,536              2.39%              True
│    │    └─CNBlock: 3-28                     [1, 384, 14, 14]     [1, 384, 14, 14]     1,201,920            4,945,536              2.39%              True
│    │    └─CNBlock: 3-29                     [1, 384, 14, 14]     [1, 384, 14, 14]     1,201,920            4,945,536              2.39%              True
│    │    └─CNBlock: 3-30                     [1, 384, 14, 14]     [1, 384, 14, 14]     1,201,920            4,945,536              2.39%              True
│    │    └─CNBlock: 3-31                     [1, 384, 14, 14]     [1, 384, 14, 14]     1,201,920            4,945,536              2.39%              True
│    │    └─CNBlock: 3-32                     [1, 384, 14, 14]     [1, 384, 14, 14]     1,201,920            4,945,536              2.39%              True
│    │    └─CNBlock: 3-33                     [1, 384, 14, 14]     [1, 384, 14, 14]     1,201,920            4,945,536              2.39%              True
│    │    └─CNBlock: 3-34                     [1, 384, 14, 14]     [1, 384, 14, 14]     1,201,920            4,945,536              2.39%              True
│    │    └─CNBlock: 3-35                     [1, 384, 14, 14]     [1, 384, 14, 14]     1,201,920            4,945,536              2.39%              True
│    │    └─CNBlock: 3-36                     [1, 384, 14, 14]     [1, 384, 14, 14]     1,201,920            4,945,536              2.39%              True
│    │    └─CNBlock: 3-37                     [1, 384, 14, 14]     [1, 384, 14, 14]     1,201,920            4,945,536              2.39%              True
│    │    └─CNBlock: 3-38                     [1, 384, 14, 14]     [1, 384, 14, 14]     1,201,920            4,945,536              2.39%              True
│    │    └─CNBlock: 3-39                     [1, 384, 14, 14]     [1, 384, 14, 14]     1,201,920            4,945,536              2.39%              True
│    └─Sequential: 2-7                        [1, 384, 14, 14]     [1, 768, 7, 7]       --                   --                        --              True
│    │    └─LayerNorm2d: 3-40                 [1, 384, 14, 14]     [1, 384, 14, 14]     768                  768                    0.00%              True
│    │    └─Conv2d: 3-41                      [1, 384, 14, 14]     [1, 768, 7, 7]       1,180,416            57,840,384             2.35%              True
│    └─Sequential: 2-8                        [1, 768, 7, 7]       [1, 768, 7, 7]       --                   --                        --              True
│    │    └─CNBlock: 3-42                     [1, 768, 7, 7]       [1, 768, 7, 7]       4,763,136            6,605,568              9.48%              True
│    │    └─CNBlock: 3-43                     [1, 768, 7, 7]       [1, 768, 7, 7]       4,763,136            6,605,568              9.48%              True
│    │    └─CNBlock: 3-44                     [1, 768, 7, 7]       [1, 768, 7, 7]       4,763,136            6,605,568              9.48%              True
├─AdaptiveAvgPool2d: 1-2                      [1, 768, 7, 7]       [1, 768, 1, 1]       --                   --                        --              --
├─Sequential: 1-3                             [1, 768, 1, 1]       [1, 1000]            --                   --                        --              True
│    └─LayerNorm2d: 2-9                       [1, 768, 1, 1]       [1, 768, 1, 1]       1,536                1,536                  0.00%              True
│    └─Flatten: 2-10                          [1, 768, 1, 1]       [1, 768]             --                   --                        --              --
│    └─Linear: 2-11                           [1, 768]             [1, 1000]            769,000              769,000                1.53%              True
=====================================================================================================================================================================
Total params: 50,223,688
Trainable params: 50,223,688
Non-trainable params: 0
Total mult-adds (Units.MEGABYTES): 411.39
=====================================================================================================================================================================
…
convnext_large
Initializing parameters...
Finished.
=====================================================================================================================================================================
Layer (type:depth-idx)                        Input Shape          Output Shape         Param #              Mult-Adds            Param %              Trainable
=====================================================================================================================================================================
ConvNeXt                                      [1, 3, 224, 224]     [1, 1000]            --                   --                        --              True
├─Sequential: 1-1                             [1, 3, 224, 224]     [1, 1536, 7, 7]      --                   --                        --              True
│    └─Conv2dNormActivation: 2-1              [1, 3, 224, 224]     [1, 192, 56, 56]     --                   --                        --              True
│    │    └─Conv2d: 3-1                       [1, 3, 224, 224]     [1, 192, 56, 56]     9,408                29,503,488             0.00%              True
│    │    └─LayerNorm2d: 3-2                  [1, 192, 56, 56]     [1, 192, 56, 56]     384                  384                    0.00%              True
│    └─Sequential: 2-2                        [1, 192, 56, 56]     [1, 192, 56, 56]     --                   --                        --              True
│    │    └─CNBlock: 3-3                      [1, 192, 56, 56]     [1, 192, 56, 56]     306,048              30,401,856             0.15%              True
│    │    └─CNBlock: 3-4                      [1, 192, 56, 56]     [1, 192, 56, 56]     306,048              30,401,856             0.15%              True
│    │    └─CNBlock: 3-5                      [1, 192, 56, 56]     [1, 192, 56, 56]     306,048              30,401,856             0.15%              True
│    └─Sequential: 2-3                        [1, 192, 56, 56]     [1, 384, 28, 28]     --                   --                        --              True
│    │    └─LayerNorm2d: 3-6                  [1, 192, 56, 56]     [1, 192, 56, 56]     384                  384                    0.00%              True
│    │    └─Conv2d: 3-7                       [1, 192, 56, 56]     [1, 384, 28, 28]     295,296              231,512,064            0.15%              True
│    └─Sequential: 2-4                        [1, 384, 28, 28]     [1, 384, 28, 28]     --                   --                        --              True
│    │    └─CNBlock: 3-8                      [1, 384, 28, 28]     [1, 384, 28, 28]     1,201,920            16,235,136             0.61%              True
│    │    └─CNBlock: 3-9                      [1, 384, 28, 28]     [1, 384, 28, 28]     1,201,920            16,235,136             0.61%              True
│    │    └─CNBlock: 3-10                     [1, 384, 28, 28]     [1, 384, 28, 28]     1,201,920            16,235,136             0.61%              True
│    └─Sequential: 2-5                        [1, 384, 28, 28]     [1, 768, 14, 14]     --                   --                        --              True
│    │    └─LayerNorm2d: 3-11                 [1, 384, 28, 28]     [1, 384, 28, 28]     768                  768                    0.00%              True
│    │    └─Conv2d: 3-12                      [1, 384, 28, 28]     [1, 768, 14, 14]     1,180,416            231,361,536            0.60%              True
│    └─Sequential: 2-6                        [1, 768, 14, 14]     [1, 768, 14, 14]     --                   --                        --              True
│    │    └─CNBlock: 3-13                     [1, 768, 14, 14]     [1, 768, 14, 14]     4,763,136            12,250,368             2.41%              True
│    │    └─CNBlock: 3-14                     [1, 768, 14, 14]     [1, 768, 14, 14]     4,763,136            12,250,368             2.41%              True
│    │    └─CNBlock: 3-15                     [1, 768, 14, 14]     [1, 768, 14, 14]     4,763,136            12,250,368             2.41%              True
│    │    └─CNBlock: 3-16                     [1, 768, 14, 14]     [1, 768, 14, 14]     4,763,136            12,250,368             2.41%              True
│    │    └─CNBlock: 3-17                     [1, 768, 14, 14]     [1, 768, 14, 14]     4,763,136            12,250,368             2.41%              True
│    │    └─CNBlock: 3-18                     [1, 768, 14, 14]     [1, 768, 14, 14]     4,763,136            12,250,368             2.41%              True
│    │    └─CNBlock: 3-19                     [1, 768, 14, 14]     [1, 768, 14, 14]     4,763,136            12,250,368             2.41%              True
│    │    └─CNBlock: 3-20                     [1, 768, 14, 14]     [1, 768, 14, 14]     4,763,136            12,250,368             2.41%              True
│    │    └─CNBlock: 3-21                     [1, 768, 14, 14]     [1, 768, 14, 14]     4,763,136            12,250,368             2.41%              True
│    │    └─CNBlock: 3-22                     [1, 768, 14, 14]     [1, 768, 14, 14]     4,763,136            12,250,368             2.41%              True
│    │    └─CNBlock: 3-23                     [1, 768, 14, 14]     [1, 768, 14, 14]     4,763,136            12,250,368             2.41%              True
│    │    └─CNBlock: 3-24                     [1, 768, 14, 14]     [1, 768, 14, 14]     4,763,136            12,250,368             2.41%              True
│    │    └─CNBlock: 3-25                     [1, 768, 14, 14]     [1, 768, 14, 14]     4,763,136            12,250,368             2.41%              True
│    │    └─CNBlock: 3-26                     [1, 768, 14, 14]     [1, 768, 14, 14]     4,763,136            12,250,368             2.41%              True
│    │    └─CNBlock: 3-27                     [1, 768, 14, 14]     [1, 768, 14, 14]     4,763,136            12,250,368             2.41%              True
│    │    └─CNBlock: 3-28                     [1, 768, 14, 14]     [1, 768, 14, 14]     4,763,136            12,250,368             2.41%              True
│    │    └─CNBlock: 3-29                     [1, 768, 14, 14]     [1, 768, 14, 14]     4,763,136            12,250,368             2.41%              True
│    │    └─CNBlock: 3-30                     [1, 768, 14, 14]     [1, 768, 14, 14]     4,763,136            12,250,368             2.41%              True
│    │    └─CNBlock: 3-31                     [1, 768, 14, 14]     [1, 768, 14, 14]     4,763,136            12,250,368             2.41%              True
│    │    └─CNBlock: 3-32                     [1, 768, 14, 14]     [1, 768, 14, 14]     4,763,136            12,250,368             2.41%              True
│    │    └─CNBlock: 3-33                     [1, 768, 14, 14]     [1, 768, 14, 14]     4,763,136            12,250,368             2.41%              True
│    │    └─CNBlock: 3-34                     [1, 768, 14, 14]     [1, 768, 14, 14]     4,763,136            12,250,368             2.41%              True
│    │    └─CNBlock: 3-35                     [1, 768, 14, 14]     [1, 768, 14, 14]     4,763,136            12,250,368             2.41%              True
│    │    └─CNBlock: 3-36                     [1, 768, 14, 14]     [1, 768, 14, 14]     4,763,136            12,250,368             2.41%              True
│    │    └─CNBlock: 3-37                     [1, 768, 14, 14]     [1, 768, 14, 14]     4,763,136            12,250,368             2.41%              True
│    │    └─CNBlock: 3-38                     [1, 768, 14, 14]     [1, 768, 14, 14]     4,763,136            12,250,368             2.41%              True
│    │    └─CNBlock: 3-39                     [1, 768, 14, 14]     [1, 768, 14, 14]     4,763,136            12,250,368             2.41%              True
│    └─Sequential: 2-7                        [1, 768, 14, 14]     [1, 1536, 7, 7]      --                   --                        --              True
│    │    └─LayerNorm2d: 3-40                 [1, 768, 14, 14]     [1, 768, 14, 14]     1,536                1,536                  0.00%              True
│    │    └─Conv2d: 3-41                      [1, 768, 14, 14]     [1, 1536, 7, 7]      4,720,128            231,286,272            2.39%              True
│    └─Sequential: 2-8                        [1, 1536, 7, 7]      [1, 1536, 7, 7]      --                   --                        --              True
│    │    └─CNBlock: 3-42                     [1, 1536, 7, 7]      [1, 1536, 7, 7]      18,963,456           22,648,320             9.59%              True
│    │    └─CNBlock: 3-43                     [1, 1536, 7, 7]      [1, 1536, 7, 7]      18,963,456           22,648,320             9.59%              True
│    │    └─CNBlock: 3-44                     [1, 1536, 7, 7]      [1, 1536, 7, 7]      18,963,456           22,648,320             9.59%              True
├─AdaptiveAvgPool2d: 1-2                      [1, 1536, 7, 7]      [1, 1536, 1, 1]      --                   --                        --              --
├─Sequential: 1-3                             [1, 1536, 1, 1]      [1, 1000]            --                   --                        --              True
│    └─LayerNorm2d: 2-9                       [1, 1536, 1, 1]      [1, 1536, 1, 1]      3,072                3,072                  0.00%              True
│    └─Flatten: 2-10                          [1, 1536, 1, 1]      [1, 1536]            --                   --                        --              --
│    └─Linear: 2-11                           [1, 1536]            [1, 1000]            1,537,000            1,537,000              0.78%              True
=====================================================================================================================================================================
Total params: 197,767,336
Trainable params: 197,767,336
Non-trainable params: 0
Total mult-adds (Units.GIGABYTES): 1.26
=====================================================================================================================================================================
…
##########################################################################################3


densenet121
Initializing parameters...
Finished.
================================================================================================================================================================
Layer (type:depth-idx)                   Input Shape          Output Shape         Param #              Mult-Adds            Param %              Trainable
================================================================================================================================================================
DenseNet                                 [1, 3, 224, 224]     [1, 1000]            --                   --                        --              True
├─Sequential: 1-1                        [1, 3, 224, 224]     [1, 1024, 7, 7]      --                   --                        --              True
│    └─Conv2d: 2-1                       [1, 3, 224, 224]     [1, 64, 112, 112]    9,408                118,013,952            0.12%              True
│    └─BatchNorm2d: 2-2                  [1, 64, 112, 112]    [1, 64, 112, 112]    128                  128                    0.00%              True
│    └─ReLU: 2-3                         [1, 64, 112, 112]    [1, 64, 112, 112]    --                   --                        --              --
│    └─MaxPool2d: 2-4                    [1, 64, 112, 112]    [1, 64, 56, 56]      --                   --                        --              --
│    └─_DenseBlock: 2-5                  [1, 64, 56, 56]      [1, 256, 56, 56]     --                   --                        --              True
│    │    └─_DenseLayer: 3-1             [1, 64, 56, 56]      [1, 32, 56, 56]      45,440               141,296,000            0.57%              True
│    │    └─_DenseLayer: 3-2             [1, 64, 56, 56]      [1, 32, 56, 56]      49,600               154,141,120            0.62%              True
│    │    └─_DenseLayer: 3-3             [1, 64, 56, 56]      [1, 32, 56, 56]      53,760               166,986,240            0.67%              True
│    │    └─_DenseLayer: 3-4             [1, 64, 56, 56]      [1, 32, 56, 56]      57,920               179,831,360            0.73%              True
│    │    └─_DenseLayer: 3-5             [1, 64, 56, 56]      [1, 32, 56, 56]      62,080               192,676,480            0.78%              True
│    │    └─_DenseLayer: 3-6             [1, 64, 56, 56]      [1, 32, 56, 56]      66,240               205,521,600            0.83%              True
│    └─_Transition: 2-6                  [1, 256, 56, 56]     [1, 128, 28, 28]     --                   --                        --              True
│    │    └─BatchNorm2d: 3-7             [1, 256, 56, 56]     [1, 256, 56, 56]     512                  512                    0.01%              True
│    │    └─ReLU: 3-8                    [1, 256, 56, 56]     [1, 256, 56, 56]     --                   --                        --              --
│    │    └─Conv2d: 3-9                  [1, 256, 56, 56]     [1, 128, 56, 56]     32,768               102,760,448            0.41%              True
│    │    └─AvgPool2d: 3-10              [1, 128, 56, 56]     [1, 128, 28, 28]     --                   --                        --              --
│    └─_DenseBlock: 2-7                  [1, 128, 28, 28]     [1, 512, 28, 28]     --                   --                        --              True
│    │    └─_DenseLayer: 3-11            [1, 128, 28, 28]     [1, 32, 28, 28]      53,760               41,746,944             0.67%              True
│    │    └─_DenseLayer: 3-12            [1, 128, 28, 28]     [1, 32, 28, 28]      57,920               44,958,272             0.73%              True
│    │    └─_DenseLayer: 3-13            [1, 128, 28, 28]     [1, 32, 28, 28]      62,080               48,169,600             0.78%              True
│    │    └─_DenseLayer: 3-14            [1, 128, 28, 28]     [1, 32, 28, 28]      66,240               51,380,928             0.83%              True
│    │    └─_DenseLayer: 3-15            [1, 128, 28, 28]     [1, 32, 28, 28]      70,400               54,592,256             0.88%              True
│    │    └─_DenseLayer: 3-16            [1, 128, 28, 28]     [1, 32, 28, 28]      74,560               57,803,584             0.93%              True
│    │    └─_DenseLayer: 3-17            [1, 128, 28, 28]     [1, 32, 28, 28]      78,720               61,014,912             0.99%              True
│    │    └─_DenseLayer: 3-18            [1, 128, 28, 28]     [1, 32, 28, 28]      82,880               64,226,240             1.04%              True
│    │    └─_DenseLayer: 3-19            [1, 128, 28, 28]     [1, 32, 28, 28]      87,040               67,437,568             1.09%              True
│    │    └─_DenseLayer: 3-20            [1, 128, 28, 28]     [1, 32, 28, 28]      91,200               70,648,896             1.14%              True
│    │    └─_DenseLayer: 3-21            [1, 128, 28, 28]     [1, 32, 28, 28]      95,360               73,860,224             1.20%              True
│    │    └─_DenseLayer: 3-22            [1, 128, 28, 28]     [1, 32, 28, 28]      99,520               77,071,552             1.25%              True
│    └─_Transition: 2-8                  [1, 512, 28, 28]     [1, 256, 14, 14]     --                   --                        --              True
│    │    └─BatchNorm2d: 3-23            [1, 512, 28, 28]     [1, 512, 28, 28]     1,024                1,024                  0.01%              True
│    │    └─ReLU: 3-24                   [1, 512, 28, 28]     [1, 512, 28, 28]     --                   --                        --              --
│    │    └─Conv2d: 3-25                 [1, 512, 28, 28]     [1, 256, 28, 28]     131,072              102,760,448            1.64%              True
│    │    └─AvgPool2d: 3-26              [1, 256, 28, 28]     [1, 256, 14, 14]     --                   --                        --              --
│    └─_DenseBlock: 2-9                  [1, 256, 14, 14]     [1, 1024, 14, 14]    --                   --                        --              True
│    │    └─_DenseLayer: 3-27            [1, 256, 14, 14]     [1, 32, 14, 14]      70,400               13,648,640             0.88%              True
│    │    └─_DenseLayer: 3-28            [1, 256, 14, 14]     [1, 32, 14, 14]      74,560               14,451,520             0.93%              True
│    │    └─_DenseLayer: 3-29            [1, 256, 14, 14]     [1, 32, 14, 14]      78,720               15,254,400             0.99%              True
│    │    └─_DenseLayer: 3-30            [1, 256, 14, 14]     [1, 32, 14, 14]      82,880               16,057,280             1.04%              True
│    │    └─_DenseLayer: 3-31            [1, 256, 14, 14]     [1, 32, 14, 14]      87,040               16,860,160             1.09%              True
│    │    └─_DenseLayer: 3-32            [1, 256, 14, 14]     [1, 32, 14, 14]      91,200               17,663,040             1.14%              True
│    │    └─_DenseLayer: 3-33            [1, 256, 14, 14]     [1, 32, 14, 14]      95,360               18,465,920             1.20%              True
│    │    └─_DenseLayer: 3-34            [1, 256, 14, 14]     [1, 32, 14, 14]      99,520               19,268,800             1.25%              True
│    │    └─_DenseLayer: 3-35            [1, 256, 14, 14]     [1, 32, 14, 14]      103,680              20,071,680             1.30%              True
│    │    └─_DenseLayer: 3-36            [1, 256, 14, 14]     [1, 32, 14, 14]      107,840              20,874,560             1.35%              True
│    │    └─_DenseLayer: 3-37            [1, 256, 14, 14]     [1, 32, 14, 14]      112,000              21,677,440             1.40%              True
│    │    └─_DenseLayer: 3-38            [1, 256, 14, 14]     [1, 32, 14, 14]      116,160              22,480,320             1.46%              True
│    │    └─_DenseLayer: 3-39            [1, 256, 14, 14]     [1, 32, 14, 14]      120,320              23,283,200             1.51%              True
│    │    └─_DenseLayer: 3-40            [1, 256, 14, 14]     [1, 32, 14, 14]      124,480              24,086,080             1.56%              True
│    │    └─_DenseLayer: 3-41            [1, 256, 14, 14]     [1, 32, 14, 14]      128,640              24,888,960             1.61%              True
│    │    └─_DenseLayer: 3-42            [1, 256, 14, 14]     [1, 32, 14, 14]      132,800              25,691,840             1.66%              True
│    │    └─_DenseLayer: 3-43            [1, 256, 14, 14]     [1, 32, 14, 14]      136,960              26,494,720             1.72%              True
│    │    └─_DenseLayer: 3-44            [1, 256, 14, 14]     [1, 32, 14, 14]      141,120              27,297,600             1.77%              True
│    │    └─_DenseLayer: 3-45            [1, 256, 14, 14]     [1, 32, 14, 14]      145,280              28,100,480             1.82%              True
│    │    └─_DenseLayer: 3-46            [1, 256, 14, 14]     [1, 32, 14, 14]      149,440              28,903,360             1.87%              True
│    │    └─_DenseLayer: 3-47            [1, 256, 14, 14]     [1, 32, 14, 14]      153,600              29,706,240             1.93%              True
│    │    └─_DenseLayer: 3-48            [1, 256, 14, 14]     [1, 32, 14, 14]      157,760              30,509,120             1.98%              True
│    │    └─_DenseLayer: 3-49            [1, 256, 14, 14]     [1, 32, 14, 14]      161,920              31,312,000             2.03%              True
│    │    └─_DenseLayer: 3-50            [1, 256, 14, 14]     [1, 32, 14, 14]      166,080              32,114,880             2.08%              True
│    └─_Transition: 2-10                 [1, 1024, 14, 14]    [1, 512, 7, 7]       --                   --                        --              True
│    │    └─BatchNorm2d: 3-51            [1, 1024, 14, 14]    [1, 1024, 14, 14]    2,048                2,048                  0.03%              True
│    │    └─ReLU: 3-52                   [1, 1024, 14, 14]    [1, 1024, 14, 14]    --                   --                        --              --
│    │    └─Conv2d: 3-53                 [1, 1024, 14, 14]    [1, 512, 14, 14]     524,288              102,760,448            6.57%              True
│    │    └─AvgPool2d: 3-54              [1, 512, 14, 14]     [1, 512, 7, 7]       --                   --                        --              --
│    └─_DenseBlock: 2-11                 [1, 512, 7, 7]       [1, 1024, 7, 7]      --                   --                        --              True
│    │    └─_DenseLayer: 3-55            [1, 512, 7, 7]       [1, 32, 7, 7]        103,680              5,018,880              1.30%              True
│    │    └─_DenseLayer: 3-56            [1, 512, 7, 7]       [1, 32, 7, 7]        107,840              5,219,648              1.35%              True
│    │    └─_DenseLayer: 3-57            [1, 512, 7, 7]       [1, 32, 7, 7]        112,000              5,420,416              1.40%              True
│    │    └─_DenseLayer: 3-58            [1, 512, 7, 7]       [1, 32, 7, 7]        116,160              5,621,184              1.46%              True
│    │    └─_DenseLayer: 3-59            [1, 512, 7, 7]       [1, 32, 7, 7]        120,320              5,821,952              1.51%              True
│    │    └─_DenseLayer: 3-60            [1, 512, 7, 7]       [1, 32, 7, 7]        124,480              6,022,720              1.56%              True
│    │    └─_DenseLayer: 3-61            [1, 512, 7, 7]       [1, 32, 7, 7]        128,640              6,223,488              1.61%              True
│    │    └─_DenseLayer: 3-62            [1, 512, 7, 7]       [1, 32, 7, 7]        132,800              6,424,256              1.66%              True
│    │    └─_DenseLayer: 3-63            [1, 512, 7, 7]       [1, 32, 7, 7]        136,960              6,625,024              1.72%              True
│    │    └─_DenseLayer: 3-64            [1, 512, 7, 7]       [1, 32, 7, 7]        141,120              6,825,792              1.77%              True
│    │    └─_DenseLayer: 3-65            [1, 512, 7, 7]       [1, 32, 7, 7]        145,280              7,026,560              1.82%              True
│    │    └─_DenseLayer: 3-66            [1, 512, 7, 7]       [1, 32, 7, 7]        149,440              7,227,328              1.87%              True
│    │    └─_DenseLayer: 3-67            [1, 512, 7, 7]       [1, 32, 7, 7]        153,600              7,428,096              1.93%              True
│    │    └─_DenseLayer: 3-68            [1, 512, 7, 7]       [1, 32, 7, 7]        157,760              7,628,864              1.98%              True
│    │    └─_DenseLayer: 3-69            [1, 512, 7, 7]       [1, 32, 7, 7]        161,920              7,829,632              2.03%              True
│    │    └─_DenseLayer: 3-70            [1, 512, 7, 7]       [1, 32, 7, 7]        166,080              8,030,400              2.08%              True
│    └─BatchNorm2d: 2-12                 [1, 1024, 7, 7]      [1, 1024, 7, 7]      2,048                2,048                  0.03%              True
├─Linear: 1-2                            [1, 1024]            [1, 1000]            1,025,000            1,025,000             12.85%              True
================================================================================================================================================================
Total params: 7,978,856
Trainable params: 7,978,856
Non-trainable params: 0
Total mult-adds (Units.GIGABYTES): 2.83
================================================================================================================================================================
…
##########################################################################################3


densenet161
Initializing parameters...
Finished.
================================================================================================================================================================
Layer (type:depth-idx)                   Input Shape          Output Shape         Param #              Mult-Adds            Param %              Trainable
================================================================================================================================================================
DenseNet                                 [1, 3, 224, 224]     [1, 1000]            --                   --                        --              True
├─Sequential: 1-1                        [1, 3, 224, 224]     [1, 2208, 7, 7]      --                   --                        --              True
│    └─Conv2d: 2-1                       [1, 3, 224, 224]     [1, 96, 112, 112]    14,112               177,020,928            0.05%              True
│    └─BatchNorm2d: 2-2                  [1, 96, 112, 112]    [1, 96, 112, 112]    192                  192                    0.00%              True
│    └─ReLU: 2-3                         [1, 96, 112, 112]    [1, 96, 112, 112]    --                   --                        --              --
│    └─MaxPool2d: 2-4                    [1, 96, 112, 112]    [1, 96, 56, 56]      --                   --                        --              --
│    └─_DenseBlock: 2-5                  [1, 96, 56, 56]      [1, 384, 56, 56]     --                   --                        --              True
│    │    └─_DenseLayer: 3-1             [1, 96, 56, 56]      [1, 48, 56, 56]      101,952              317,915,712            0.36%              True
│    │    └─_DenseLayer: 3-2             [1, 96, 56, 56]      [1, 48, 56, 56]      111,264              346,817,184            0.39%              True
│    │    └─_DenseLayer: 3-3             [1, 96, 56, 56]      [1, 48, 56, 56]      120,576              375,718,656            0.42%              True
│    │    └─_DenseLayer: 3-4             [1, 96, 56, 56]      [1, 48, 56, 56]      129,888              404,620,128            0.45%              True
│    │    └─_DenseLayer: 3-5             [1, 96, 56, 56]      [1, 48, 56, 56]      139,200              433,521,600            0.49%              True
│    │    └─_DenseLayer: 3-6             [1, 96, 56, 56]      [1, 48, 56, 56]      148,512              462,423,072            0.52%              True
│    └─_Transition: 2-6                  [1, 384, 56, 56]     [1, 192, 28, 28]     --                   --                        --              True
│    │    └─BatchNorm2d: 3-7             [1, 384, 56, 56]     [1, 384, 56, 56]     768                  768                    0.00%              True
│    │    └─ReLU: 3-8                    [1, 384, 56, 56]     [1, 384, 56, 56]     --                   --                        --              --
│    │    └─Conv2d: 3-9                  [1, 384, 56, 56]     [1, 192, 56, 56]     73,728               231,211,008            0.26%              True
│    │    └─AvgPool2d: 3-10              [1, 192, 56, 56]     [1, 192, 28, 28]     --                   --                        --              --
│    └─_DenseBlock: 2-7                  [1, 192, 28, 28]     [1, 768, 28, 28]     --                   --                        --              True
│    │    └─_DenseLayer: 3-11            [1, 192, 28, 28]     [1, 48, 28, 28]      120,576              93,930,240             0.42%              True
│    │    └─_DenseLayer: 3-12            [1, 192, 28, 28]     [1, 48, 28, 28]      129,888              101,155,680            0.45%              True
│    │    └─_DenseLayer: 3-13            [1, 192, 28, 28]     [1, 48, 28, 28]      139,200              108,381,120            0.49%              True
│    │    └─_DenseLayer: 3-14            [1, 192, 28, 28]     [1, 48, 28, 28]      148,512              115,606,560            0.52%              True
│    │    └─_DenseLayer: 3-15            [1, 192, 28, 28]     [1, 48, 28, 28]      157,824              122,832,000            0.55%              True
│    │    └─_DenseLayer: 3-16            [1, 192, 28, 28]     [1, 48, 28, 28]      167,136              130,057,440            0.58%              True
│    │    └─_DenseLayer: 3-17            [1, 192, 28, 28]     [1, 48, 28, 28]      176,448              137,282,880            0.62%              True
│    │    └─_DenseLayer: 3-18            [1, 192, 28, 28]     [1, 48, 28, 28]      185,760              144,508,320            0.65%              True
│    │    └─_DenseLayer: 3-19            [1, 192, 28, 28]     [1, 48, 28, 28]      195,072              151,733,760            0.68%              True
│    │    └─_DenseLayer: 3-20            [1, 192, 28, 28]     [1, 48, 28, 28]      204,384              158,959,200            0.71%              True
│    │    └─_DenseLayer: 3-21            [1, 192, 28, 28]     [1, 48, 28, 28]      213,696              166,184,640            0.75%              True
│    │    └─_DenseLayer: 3-22            [1, 192, 28, 28]     [1, 48, 28, 28]      223,008              173,410,080            0.78%              True
│    └─_Transition: 2-8                  [1, 768, 28, 28]     [1, 384, 14, 14]     --                   --                        --              True
│    │    └─BatchNorm2d: 3-23            [1, 768, 28, 28]     [1, 768, 28, 28]     1,536                1,536                  0.01%              True
│    │    └─ReLU: 3-24                   [1, 768, 28, 28]     [1, 768, 28, 28]     --                   --                        --              --
│    │    └─Conv2d: 3-25                 [1, 768, 28, 28]     [1, 384, 28, 28]     294,912              231,211,008            1.03%              True
│    │    └─AvgPool2d: 3-26              [1, 384, 28, 28]     [1, 384, 14, 14]     --                   --                        --              --
│    └─_DenseBlock: 2-9                  [1, 384, 14, 14]     [1, 2112, 14, 14]    --                   --                        --              True
│    │    └─_DenseLayer: 3-27            [1, 384, 14, 14]     [1, 48, 14, 14]      157,824              30,708,864             0.55%              True
│    │    └─_DenseLayer: 3-28            [1, 384, 14, 14]     [1, 48, 14, 14]      167,136              32,515,296             0.58%              True
│    │    └─_DenseLayer: 3-29            [1, 384, 14, 14]     [1, 48, 14, 14]      176,448              34,321,728             0.62%              True
│    │    └─_DenseLayer: 3-30            [1, 384, 14, 14]     [1, 48, 14, 14]      185,760              36,128,160             0.65%              True
│    │    └─_DenseLayer: 3-31            [1, 384, 14, 14]     [1, 48, 14, 14]      195,072              37,934,592             0.68%              True
│    │    └─_DenseLayer: 3-32            [1, 384, 14, 14]     [1, 48, 14, 14]      204,384              39,741,024             0.71%              True
│    │    └─_DenseLayer: 3-33            [1, 384, 14, 14]     [1, 48, 14, 14]      213,696              41,547,456             0.75%              True
│    │    └─_DenseLayer: 3-34            [1, 384, 14, 14]     [1, 48, 14, 14]      223,008              43,353,888             0.78%              True
│    │    └─_DenseLayer: 3-35            [1, 384, 14, 14]     [1, 48, 14, 14]      232,320              45,160,320             0.81%              True
│    │    └─_DenseLayer: 3-36            [1, 384, 14, 14]     [1, 48, 14, 14]      241,632              46,966,752             0.84%              True
│    │    └─_DenseLayer: 3-37            [1, 384, 14, 14]     [1, 48, 14, 14]      250,944              48,773,184             0.87%              True
│    │    └─_DenseLayer: 3-38            [1, 384, 14, 14]     [1, 48, 14, 14]      260,256              50,579,616             0.91%              True
│    │    └─_DenseLayer: 3-39            [1, 384, 14, 14]     [1, 48, 14, 14]      269,568              52,386,048             0.94%              True
│    │    └─_DenseLayer: 3-40            [1, 384, 14, 14]     [1, 48, 14, 14]      278,880              54,192,480             0.97%              True
│    │    └─_DenseLayer: 3-41            [1, 384, 14, 14]     [1, 48, 14, 14]      288,192              55,998,912             1.00%              True
│    │    └─_DenseLayer: 3-42            [1, 384, 14, 14]     [1, 48, 14, 14]      297,504              57,805,344             1.04%              True
│    │    └─_DenseLayer: 3-43            [1, 384, 14, 14]     [1, 48, 14, 14]      306,816              59,611,776             1.07%              True
│    │    └─_DenseLayer: 3-44            [1, 384, 14, 14]     [1, 48, 14, 14]      316,128              61,418,208             1.10%              True
│    │    └─_DenseLayer: 3-45            [1, 384, 14, 14]     [1, 48, 14, 14]      325,440              63,224,640             1.13%              True
│    │    └─_DenseLayer: 3-46            [1, 384, 14, 14]     [1, 48, 14, 14]      334,752              65,031,072             1.17%              True
│    │    └─_DenseLayer: 3-47            [1, 384, 14, 14]     [1, 48, 14, 14]      344,064              66,837,504             1.20%              True
│    │    └─_DenseLayer: 3-48            [1, 384, 14, 14]     [1, 48, 14, 14]      353,376              68,643,936             1.23%              True
│    │    └─_DenseLayer: 3-49            [1, 384, 14, 14]     [1, 48, 14, 14]      362,688              70,450,368             1.26%              True
│    │    └─_DenseLayer: 3-50            [1, 384, 14, 14]     [1, 48, 14, 14]      372,000              72,256,800             1.30%              True
│    │    └─_DenseLayer: 3-51            [1, 384, 14, 14]     [1, 48, 14, 14]      381,312              74,063,232             1.33%              True
│    │    └─_DenseLayer: 3-52            [1, 384, 14, 14]     [1, 48, 14, 14]      390,624              75,869,664             1.36%              True
│    │    └─_DenseLayer: 3-53            [1, 384, 14, 14]     [1, 48, 14, 14]      399,936              77,676,096             1.39%              True
│    │    └─_DenseLayer: 3-54            [1, 384, 14, 14]     [1, 48, 14, 14]      409,248              79,482,528             1.43%              True
│    │    └─_DenseLayer: 3-55            [1, 384, 14, 14]     [1, 48, 14, 14]      418,560              81,288,960             1.46%              True
│    │    └─_DenseLayer: 3-56            [1, 384, 14, 14]     [1, 48, 14, 14]      427,872              83,095,392             1.49%              True
│    │    └─_DenseLayer: 3-57            [1, 384, 14, 14]     [1, 48, 14, 14]      437,184              84,901,824             1.52%              True
│    │    └─_DenseLayer: 3-58            [1, 384, 14, 14]     [1, 48, 14, 14]      446,496              86,708,256             1.56%              True
│    │    └─_DenseLayer: 3-59            [1, 384, 14, 14]     [1, 48, 14, 14]      455,808              88,514,688             1.59%              True
│    │    └─_DenseLayer: 3-60            [1, 384, 14, 14]     [1, 48, 14, 14]      465,120              90,321,120             1.62%              True
│    │    └─_DenseLayer: 3-61            [1, 384, 14, 14]     [1, 48, 14, 14]      474,432              92,127,552             1.65%              True
│    │    └─_DenseLayer: 3-62            [1, 384, 14, 14]     [1, 48, 14, 14]      483,744              93,933,984             1.69%              True
│    └─_Transition: 2-10                 [1, 2112, 14, 14]    [1, 1056, 7, 7]      --                   --                        --              True
│    │    └─BatchNorm2d: 3-63            [1, 2112, 14, 14]    [1, 2112, 14, 14]    4,224                4,224                  0.01%              True
│    │    └─ReLU: 3-64                   [1, 2112, 14, 14]    [1, 2112, 14, 14]    --                   --                        --              --
│    │    └─Conv2d: 3-65                 [1, 2112, 14, 14]    [1, 1056, 14, 14]    2,230,272            437,133,312            7.78%              True
│    │    └─AvgPool2d: 3-66              [1, 1056, 14, 14]    [1, 1056, 7, 7]      --                   --                        --              --
│    └─_DenseBlock: 2-11                 [1, 1056, 7, 7]      [1, 2208, 7, 7]      --                   --                        --              True
│    │    └─_DenseLayer: 3-67            [1, 1056, 7, 7]      [1, 48, 7, 7]        288,192              14,001,600             1.00%              True
│    │    └─_DenseLayer: 3-68            [1, 1056, 7, 7]      [1, 48, 7, 7]        297,504              14,453,280             1.04%              True
│    │    └─_DenseLayer: 3-69            [1, 1056, 7, 7]      [1, 48, 7, 7]        306,816              14,904,960             1.07%              True
│    │    └─_DenseLayer: 3-70            [1, 1056, 7, 7]      [1, 48, 7, 7]        316,128              15,356,640             1.10%              True
│    │    └─_DenseLayer: 3-71            [1, 1056, 7, 7]      [1, 48, 7, 7]        325,440              15,808,320             1.13%              True
│    │    └─_DenseLayer: 3-72            [1, 1056, 7, 7]      [1, 48, 7, 7]        334,752              16,260,000             1.17%              True
│    │    └─_DenseLayer: 3-73            [1, 1056, 7, 7]      [1, 48, 7, 7]        344,064              16,711,680             1.20%              True
│    │    └─_DenseLayer: 3-74            [1, 1056, 7, 7]      [1, 48, 7, 7]        353,376              17,163,360             1.23%              True
│    │    └─_DenseLayer: 3-75            [1, 1056, 7, 7]      [1, 48, 7, 7]        362,688              17,615,040             1.26%              True
│    │    └─_DenseLayer: 3-76            [1, 1056, 7, 7]      [1, 48, 7, 7]        372,000              18,066,720             1.30%              True
│    │    └─_DenseLayer: 3-77            [1, 1056, 7, 7]      [1, 48, 7, 7]        381,312              18,518,400             1.33%              True
│    │    └─_DenseLayer: 3-78            [1, 1056, 7, 7]      [1, 48, 7, 7]        390,624              18,970,080             1.36%              True
│    │    └─_DenseLayer: 3-79            [1, 1056, 7, 7]      [1, 48, 7, 7]        399,936              19,421,760             1.39%              True
│    │    └─_DenseLayer: 3-80            [1, 1056, 7, 7]      [1, 48, 7, 7]        409,248              19,873,440             1.43%              True
│    │    └─_DenseLayer: 3-81            [1, 1056, 7, 7]      [1, 48, 7, 7]        418,560              20,325,120             1.46%              True
│    │    └─_DenseLayer: 3-82            [1, 1056, 7, 7]      [1, 48, 7, 7]        427,872              20,776,800             1.49%              True
│    │    └─_DenseLayer: 3-83            [1, 1056, 7, 7]      [1, 48, 7, 7]        437,184              21,228,480             1.52%              True
│    │    └─_DenseLayer: 3-84            [1, 1056, 7, 7]      [1, 48, 7, 7]        446,496              21,680,160             1.56%              True
│    │    └─_DenseLayer: 3-85            [1, 1056, 7, 7]      [1, 48, 7, 7]        455,808              22,131,840             1.59%              True
│    │    └─_DenseLayer: 3-86            [1, 1056, 7, 7]      [1, 48, 7, 7]        465,120              22,583,520             1.62%              True
│    │    └─_DenseLayer: 3-87            [1, 1056, 7, 7]      [1, 48, 7, 7]        474,432              23,035,200             1.65%              True
│    │    └─_DenseLayer: 3-88            [1, 1056, 7, 7]      [1, 48, 7, 7]        483,744              23,486,880             1.69%              True
│    │    └─_DenseLayer: 3-89            [1, 1056, 7, 7]      [1, 48, 7, 7]        493,056              23,938,560             1.72%              True
│    │    └─_DenseLayer: 3-90            [1, 1056, 7, 7]      [1, 48, 7, 7]        502,368              24,390,240             1.75%              True
│    └─BatchNorm2d: 2-12                 [1, 2208, 7, 7]      [1, 2208, 7, 7]      4,416                4,416                  0.02%              True
├─Linear: 1-2                            [1, 2208]            [1, 1000]            2,209,000            2,209,000              7.70%              True
================================================================================================================================================================
Total params: 28,681,000
Trainable params: 28,681,000
Non-trainable params: 0
Total mult-adds (Units.GIGABYTES): 7.73
================================================================================================================================================================
…
##########################################################################################3


densenet169
Initializing parameters...
Finished.
================================================================================================================================================================
Layer (type:depth-idx)                   Input Shape          Output Shape         Param #              Mult-Adds            Param %              Trainable
================================================================================================================================================================
DenseNet                                 [1, 3, 224, 224]     [1, 1000]            --                   --                        --              True
├─Sequential: 1-1                        [1, 3, 224, 224]     [1, 1664, 7, 7]      --                   --                        --              True
│    └─Conv2d: 2-1                       [1, 3, 224, 224]     [1, 64, 112, 112]    9,408                118,013,952            0.07%              True
│    └─BatchNorm2d: 2-2                  [1, 64, 112, 112]    [1, 64, 112, 112]    128                  128                    0.00%              True
│    └─ReLU: 2-3                         [1, 64, 112, 112]    [1, 64, 112, 112]    --                   --                        --              --
│    └─MaxPool2d: 2-4                    [1, 64, 112, 112]    [1, 64, 56, 56]      --                   --                        --              --
│    └─_DenseBlock: 2-5                  [1, 64, 56, 56]      [1, 256, 56, 56]     --                   --                        --              True
│    │    └─_DenseLayer: 3-1             [1, 64, 56, 56]      [1, 32, 56, 56]      45,440               141,296,000            0.32%              True
│    │    └─_DenseLayer: 3-2             [1, 64, 56, 56]      [1, 32, 56, 56]      49,600               154,141,120            0.35%              True
│    │    └─_DenseLayer: 3-3             [1, 64, 56, 56]      [1, 32, 56, 56]      53,760               166,986,240            0.38%              True
│    │    └─_DenseLayer: 3-4             [1, 64, 56, 56]      [1, 32, 56, 56]      57,920               179,831,360            0.41%              True
│    │    └─_DenseLayer: 3-5             [1, 64, 56, 56]      [1, 32, 56, 56]      62,080               192,676,480            0.44%              True
│    │    └─_DenseLayer: 3-6             [1, 64, 56, 56]      [1, 32, 56, 56]      66,240               205,521,600            0.47%              True
│    └─_Transition: 2-6                  [1, 256, 56, 56]     [1, 128, 28, 28]     --                   --                        --              True
│    │    └─BatchNorm2d: 3-7             [1, 256, 56, 56]     [1, 256, 56, 56]     512                  512                    0.00%              True
│    │    └─ReLU: 3-8                    [1, 256, 56, 56]     [1, 256, 56, 56]     --                   --                        --              --
│    │    └─Conv2d: 3-9                  [1, 256, 56, 56]     [1, 128, 56, 56]     32,768               102,760,448            0.23%              True
│    │    └─AvgPool2d: 3-10              [1, 128, 56, 56]     [1, 128, 28, 28]     --                   --                        --              --
│    └─_DenseBlock: 2-7                  [1, 128, 28, 28]     [1, 512, 28, 28]     --                   --                        --              True
│    │    └─_DenseLayer: 3-11            [1, 128, 28, 28]     [1, 32, 28, 28]      53,760               41,746,944             0.38%              True
│    │    └─_DenseLayer: 3-12            [1, 128, 28, 28]     [1, 32, 28, 28]      57,920               44,958,272             0.41%              True
│    │    └─_DenseLayer: 3-13            [1, 128, 28, 28]     [1, 32, 28, 28]      62,080               48,169,600             0.44%              True
│    │    └─_DenseLayer: 3-14            [1, 128, 28, 28]     [1, 32, 28, 28]      66,240               51,380,928             0.47%              True
│    │    └─_DenseLayer: 3-15            [1, 128, 28, 28]     [1, 32, 28, 28]      70,400               54,592,256             0.50%              True
│    │    └─_DenseLayer: 3-16            [1, 128, 28, 28]     [1, 32, 28, 28]      74,560               57,803,584             0.53%              True
│    │    └─_DenseLayer: 3-17            [1, 128, 28, 28]     [1, 32, 28, 28]      78,720               61,014,912             0.56%              True
│    │    └─_DenseLayer: 3-18            [1, 128, 28, 28]     [1, 32, 28, 28]      82,880               64,226,240             0.59%              True
│    │    └─_DenseLayer: 3-19            [1, 128, 28, 28]     [1, 32, 28, 28]      87,040               67,437,568             0.62%              True
│    │    └─_DenseLayer: 3-20            [1, 128, 28, 28]     [1, 32, 28, 28]      91,200               70,648,896             0.64%              True
│    │    └─_DenseLayer: 3-21            [1, 128, 28, 28]     [1, 32, 28, 28]      95,360               73,860,224             0.67%              True
│    │    └─_DenseLayer: 3-22            [1, 128, 28, 28]     [1, 32, 28, 28]      99,520               77,071,552             0.70%              True
│    └─_Transition: 2-8                  [1, 512, 28, 28]     [1, 256, 14, 14]     --                   --                        --              True
│    │    └─BatchNorm2d: 3-23            [1, 512, 28, 28]     [1, 512, 28, 28]     1,024                1,024                  0.01%              True
│    │    └─ReLU: 3-24                   [1, 512, 28, 28]     [1, 512, 28, 28]     --                   --                        --              --
│    │    └─Conv2d: 3-25                 [1, 512, 28, 28]     [1, 256, 28, 28]     131,072              102,760,448            0.93%              True
│    │    └─AvgPool2d: 3-26              [1, 256, 28, 28]     [1, 256, 14, 14]     --                   --                        --              --
│    └─_DenseBlock: 2-9                  [1, 256, 14, 14]     [1, 1280, 14, 14]    --                   --                        --              True
│    │    └─_DenseLayer: 3-27            [1, 256, 14, 14]     [1, 32, 14, 14]      70,400               13,648,640             0.50%              True
│    │    └─_DenseLayer: 3-28            [1, 256, 14, 14]     [1, 32, 14, 14]      74,560               14,451,520             0.53%              True
│    │    └─_DenseLayer: 3-29            [1, 256, 14, 14]     [1, 32, 14, 14]      78,720               15,254,400             0.56%              True
│    │    └─_DenseLayer: 3-30            [1, 256, 14, 14]     [1, 32, 14, 14]      82,880               16,057,280             0.59%              True
│    │    └─_DenseLayer: 3-31            [1, 256, 14, 14]     [1, 32, 14, 14]      87,040               16,860,160             0.62%              True
│    │    └─_DenseLayer: 3-32            [1, 256, 14, 14]     [1, 32, 14, 14]      91,200               17,663,040             0.64%              True
│    │    └─_DenseLayer: 3-33            [1, 256, 14, 14]     [1, 32, 14, 14]      95,360               18,465,920             0.67%              True
│    │    └─_DenseLayer: 3-34            [1, 256, 14, 14]     [1, 32, 14, 14]      99,520               19,268,800             0.70%              True
│    │    └─_DenseLayer: 3-35            [1, 256, 14, 14]     [1, 32, 14, 14]      103,680              20,071,680             0.73%              True
│    │    └─_DenseLayer: 3-36            [1, 256, 14, 14]     [1, 32, 14, 14]      107,840              20,874,560             0.76%              True
│    │    └─_DenseLayer: 3-37            [1, 256, 14, 14]     [1, 32, 14, 14]      112,000              21,677,440             0.79%              True
│    │    └─_DenseLayer: 3-38            [1, 256, 14, 14]     [1, 32, 14, 14]      116,160              22,480,320             0.82%              True
│    │    └─_DenseLayer: 3-39            [1, 256, 14, 14]     [1, 32, 14, 14]      120,320              23,283,200             0.85%              True
│    │    └─_DenseLayer: 3-40            [1, 256, 14, 14]     [1, 32, 14, 14]      124,480              24,086,080             0.88%              True
│    │    └─_DenseLayer: 3-41            [1, 256, 14, 14]     [1, 32, 14, 14]      128,640              24,888,960             0.91%              True
│    │    └─_DenseLayer: 3-42            [1, 256, 14, 14]     [1, 32, 14, 14]      132,800              25,691,840             0.94%              True
│    │    └─_DenseLayer: 3-43            [1, 256, 14, 14]     [1, 32, 14, 14]      136,960              26,494,720             0.97%              True
│    │    └─_DenseLayer: 3-44            [1, 256, 14, 14]     [1, 32, 14, 14]      141,120              27,297,600             1.00%              True
│    │    └─_DenseLayer: 3-45            [1, 256, 14, 14]     [1, 32, 14, 14]      145,280              28,100,480             1.03%              True
│    │    └─_DenseLayer: 3-46            [1, 256, 14, 14]     [1, 32, 14, 14]      149,440              28,903,360             1.06%              True
│    │    └─_DenseLayer: 3-47            [1, 256, 14, 14]     [1, 32, 14, 14]      153,600              29,706,240             1.09%              True
│    │    └─_DenseLayer: 3-48            [1, 256, 14, 14]     [1, 32, 14, 14]      157,760              30,509,120             1.11%              True
│    │    └─_DenseLayer: 3-49            [1, 256, 14, 14]     [1, 32, 14, 14]      161,920              31,312,000             1.14%              True
│    │    └─_DenseLayer: 3-50            [1, 256, 14, 14]     [1, 32, 14, 14]      166,080              32,114,880             1.17%              True
│    │    └─_DenseLayer: 3-51            [1, 256, 14, 14]     [1, 32, 14, 14]      170,240              32,917,760             1.20%              True
│    │    └─_DenseLayer: 3-52            [1, 256, 14, 14]     [1, 32, 14, 14]      174,400              33,720,640             1.23%              True
│    │    └─_DenseLayer: 3-53            [1, 256, 14, 14]     [1, 32, 14, 14]      178,560              34,523,520             1.26%              True
│    │    └─_DenseLayer: 3-54            [1, 256, 14, 14]     [1, 32, 14, 14]      182,720              35,326,400             1.29%              True
│    │    └─_DenseLayer: 3-55            [1, 256, 14, 14]     [1, 32, 14, 14]      186,880              36,129,280             1.32%              True
│    │    └─_DenseLayer: 3-56            [1, 256, 14, 14]     [1, 32, 14, 14]      191,040              36,932,160             1.35%              True
│    │    └─_DenseLayer: 3-57            [1, 256, 14, 14]     [1, 32, 14, 14]      195,200              37,735,040             1.38%              True
│    │    └─_DenseLayer: 3-58            [1, 256, 14, 14]     [1, 32, 14, 14]      199,360              38,537,920             1.41%              True
│    └─_Transition: 2-10                 [1, 1280, 14, 14]    [1, 640, 7, 7]       --                   --                        --              True
│    │    └─BatchNorm2d: 3-59            [1, 1280, 14, 14]    [1, 1280, 14, 14]    2,560                2,560                  0.02%              True
│    │    └─ReLU: 3-60                   [1, 1280, 14, 14]    [1, 1280, 14, 14]    --                   --                        --              --
│    │    └─Conv2d: 3-61                 [1, 1280, 14, 14]    [1, 640, 14, 14]     819,200              160,563,200            5.79%              True
│    │    └─AvgPool2d: 3-62              [1, 640, 14, 14]     [1, 640, 7, 7]       --                   --                        --              --
│    └─_DenseBlock: 2-11                 [1, 640, 7, 7]       [1, 1664, 7, 7]      --                   --                        --              True
│    │    └─_DenseLayer: 3-63            [1, 640, 7, 7]       [1, 32, 7, 7]        120,320              5,821,952              0.85%              True
│    │    └─_DenseLayer: 3-64            [1, 640, 7, 7]       [1, 32, 7, 7]        124,480              6,022,720              0.88%              True
│    │    └─_DenseLayer: 3-65            [1, 640, 7, 7]       [1, 32, 7, 7]        128,640              6,223,488              0.91%              True
│    │    └─_DenseLayer: 3-66            [1, 640, 7, 7]       [1, 32, 7, 7]        132,800              6,424,256              0.94%              True
│    │    └─_DenseLayer: 3-67            [1, 640, 7, 7]       [1, 32, 7, 7]        136,960              6,625,024              0.97%              True
│    │    └─_DenseLayer: 3-68            [1, 640, 7, 7]       [1, 32, 7, 7]        141,120              6,825,792              1.00%              True
│    │    └─_DenseLayer: 3-69            [1, 640, 7, 7]       [1, 32, 7, 7]        145,280              7,026,560              1.03%              True
│    │    └─_DenseLayer: 3-70            [1, 640, 7, 7]       [1, 32, 7, 7]        149,440              7,227,328              1.06%              True
│    │    └─_DenseLayer: 3-71            [1, 640, 7, 7]       [1, 32, 7, 7]        153,600              7,428,096              1.09%              True
│    │    └─_DenseLayer: 3-72            [1, 640, 7, 7]       [1, 32, 7, 7]        157,760              7,628,864              1.11%              True
│    │    └─_DenseLayer: 3-73            [1, 640, 7, 7]       [1, 32, 7, 7]        161,920              7,829,632              1.14%              True
│    │    └─_DenseLayer: 3-74            [1, 640, 7, 7]       [1, 32, 7, 7]        166,080              8,030,400              1.17%              True
│    │    └─_DenseLayer: 3-75            [1, 640, 7, 7]       [1, 32, 7, 7]        170,240              8,231,168              1.20%              True
│    │    └─_DenseLayer: 3-76            [1, 640, 7, 7]       [1, 32, 7, 7]        174,400              8,431,936              1.23%              True
│    │    └─_DenseLayer: 3-77            [1, 640, 7, 7]       [1, 32, 7, 7]        178,560              8,632,704              1.26%              True
│    │    └─_DenseLayer: 3-78            [1, 640, 7, 7]       [1, 32, 7, 7]        182,720              8,833,472              1.29%              True
│    │    └─_DenseLayer: 3-79            [1, 640, 7, 7]       [1, 32, 7, 7]        186,880              9,034,240              1.32%              True
│    │    └─_DenseLayer: 3-80            [1, 640, 7, 7]       [1, 32, 7, 7]        191,040              9,235,008              1.35%              True
│    │    └─_DenseLayer: 3-81            [1, 640, 7, 7]       [1, 32, 7, 7]        195,200              9,435,776              1.38%              True
│    │    └─_DenseLayer: 3-82            [1, 640, 7, 7]       [1, 32, 7, 7]        199,360              9,636,544              1.41%              True
│    │    └─_DenseLayer: 3-83            [1, 640, 7, 7]       [1, 32, 7, 7]        203,520              9,837,312              1.44%              True
│    │    └─_DenseLayer: 3-84            [1, 640, 7, 7]       [1, 32, 7, 7]        207,680              10,038,080             1.47%              True
│    │    └─_DenseLayer: 3-85            [1, 640, 7, 7]       [1, 32, 7, 7]        211,840              10,238,848             1.50%              True
│    │    └─_DenseLayer: 3-86            [1, 640, 7, 7]       [1, 32, 7, 7]        216,000              10,439,616             1.53%              True
│    │    └─_DenseLayer: 3-87            [1, 640, 7, 7]       [1, 32, 7, 7]        220,160              10,640,384             1.56%              True
│    │    └─_DenseLayer: 3-88            [1, 640, 7, 7]       [1, 32, 7, 7]        224,320              10,841,152             1.59%              True
│    │    └─_DenseLayer: 3-89            [1, 640, 7, 7]       [1, 32, 7, 7]        228,480              11,041,920             1.61%              True
│    │    └─_DenseLayer: 3-90            [1, 640, 7, 7]       [1, 32, 7, 7]        232,640              11,242,688             1.64%              True
│    │    └─_DenseLayer: 3-91            [1, 640, 7, 7]       [1, 32, 7, 7]        236,800              11,443,456             1.67%              True
│    │    └─_DenseLayer: 3-92            [1, 640, 7, 7]       [1, 32, 7, 7]        240,960              11,644,224             1.70%              True
│    │    └─_DenseLayer: 3-93            [1, 640, 7, 7]       [1, 32, 7, 7]        245,120              11,844,992             1.73%              True
│    │    └─_DenseLayer: 3-94            [1, 640, 7, 7]       [1, 32, 7, 7]        249,280              12,045,760             1.76%              True
│    └─BatchNorm2d: 2-12                 [1, 1664, 7, 7]      [1, 1664, 7, 7]      3,328                3,328                  0.02%              True
├─Linear: 1-2                            [1, 1664]            [1, 1000]            1,665,000            1,665,000             11.77%              True
================================================================================================================================================================
Total params: 14,149,480
Trainable params: 14,149,480
Non-trainable params: 0
Total mult-adds (Units.GIGABYTES): 3.36
================================================================================================================================================================
…
##########################################################################################3


densenet201
Initializing parameters...
Finished.
================================================================================================================================================================
Layer (type:depth-idx)                   Input Shape          Output Shape         Param #              Mult-Adds            Param %              Trainable
================================================================================================================================================================
DenseNet                                 [1, 3, 224, 224]     [1, 1000]            --                   --                        --              True
├─Sequential: 1-1                        [1, 3, 224, 224]     [1, 1920, 7, 7]      --                   --                        --              True
│    └─Conv2d: 2-1                       [1, 3, 224, 224]     [1, 64, 112, 112]    9,408                118,013,952            0.05%              True
│    └─BatchNorm2d: 2-2                  [1, 64, 112, 112]    [1, 64, 112, 112]    128                  128                    0.00%              True
│    └─ReLU: 2-3                         [1, 64, 112, 112]    [1, 64, 112, 112]    --                   --                        --              --
│    └─MaxPool2d: 2-4                    [1, 64, 112, 112]    [1, 64, 56, 56]      --                   --                        --              --
│    └─_DenseBlock: 2-5                  [1, 64, 56, 56]      [1, 256, 56, 56]     --                   --                        --              True
│    │    └─_DenseLayer: 3-1             [1, 64, 56, 56]      [1, 32, 56, 56]      45,440               141,296,000            0.23%              True
│    │    └─_DenseLayer: 3-2             [1, 64, 56, 56]      [1, 32, 56, 56]      49,600               154,141,120            0.25%              True
│    │    └─_DenseLayer: 3-3             [1, 64, 56, 56]      [1, 32, 56, 56]      53,760               166,986,240            0.27%              True
│    │    └─_DenseLayer: 3-4             [1, 64, 56, 56]      [1, 32, 56, 56]      57,920               179,831,360            0.29%              True
│    │    └─_DenseLayer: 3-5             [1, 64, 56, 56]      [1, 32, 56, 56]      62,080               192,676,480            0.31%              True
│    │    └─_DenseLayer: 3-6             [1, 64, 56, 56]      [1, 32, 56, 56]      66,240               205,521,600            0.33%              True
│    └─_Transition: 2-6                  [1, 256, 56, 56]     [1, 128, 28, 28]     --                   --                        --              True
│    │    └─BatchNorm2d: 3-7             [1, 256, 56, 56]     [1, 256, 56, 56]     512                  512                    0.00%              True
│    │    └─ReLU: 3-8                    [1, 256, 56, 56]     [1, 256, 56, 56]     --                   --                        --              --
│    │    └─Conv2d: 3-9                  [1, 256, 56, 56]     [1, 128, 56, 56]     32,768               102,760,448            0.16%              True
│    │    └─AvgPool2d: 3-10              [1, 128, 56, 56]     [1, 128, 28, 28]     --                   --                        --              --
│    └─_DenseBlock: 2-7                  [1, 128, 28, 28]     [1, 512, 28, 28]     --                   --                        --              True
│    │    └─_DenseLayer: 3-11            [1, 128, 28, 28]     [1, 32, 28, 28]      53,760               41,746,944             0.27%              True
│    │    └─_DenseLayer: 3-12            [1, 128, 28, 28]     [1, 32, 28, 28]      57,920               44,958,272             0.29%              True
│    │    └─_DenseLayer: 3-13            [1, 128, 28, 28]     [1, 32, 28, 28]      62,080               48,169,600             0.31%              True
│    │    └─_DenseLayer: 3-14            [1, 128, 28, 28]     [1, 32, 28, 28]      66,240               51,380,928             0.33%              True
│    │    └─_DenseLayer: 3-15            [1, 128, 28, 28]     [1, 32, 28, 28]      70,400               54,592,256             0.35%              True
│    │    └─_DenseLayer: 3-16            [1, 128, 28, 28]     [1, 32, 28, 28]      74,560               57,803,584             0.37%              True
│    │    └─_DenseLayer: 3-17            [1, 128, 28, 28]     [1, 32, 28, 28]      78,720               61,014,912             0.39%              True
│    │    └─_DenseLayer: 3-18            [1, 128, 28, 28]     [1, 32, 28, 28]      82,880               64,226,240             0.41%              True
│    │    └─_DenseLayer: 3-19            [1, 128, 28, 28]     [1, 32, 28, 28]      87,040               67,437,568             0.43%              True
│    │    └─_DenseLayer: 3-20            [1, 128, 28, 28]     [1, 32, 28, 28]      91,200               70,648,896             0.46%              True
│    │    └─_DenseLayer: 3-21            [1, 128, 28, 28]     [1, 32, 28, 28]      95,360               73,860,224             0.48%              True
│    │    └─_DenseLayer: 3-22            [1, 128, 28, 28]     [1, 32, 28, 28]      99,520               77,071,552             0.50%              True
│    └─_Transition: 2-8                  [1, 512, 28, 28]     [1, 256, 14, 14]     --                   --                        --              True
│    │    └─BatchNorm2d: 3-23            [1, 512, 28, 28]     [1, 512, 28, 28]     1,024                1,024                  0.01%              True
│    │    └─ReLU: 3-24                   [1, 512, 28, 28]     [1, 512, 28, 28]     --                   --                        --              --
│    │    └─Conv2d: 3-25                 [1, 512, 28, 28]     [1, 256, 28, 28]     131,072              102,760,448            0.65%              True
│    │    └─AvgPool2d: 3-26              [1, 256, 28, 28]     [1, 256, 14, 14]     --                   --                        --              --
│    └─_DenseBlock: 2-9                  [1, 256, 14, 14]     [1, 1792, 14, 14]    --                   --                        --              True
│    │    └─_DenseLayer: 3-27            [1, 256, 14, 14]     [1, 32, 14, 14]      70,400               13,648,640             0.35%              True
│    │    └─_DenseLayer: 3-28            [1, 256, 14, 14]     [1, 32, 14, 14]      74,560               14,451,520             0.37%              True
│    │    └─_DenseLayer: 3-29            [1, 256, 14, 14]     [1, 32, 14, 14]      78,720               15,254,400             0.39%              True
│    │    └─_DenseLayer: 3-30            [1, 256, 14, 14]     [1, 32, 14, 14]      82,880               16,057,280             0.41%              True
│    │    └─_DenseLayer: 3-31            [1, 256, 14, 14]     [1, 32, 14, 14]      87,040               16,860,160             0.43%              True
│    │    └─_DenseLayer: 3-32            [1, 256, 14, 14]     [1, 32, 14, 14]      91,200               17,663,040             0.46%              True
│    │    └─_DenseLayer: 3-33            [1, 256, 14, 14]     [1, 32, 14, 14]      95,360               18,465,920             0.48%              True
│    │    └─_DenseLayer: 3-34            [1, 256, 14, 14]     [1, 32, 14, 14]      99,520               19,268,800             0.50%              True
│    │    └─_DenseLayer: 3-35            [1, 256, 14, 14]     [1, 32, 14, 14]      103,680              20,071,680             0.52%              True
│    │    └─_DenseLayer: 3-36            [1, 256, 14, 14]     [1, 32, 14, 14]      107,840              20,874,560             0.54%              True
│    │    └─_DenseLayer: 3-37            [1, 256, 14, 14]     [1, 32, 14, 14]      112,000              21,677,440             0.56%              True
│    │    └─_DenseLayer: 3-38            [1, 256, 14, 14]     [1, 32, 14, 14]      116,160              22,480,320             0.58%              True
│    │    └─_DenseLayer: 3-39            [1, 256, 14, 14]     [1, 32, 14, 14]      120,320              23,283,200             0.60%              True
│    │    └─_DenseLayer: 3-40            [1, 256, 14, 14]     [1, 32, 14, 14]      124,480              24,086,080             0.62%              True
│    │    └─_DenseLayer: 3-41            [1, 256, 14, 14]     [1, 32, 14, 14]      128,640              24,888,960             0.64%              True
│    │    └─_DenseLayer: 3-42            [1, 256, 14, 14]     [1, 32, 14, 14]      132,800              25,691,840             0.66%              True
│    │    └─_DenseLayer: 3-43            [1, 256, 14, 14]     [1, 32, 14, 14]      136,960              26,494,720             0.68%              True
│    │    └─_DenseLayer: 3-44            [1, 256, 14, 14]     [1, 32, 14, 14]      141,120              27,297,600             0.71%              True
│    │    └─_DenseLayer: 3-45            [1, 256, 14, 14]     [1, 32, 14, 14]      145,280              28,100,480             0.73%              True
│    │    └─_DenseLayer: 3-46            [1, 256, 14, 14]     [1, 32, 14, 14]      149,440              28,903,360             0.75%              True
│    │    └─_DenseLayer: 3-47            [1, 256, 14, 14]     [1, 32, 14, 14]      153,600              29,706,240             0.77%              True
│    │    └─_DenseLayer: 3-48            [1, 256, 14, 14]     [1, 32, 14, 14]      157,760              30,509,120             0.79%              True
│    │    └─_DenseLayer: 3-49            [1, 256, 14, 14]     [1, 32, 14, 14]      161,920              31,312,000             0.81%              True
│    │    └─_DenseLayer: 3-50            [1, 256, 14, 14]     [1, 32, 14, 14]      166,080              32,114,880             0.83%              True
│    │    └─_DenseLayer: 3-51            [1, 256, 14, 14]     [1, 32, 14, 14]      170,240              32,917,760             0.85%              True
│    │    └─_DenseLayer: 3-52            [1, 256, 14, 14]     [1, 32, 14, 14]      174,400              33,720,640             0.87%              True
│    │    └─_DenseLayer: 3-53            [1, 256, 14, 14]     [1, 32, 14, 14]      178,560              34,523,520             0.89%              True
│    │    └─_DenseLayer: 3-54            [1, 256, 14, 14]     [1, 32, 14, 14]      182,720              35,326,400             0.91%              True
│    │    └─_DenseLayer: 3-55            [1, 256, 14, 14]     [1, 32, 14, 14]      186,880              36,129,280             0.93%              True
│    │    └─_DenseLayer: 3-56            [1, 256, 14, 14]     [1, 32, 14, 14]      191,040              36,932,160             0.95%              True
│    │    └─_DenseLayer: 3-57            [1, 256, 14, 14]     [1, 32, 14, 14]      195,200              37,735,040             0.98%              True
│    │    └─_DenseLayer: 3-58            [1, 256, 14, 14]     [1, 32, 14, 14]      199,360              38,537,920             1.00%              True
│    │    └─_DenseLayer: 3-59            [1, 256, 14, 14]     [1, 32, 14, 14]      203,520              39,340,800             1.02%              True
│    │    └─_DenseLayer: 3-60            [1, 256, 14, 14]     [1, 32, 14, 14]      207,680              40,143,680             1.04%              True
│    │    └─_DenseLayer: 3-61            [1, 256, 14, 14]     [1, 32, 14, 14]      211,840              40,946,560             1.06%              True
│    │    └─_DenseLayer: 3-62            [1, 256, 14, 14]     [1, 32, 14, 14]      216,000              41,749,440             1.08%              True
│    │    └─_DenseLayer: 3-63            [1, 256, 14, 14]     [1, 32, 14, 14]      220,160              42,552,320             1.10%              True
│    │    └─_DenseLayer: 3-64            [1, 256, 14, 14]     [1, 32, 14, 14]      224,320              43,355,200             1.12%              True
│    │    └─_DenseLayer: 3-65            [1, 256, 14, 14]     [1, 32, 14, 14]      228,480              44,158,080             1.14%              True
│    │    └─_DenseLayer: 3-66            [1, 256, 14, 14]     [1, 32, 14, 14]      232,640              44,960,960             1.16%              True
│    │    └─_DenseLayer: 3-67            [1, 256, 14, 14]     [1, 32, 14, 14]      236,800              45,763,840             1.18%              True
│    │    └─_DenseLayer: 3-68            [1, 256, 14, 14]     [1, 32, 14, 14]      240,960              46,566,720             1.20%              True
│    │    └─_DenseLayer: 3-69            [1, 256, 14, 14]     [1, 32, 14, 14]      245,120              47,369,600             1.22%              True
│    │    └─_DenseLayer: 3-70            [1, 256, 14, 14]     [1, 32, 14, 14]      249,280              48,172,480             1.25%              True
│    │    └─_DenseLayer: 3-71            [1, 256, 14, 14]     [1, 32, 14, 14]      253,440              48,975,360             1.27%              True
│    │    └─_DenseLayer: 3-72            [1, 256, 14, 14]     [1, 32, 14, 14]      257,600              49,778,240             1.29%              True
│    │    └─_DenseLayer: 3-73            [1, 256, 14, 14]     [1, 32, 14, 14]      261,760              50,581,120             1.31%              True
│    │    └─_DenseLayer: 3-74            [1, 256, 14, 14]     [1, 32, 14, 14]      265,920              51,384,000             1.33%              True
│    └─_Transition: 2-10                 [1, 1792, 14, 14]    [1, 896, 7, 7]       --                   --                        --              True
│    │    └─BatchNorm2d: 3-75            [1, 1792, 14, 14]    [1, 1792, 14, 14]    3,584                3,584                  0.02%              True
│    │    └─ReLU: 3-76                   [1, 1792, 14, 14]    [1, 1792, 14, 14]    --                   --                        --              --
│    │    └─Conv2d: 3-77                 [1, 1792, 14, 14]    [1, 896, 14, 14]     1,605,632            314,703,872            8.02%              True
│    │    └─AvgPool2d: 3-78              [1, 896, 14, 14]     [1, 896, 7, 7]       --                   --                        --              --
│    └─_DenseBlock: 2-11                 [1, 896, 7, 7]       [1, 1920, 7, 7]      --                   --                        --              True
│    │    └─_DenseLayer: 3-79            [1, 896, 7, 7]       [1, 32, 7, 7]        153,600              7,428,096              0.77%              True
│    │    └─_DenseLayer: 3-80            [1, 896, 7, 7]       [1, 32, 7, 7]        157,760              7,628,864              0.79%              True
│    │    └─_DenseLayer: 3-81            [1, 896, 7, 7]       [1, 32, 7, 7]        161,920              7,829,632              0.81%              True
│    │    └─_DenseLayer: 3-82            [1, 896, 7, 7]       [1, 32, 7, 7]        166,080              8,030,400              0.83%              True
│    │    └─_DenseLayer: 3-83            [1, 896, 7, 7]       [1, 32, 7, 7]        170,240              8,231,168              0.85%              True
│    │    └─_DenseLayer: 3-84            [1, 896, 7, 7]       [1, 32, 7, 7]        174,400              8,431,936              0.87%              True
│    │    └─_DenseLayer: 3-85            [1, 896, 7, 7]       [1, 32, 7, 7]        178,560              8,632,704              0.89%              True
│    │    └─_DenseLayer: 3-86            [1, 896, 7, 7]       [1, 32, 7, 7]        182,720              8,833,472              0.91%              True
│    │    └─_DenseLayer: 3-87            [1, 896, 7, 7]       [1, 32, 7, 7]        186,880              9,034,240              0.93%              True
│    │    └─_DenseLayer: 3-88            [1, 896, 7, 7]       [1, 32, 7, 7]        191,040              9,235,008              0.95%              True
│    │    └─_DenseLayer: 3-89            [1, 896, 7, 7]       [1, 32, 7, 7]        195,200              9,435,776              0.98%              True
│    │    └─_DenseLayer: 3-90            [1, 896, 7, 7]       [1, 32, 7, 7]        199,360              9,636,544              1.00%              True
│    │    └─_DenseLayer: 3-91            [1, 896, 7, 7]       [1, 32, 7, 7]        203,520              9,837,312              1.02%              True
│    │    └─_DenseLayer: 3-92            [1, 896, 7, 7]       [1, 32, 7, 7]        207,680              10,038,080             1.04%              True
│    │    └─_DenseLayer: 3-93            [1, 896, 7, 7]       [1, 32, 7, 7]        211,840              10,238,848             1.06%              True
│    │    └─_DenseLayer: 3-94            [1, 896, 7, 7]       [1, 32, 7, 7]        216,000              10,439,616             1.08%              True
│    │    └─_DenseLayer: 3-95            [1, 896, 7, 7]       [1, 32, 7, 7]        220,160              10,640,384             1.10%              True
│    │    └─_DenseLayer: 3-96            [1, 896, 7, 7]       [1, 32, 7, 7]        224,320              10,841,152             1.12%              True
│    │    └─_DenseLayer: 3-97            [1, 896, 7, 7]       [1, 32, 7, 7]        228,480              11,041,920             1.14%              True
│    │    └─_DenseLayer: 3-98            [1, 896, 7, 7]       [1, 32, 7, 7]        232,640              11,242,688             1.16%              True
│    │    └─_DenseLayer: 3-99            [1, 896, 7, 7]       [1, 32, 7, 7]        236,800              11,443,456             1.18%              True
│    │    └─_DenseLayer: 3-100           [1, 896, 7, 7]       [1, 32, 7, 7]        240,960              11,644,224             1.20%              True
│    │    └─_DenseLayer: 3-101           [1, 896, 7, 7]       [1, 32, 7, 7]        245,120              11,844,992             1.22%              True
│    │    └─_DenseLayer: 3-102           [1, 896, 7, 7]       [1, 32, 7, 7]        249,280              12,045,760             1.25%              True
│    │    └─_DenseLayer: 3-103           [1, 896, 7, 7]       [1, 32, 7, 7]        253,440              12,246,528             1.27%              True
│    │    └─_DenseLayer: 3-104           [1, 896, 7, 7]       [1, 32, 7, 7]        257,600              12,447,296             1.29%              True
│    │    └─_DenseLayer: 3-105           [1, 896, 7, 7]       [1, 32, 7, 7]        261,760              12,648,064             1.31%              True
│    │    └─_DenseLayer: 3-106           [1, 896, 7, 7]       [1, 32, 7, 7]        265,920              12,848,832             1.33%              True
│    │    └─_DenseLayer: 3-107           [1, 896, 7, 7]       [1, 32, 7, 7]        270,080              13,049,600             1.35%              True
│    │    └─_DenseLayer: 3-108           [1, 896, 7, 7]       [1, 32, 7, 7]        274,240              13,250,368             1.37%              True
│    │    └─_DenseLayer: 3-109           [1, 896, 7, 7]       [1, 32, 7, 7]        278,400              13,451,136             1.39%              True
│    │    └─_DenseLayer: 3-110           [1, 896, 7, 7]       [1, 32, 7, 7]        282,560              13,651,904             1.41%              True
│    └─BatchNorm2d: 2-12                 [1, 1920, 7, 7]      [1, 1920, 7, 7]      3,840                3,840                  0.02%              True
├─Linear: 1-2                            [1, 1920]            [1, 1000]            1,921,000            1,921,000              9.60%              True
================================================================================================================================================================
Total params: 20,013,928
Trainable params: 20,013,928
Non-trainable params: 0
Total mult-adds (Units.GIGABYTES): 4.29
================================================================================================================================================================
…
===============================================================================================================================================================================
Layer (type:depth-idx)                                  Input Shape          Output Shape         Param #              Mult-Adds            Param %              Trainable
===============================================================================================================================================================================
EfficientNet                                            [1, 3, 224, 224]     [1, 1000]            --                   --                        --              True
├─Sequential: 1-1                                       [1, 3, 224, 224]     [1, 1280, 7, 7]      --                   --                        --              True
│    └─Conv2dNormActivation: 2-1                        [1, 3, 224, 224]     [1, 32, 112, 112]    --                   --                        --              True
│    │    └─Conv2d: 3-1                                 [1, 3, 224, 224]     [1, 32, 112, 112]    864                  10,838,016             0.02%              True
│    │    └─BatchNorm2d: 3-2                            [1, 32, 112, 112]    [1, 32, 112, 112]    64                   64                     0.00%              True
│    │    └─SiLU: 3-3                                   [1, 32, 112, 112]    [1, 32, 112, 112]    --                   --                        --              --
│    └─Sequential: 2-2                                  [1, 32, 112, 112]    [1, 16, 112, 112]    --                   --                        --              True
│    │    └─MBConv: 3-4                                 [1, 32, 112, 112]    [1, 16, 112, 112]    1,448                10,035,848             0.03%              True
│    └─Sequential: 2-3                                  [1, 16, 112, 112]    [1, 24, 56, 56]      --                   --                        --              True
│    │    └─MBConv: 3-5                                 [1, 16, 112, 112]    [1, 24, 56, 56]      6,004                29,203,732             0.11%              True
│    │    └─MBConv: 3-6                                 [1, 24, 56, 56]      [1, 24, 56, 56]      10,710               25,742,790             0.20%              True
│    └─Sequential: 2-4                                  [1, 24, 56, 56]      [1, 40, 28, 28]      --                   --                        --              True
│    │    └─MBConv: 3-7                                 [1, 24, 56, 56]      [1, 40, 28, 28]      15,350               18,178,790             0.29%              True
│    │    └─MBConv: 3-8                                 [1, 40, 28, 28]      [1, 40, 28, 28]      31,290               19,762,890             0.59%              True
│    └─Sequential: 2-5                                  [1, 40, 28, 28]      [1, 80, 14, 14]      --                   --                        --              True
│    │    └─MBConv: 3-9                                 [1, 40, 28, 28]      [1, 80, 14, 14]      37,130               11,719,130             0.70%              True
│    │    └─MBConv: 3-10                                [1, 80, 14, 14]      [1, 80, 14, 14]      102,900              15,921,300             1.95%              True
│    │    └─MBConv: 3-11                                [1, 80, 14, 14]      [1, 80, 14, 14]      102,900              15,921,300             1.95%              True
│    └─Sequential: 2-6                                  [1, 80, 14, 14]      [1, 112, 14, 14]     --                   --                        --              True
│    │    └─MBConv: 3-12                                [1, 80, 14, 14]      [1, 112, 14, 14]     126,004              20,437,204             2.38%              True
│    │    └─MBConv: 3-13                                [1, 112, 14, 14]     [1, 112, 14, 14]     208,572              32,837,532             3.94%              True
│    │    └─MBConv: 3-14                                [1, 112, 14, 14]     [1, 112, 14, 14]     208,572              32,837,532             3.94%              True
│    └─Sequential: 2-7                                  [1, 112, 14, 14]     [1, 192, 7, 7]       --                   --                        --              True
│    │    └─MBConv: 3-15                                [1, 112, 14, 14]     [1, 192, 7, 7]       262,492              21,938,524             4.96%              True
│    │    └─MBConv: 3-16                                [1, 192, 7, 7]       [1, 192, 7, 7]       587,952              23,204,016            11.12%              True
│    │    └─MBConv: 3-17                                [1, 192, 7, 7]       [1, 192, 7, 7]       587,952              23,204,016            11.12%              True
│    │    └─MBConv: 3-18                                [1, 192, 7, 7]       [1, 192, 7, 7]       587,952              23,204,016            11.12%              True
│    └─Sequential: 2-8                                  [1, 192, 7, 7]       [1, 320, 7, 7]       --                   --                        --              True
│    │    └─MBConv: 3-19                                [1, 192, 7, 7]       [1, 320, 7, 7]       717,232              29,526,448            13.56%              True
│    └─Conv2dNormActivation: 2-9                        [1, 320, 7, 7]       [1, 1280, 7, 7]      --                   --                        --              True
│    │    └─Conv2d: 3-20                                [1, 320, 7, 7]       [1, 1280, 7, 7]      409,600              20,070,400             7.75%              True
│    │    └─BatchNorm2d: 3-21                           [1, 1280, 7, 7]      [1, 1280, 7, 7]      2,560                2,560                  0.05%              True
│    │    └─SiLU: 3-22                                  [1, 1280, 7, 7]      [1, 1280, 7, 7]      --                   --                        --              --
├─AdaptiveAvgPool2d: 1-2                                [1, 1280, 7, 7]      [1, 1280, 1, 1]      --                   --                        --              --
├─Sequential: 1-3                                       [1, 1280]            [1, 1000]            --                   --                        --              True
│    └─Dropout: 2-10                                    [1, 1280]            [1, 1280]            --                   --                        --              --
│    └─Linear: 2-11                                     [1, 1280]            [1, 1000]            1,281,000            1,281,000             24.22%              True
===============================================================================================================================================================================
Total params: 5,288,548
Trainable params: 5,288,548
Non-trainable params: 0
Total mult-adds (Units.MEGABYTES): 385.87
===============================================================================================================================================================================
…
===============================================================================================================================================================================
Layer (type:depth-idx)                                  Input Shape          Output Shape         Param #              Mult-Adds            Param %              Trainable
===============================================================================================================================================================================
EfficientNet                                            [1, 3, 224, 224]     [1, 1000]            --                   --                        --              True
├─Sequential: 1-1                                       [1, 3, 224, 224]     [1, 1280, 7, 7]      --                   --                        --              True
│    └─Conv2dNormActivation: 2-1                        [1, 3, 224, 224]     [1, 32, 112, 112]    --                   --                        --              True
│    │    └─Conv2d: 3-1                                 [1, 3, 224, 224]     [1, 32, 112, 112]    864                  10,838,016             0.01%              True
│    │    └─BatchNorm2d: 3-2                            [1, 32, 112, 112]    [1, 32, 112, 112]    64                   64                     0.00%              True
│    │    └─SiLU: 3-3                                   [1, 32, 112, 112]    [1, 32, 112, 112]    --                   --                        --              --
│    └─Sequential: 2-2                                  [1, 32, 112, 112]    [1, 16, 112, 112]    --                   --                        --              True
│    │    └─MBConv: 3-4                                 [1, 32, 112, 112]    [1, 16, 112, 112]    1,448                10,035,848             0.02%              True
│    │    └─MBConv: 3-5                                 [1, 16, 112, 112]    [1, 16, 112, 112]    612                  5,017,812              0.01%              True
│    └─Sequential: 2-3                                  [1, 16, 112, 112]    [1, 24, 56, 56]      --                   --                        --              True
│    │    └─MBConv: 3-6                                 [1, 16, 112, 112]    [1, 24, 56, 56]      6,004                29,203,732             0.08%              True
│    │    └─MBConv: 3-7                                 [1, 24, 56, 56]      [1, 24, 56, 56]      10,710               25,742,790             0.14%              True
│    │    └─MBConv: 3-8                                 [1, 24, 56, 56]      [1, 24, 56, 56]      10,710               25,742,790             0.14%              True
│    └─Sequential: 2-4                                  [1, 24, 56, 56]      [1, 40, 28, 28]      --                   --                        --              True
│    │    └─MBConv: 3-9                                 [1, 24, 56, 56]      [1, 40, 28, 28]      15,350               18,178,790             0.20%              True
│    │    └─MBConv: 3-10                                [1, 40, 28, 28]      [1, 40, 28, 28]      31,290               19,762,890             0.40%              True
│    │    └─MBConv: 3-11                                [1, 40, 28, 28]      [1, 40, 28, 28]      31,290               19,762,890             0.40%              True
│    └─Sequential: 2-5                                  [1, 40, 28, 28]      [1, 80, 14, 14]      --                   --                        --              True
│    │    └─MBConv: 3-12                                [1, 40, 28, 28]      [1, 80, 14, 14]      37,130               11,719,130             0.48%              True
│    │    └─MBConv: 3-13                                [1, 80, 14, 14]      [1, 80, 14, 14]      102,900              15,921,300             1.32%              True
│    │    └─MBConv: 3-14                                [1, 80, 14, 14]      [1, 80, 14, 14]      102,900              15,921,300             1.32%              True
│    │    └─MBConv: 3-15                                [1, 80, 14, 14]      [1, 80, 14, 14]      102,900              15,921,300             1.32%              True
│    └─Sequential: 2-6                                  [1, 80, 14, 14]      [1, 112, 14, 14]     --                   --                        --              True
│    │    └─MBConv: 3-16                                [1, 80, 14, 14]      [1, 112, 14, 14]     126,004              20,437,204             1.62%              True
│    │    └─MBConv: 3-17                                [1, 112, 14, 14]     [1, 112, 14, 14]     208,572              32,837,532             2.68%              True
│    │    └─MBConv: 3-18                                [1, 112, 14, 14]     [1, 112, 14, 14]     208,572              32,837,532             2.68%              True
│    │    └─MBConv: 3-19                                [1, 112, 14, 14]     [1, 112, 14, 14]     208,572              32,837,532             2.68%              True
│    └─Sequential: 2-7                                  [1, 112, 14, 14]     [1, 192, 7, 7]       --                   --                        --              True
│    │    └─MBConv: 3-20                                [1, 112, 14, 14]     [1, 192, 7, 7]       262,492              21,938,524             3.37%              True
│    │    └─MBConv: 3-21                                [1, 192, 7, 7]       [1, 192, 7, 7]       587,952              23,204,016             7.54%              True
│    │    └─MBConv: 3-22                                [1, 192, 7, 7]       [1, 192, 7, 7]       587,952              23,204,016             7.54%              True
│    │    └─MBConv: 3-23                                [1, 192, 7, 7]       [1, 192, 7, 7]       587,952              23,204,016             7.54%              True
│    │    └─MBConv: 3-24                                [1, 192, 7, 7]       [1, 192, 7, 7]       587,952              23,204,016             7.54%              True
│    └─Sequential: 2-8                                  [1, 192, 7, 7]       [1, 320, 7, 7]       --                   --                        --              True
│    │    └─MBConv: 3-25                                [1, 192, 7, 7]       [1, 320, 7, 7]       717,232              29,526,448             9.20%              True
│    │    └─MBConv: 3-26                                [1, 320, 7, 7]       [1, 320, 7, 7]       1,563,600            61,375,440            20.06%              True
│    └─Conv2dNormActivation: 2-9                        [1, 320, 7, 7]       [1, 1280, 7, 7]      --                   --                        --              True
│    │    └─Conv2d: 3-27                                [1, 320, 7, 7]       [1, 1280, 7, 7]      409,600              20,070,400             5.26%              True
│    │    └─BatchNorm2d: 3-28                           [1, 1280, 7, 7]      [1, 1280, 7, 7]      2,560                2,560                  0.03%              True
│    │    └─SiLU: 3-29                                  [1, 1280, 7, 7]      [1, 1280, 7, 7]      --                   --                        --              --
├─AdaptiveAvgPool2d: 1-2                                [1, 1280, 7, 7]      [1, 1280, 1, 1]      --                   --                        --              --
├─Sequential: 1-3                                       [1, 1280]            [1, 1000]            --                   --                        --              True
│    └─Dropout: 2-10                                    [1, 1280]            [1, 1280]            --                   --                        --              --
│    └─Linear: 2-11                                     [1, 1280]            [1, 1000]            1,281,000            1,281,000             16.44%              True
===============================================================================================================================================================================
Total params: 7,794,184
Trainable params: 7,794,184
Non-trainable params: 0
Total mult-adds (Units.MEGABYTES): 569.73
===============================================================================================================================================================================
…
===============================================================================================================================================================================
Layer (type:depth-idx)                                  Input Shape          Output Shape         Param #              Mult-Adds            Param %              Trainable
===============================================================================================================================================================================
EfficientNet                                            [1, 3, 224, 224]     [1, 1000]            --                   --                        --              True
├─Sequential: 1-1                                       [1, 3, 224, 224]     [1, 1408, 7, 7]      --                   --                        --              True
│    └─Conv2dNormActivation: 2-1                        [1, 3, 224, 224]     [1, 32, 112, 112]    --                   --                        --              True
│    │    └─Conv2d: 3-1                                 [1, 3, 224, 224]     [1, 32, 112, 112]    864                  10,838,016             0.01%              True
│    │    └─BatchNorm2d: 3-2                            [1, 32, 112, 112]    [1, 32, 112, 112]    64                   64                     0.00%              True
│    │    └─SiLU: 3-3                                   [1, 32, 112, 112]    [1, 32, 112, 112]    --                   --                        --              --
│    └─Sequential: 2-2                                  [1, 32, 112, 112]    [1, 16, 112, 112]    --                   --                        --              True
│    │    └─MBConv: 3-4                                 [1, 32, 112, 112]    [1, 16, 112, 112]    1,448                10,035,848             0.02%              True
│    │    └─MBConv: 3-5                                 [1, 16, 112, 112]    [1, 16, 112, 112]    612                  5,017,812              0.01%              True
│    └─Sequential: 2-3                                  [1, 16, 112, 112]    [1, 24, 56, 56]      --                   --                        --              True
│    │    └─MBConv: 3-6                                 [1, 16, 112, 112]    [1, 24, 56, 56]      6,004                29,203,732             0.07%              True
│    │    └─MBConv: 3-7                                 [1, 24, 56, 56]      [1, 24, 56, 56]      10,710               25,742,790             0.12%              True
…
│    │    └─Linear: 3-19                           [1, 7, 7, 1536]      [1, 7, 7, 768]       1,179,648            1,179,648              4.17%              True
│    └─Sequential: 2-8                             [1, 7, 7, 768]       [1, 7, 7, 768]       --                   --                        --              True
│    │    └─SwinTransformerBlock: 3-20             [1, 7, 7, 768]       [1, 7, 7, 768]       7,091,928            4,725,504             25.07%              True
│    │    └─SwinTransformerBlock: 3-21             [1, 7, 7, 768]       [1, 7, 7, 768]       7,091,928            4,725,504             25.07%              True
├─LayerNorm: 1-2                                   [1, 7, 7, 768]       [1, 7, 7, 768]       1,536                1,536                  0.01%              True
├─Permute: 1-3                                     [1, 7, 7, 768]       [1, 768, 7, 7]       --                   --                        --              --
├─AdaptiveAvgPool2d: 1-4                           [1, 768, 7, 7]       [1, 768, 1, 1]       --                   --                        --              --
├─Flatten: 1-5                                     [1, 768, 1, 1]       [1, 768]             --                   --                        --              --
├─Linear: 1-6                                      [1, 768]             [1, 1000]            769,000              769,000                2.72%              True
==========================================================================================================================================================================
Total params: 28,288,354
Trainable params: 28,288,354
Non-trainable params: 0
Total mult-adds (Units.MEGABYTES): 34.37
==========================================================================================================================================================================
…
Initializing parameters...
Finished.
==========================================================================================================================================================================
Layer (type:depth-idx)                             Input Shape          Output Shape         Param #              Mult-Adds            Param %              Trainable
==========================================================================================================================================================================
SwinTransformer                                    [1, 3, 224, 224]     [1, 1000]            --                   --                        --              True
├─Sequential: 1-1                                  [1, 3, 224, 224]     [1, 7, 7, 768]       --                   --                        --              True
│    └─Sequential: 2-1                             [1, 3, 224, 224]     [1, 56, 56, 96]      --                   --                        --              True
│    │    └─Conv2d: 3-1                            [1, 3, 224, 224]     [1, 96, 56, 56]      4,704                14,751,744             0.01%              True
│    │    └─Permute: 3-2                           [1, 96, 56, 56]      [1, 56, 56, 96]      --                   --                        --              --
│    │    └─LayerNorm: 3-3                         [1, 56, 56, 96]      [1, 56, 56, 96]      192                  192                    0.00%              True
│    └─Sequential: 2-2                             [1, 56, 56, 96]      [1, 56, 56, 96]      --                   --                        --              True
│    │    └─SwinTransformerBlock: 3-4              [1, 56, 56, 96]      [1, 56, 56, 96]      112,347              74,592                 0.23%              True
│    │    └─SwinTransformerBlock: 3-5              [1, 56, 56, 96]      [1, 56, 56, 96]      112,347              74,592                 0.23%              True
│    └─PatchMerging: 2-3                           [1, 56, 56, 96]      [1, 28, 28, 192]     --                   --                        --              True
│    │    └─LayerNorm: 3-6                         [1, 28, 28, 384]     [1, 28, 28, 384]     768                  768                    0.00%              True
│    │    └─Linear: 3-7                            [1, 28, 28, 384]     [1, 28, 28, 192]     73,728               73,728                 0.15%              True
│    └─Sequential: 2-4                             [1, 28, 28, 192]     [1, 28, 28, 192]     --                   --                        --              True
│    │    └─SwinTransformerBlock: 3-8              [1, 28, 28, 192]     [1, 28, 28, 192]     445,878              296,640                0.90%              True
│    │    └─SwinTransformerBlock: 3-9              [1, 28, 28, 192]     [1, 28, 28, 192]     445,878              296,640                0.90%              True
│    └─PatchMerging: 2-5                           [1, 28, 28, 192]     [1, 14, 14, 384]     --                   --                        --              True
│    │    └─LayerNorm: 3-10                        [1, 14, 14, 768]     [1, 14, 14, 768]     1,536                1,536                  0.00%              True
│    │    └─Linear: 3-11                           [1, 14, 14, 768]     [1, 14, 14, 384]     294,912              294,912                0.59%              True
│    └─Sequential: 2-6                             [1, 14, 14, 384]     [1, 14, 14, 384]     --                   --                        --              True
│    │    └─SwinTransformerBlock: 3-12             [1, 14, 14, 384]     [1, 14, 14, 384]     1,776,492            1,183,104              3.58%              True
│    │    └─SwinTransformerBlock: 3-13             [1, 14, 14, 384]     [1, 14, 14, 384]     1,776,492            1,183,104              3.58%              True
│    │    └─SwinTransformerBlock: 3-14             [1, 14, 14, 384]     [1, 14, 14, 384]     1,776,492            1,183,104              3.58%              True
│    │    └─SwinTransformerBlock: 3-15             [1, 14, 14, 384]     [1, 14, 14, 384]     1,776,492            1,183,104              3.58%              True
│    │    └─SwinTransformerBlock: 3-16             [1, 14, 14, 384]     [1, 14, 14, 384]     1,776,492            1,183,104              3.58%              True
│    │    └─SwinTransformerBlock: 3-17             [1, 14, 14, 384]     [1, 14, 14, 384]     1,776,492            1,183,104              3.58%              True
│    │    └─SwinTransformerBlock: 3-18             [1, 14, 14, 384]     [1, 14, 14, 384]     1,776,492            1,183,104              3.58%              True
│    │    └─SwinTransformerBlock: 3-19             [1, 14, 14, 384]     [1, 14, 14, 384]     1,776,492            1,183,104              3.58%              True
│    │    └─SwinTransformerBlock: 3-20             [1, 14, 14, 384]     [1, 14, 14, 384]     1,776,492            1,183,104              3.58%              True
│    │    └─SwinTransformerBlock: 3-21             [1, 14, 14, 384]     [1, 14, 14, 384]     1,776,492            1,183,104              3.58%              True
│    │    └─SwinTransformerBlock: 3-22             [1, 14, 14, 384]     [1, 14, 14, 384]     1,776,492            1,183,104              3.58%              True
│    │    └─SwinTransformerBlock: 3-23             [1, 14, 14, 384]     [1, 14, 14, 384]     1,776,492            1,183,104              3.58%              True
│    │    └─SwinTransformerBlock: 3-24             [1, 14, 14, 384]     [1, 14, 14, 384]     1,776,492            1,183,104              3.58%              True
│    │    └─SwinTransformerBlock: 3-25             [1, 14, 14, 384]     [1, 14, 14, 384]     1,776,492            1,183,104              3.58%              True
│    │    └─SwinTransformerBlock: 3-26             [1, 14, 14, 384]     [1, 14, 14, 384]     1,776,492            1,183,104              3.58%              True
│    │    └─SwinTransformerBlock: 3-27             [1, 14, 14, 384]     [1, 14, 14, 384]     1,776,492            1,183,104              3.58%              True
│    │    └─SwinTransformerBlock: 3-28             [1, 14, 14, 384]     [1, 14, 14, 384]     1,776,492            1,183,104              3.58%              True
│    │    └─SwinTransformerBlock: 3-29             [1, 14, 14, 384]     [1, 14, 14, 384]     1,776,492            1,183,104              3.58%              True
│    └─PatchMerging: 2-7                           [1, 14, 14, 384]     [1, 7, 7, 768]       --                   --                        --              True
│    │    └─LayerNorm: 3-30                        [1, 7, 7, 1536]      [1, 7, 7, 1536]      3,072                3,072                  0.01%              True
│    │    └─Linear: 3-31                           [1, 7, 7, 1536]      [1, 7, 7, 768]       1,179,648            1,179,648              2.38%              True
│    └─Sequential: 2-8                             [1, 7, 7, 768]       [1, 7, 7, 768]       --                   --                        --              True
│    │    └─SwinTransformerBlock: 3-32             [1, 7, 7, 768]       [1, 7, 7, 768]       7,091,928            4,725,504             14.30%              True
│    │    └─SwinTransformerBlock: 3-33             [1, 7, 7, 768]       [1, 7, 7, 768]       7,091,928            4,725,504             14.30%              True
├─LayerNorm: 1-2                                   [1, 7, 7, 768]       [1, 7, 7, 768]       1,536                1,536                  0.00%              True
├─Permute: 1-3                                     [1, 7, 7, 768]       [1, 768, 7, 7]       --                   --                        --              --
├─AdaptiveAvgPool2d: 1-4                           [1, 768, 7, 7]       [1, 768, 1, 1]       --                   --                        --              --
├─Flatten: 1-5                                     [1, 768, 1, 1]       [1, 768]             --                   --                        --              --
├─Linear: 1-6                                      [1, 768]             [1, 1000]            769,000              769,000                1.55%              True
==========================================================================================================================================================================
Total params: 49,606,258
Trainable params: 49,606,258
Non-trainable params: 0
Total mult-adds (Units.MEGABYTES): 48.57
==========================================================================================================================================================================
…
Initializing parameters...
Finished.
==========================================================================================================================================================================
Layer (type:depth-idx)                             Input Shape          Output Shape         Param #              Mult-Adds            Param %              Trainable
==========================================================================================================================================================================
SwinTransformer                                    [1, 3, 224, 224]     [1, 1000]            --                   --                        --              True
├─Sequential: 1-1                                  [1, 3, 224, 224]     [1, 7, 7, 1024]      --                   --                        --              True
│    └─Sequential: 2-1                             [1, 3, 224, 224]     [1, 56, 56, 128]     --                   --                        --              True
│    │    └─Conv2d: 3-1                            [1, 3, 224, 224]     [1, 128, 56, 56]     6,272                19,668,992             0.01%              True
│    │    └─Permute: 3-2                           [1, 128, 56, 56]     [1, 56, 56, 128]     --                   --                        --              --
│    │    └─LayerNorm: 3-3                         [1, 56, 56, 128]     [1, 56, 56, 128]     256                  256                    0.00%              True
│    └─Sequential: 2-2                             [1, 56, 56, 128]     [1, 56, 56, 128]     --                   --                        --              True
│    │    └─SwinTransformerBlock: 3-4              [1, 56, 56, 128]     [1, 56, 56, 128]     198,948              132,224                0.23%              True
│    │    └─SwinTransformerBlock: 3-5              [1, 56, 56, 128]     [1, 56, 56, 128]     198,948              132,224                0.23%              True
│    └─PatchMerging: 2-3                           [1, 56, 56, 128]     [1, 28, 28, 256]     --                   --                        --              True
│    │    └─LayerNorm: 3-6                         [1, 28, 28, 512]     [1, 28, 28, 512]     1,024                1,024                  0.00%              True
│    │    └─Linear: 3-7                            [1, 28, 28, 512]     [1, 28, 28, 256]     131,072              131,072                0.15%              True
│    └─Sequential: 2-4                             [1, 28, 28, 256]     [1, 28, 28, 256]     --                   --                        --              True
│    │    └─SwinTransformerBlock: 3-8              [1, 28, 28, 256]     [1, 28, 28, 256]     791,112              526,592                0.90%              True
│    │    └─SwinTransformerBlock: 3-9              [1, 28, 28, 256]     [1, 28, 28, 256]     791,112              526,592                0.90%              True
│    └─PatchMerging: 2-5                           [1, 28, 28, 256]     [1, 14, 14, 512]     --                   --                        --              True
│    │    └─LayerNorm: 3-10                        [1, 14, 14, 1024]    [1, 14, 14, 1024]    2,048                2,048                  0.00%              True
│    │    └─Linear: 3-11                           [1, 14, 14, 1024]    [1, 14, 14, 512]     524,288              524,288                0.60%              True
│    └─Sequential: 2-6                             [1, 14, 14, 512]     [1, 14, 14, 512]     --                   --                        --              True
│    │    └─SwinTransformerBlock: 3-12             [1, 14, 14, 512]     [1, 14, 14, 512]     3,155,088            2,101,760              3.59%              True
│    │    └─SwinTransformerBlock: 3-13             [1, 14, 14, 512]     [1, 14, 14, 512]     3,155,088            2,101,760              3.59%              True
│    │    └─SwinTransformerBlock: 3-14             [1, 14, 14, 512]     [1, 14, 14, 512]     3,155,088            2,101,760              3.59%              True
│    │    └─SwinTransformerBlock: 3-15             [1, 14, 14, 512]     [1, 14, 14, 512]     3,155,088            2,101,760              3.59%              True
│    │    └─SwinTransformerBlock: 3-16             [1, 14, 14, 512]     [1, 14, 14, 512]     3,155,088            2,101,760              3.59%              True
│    │    └─SwinTransformerBlock: 3-17             [1, 14, 14, 512]     [1, 14, 14, 512]     3,155,088            2,101,760              3.59%              True
│    │    └─SwinTransformerBlock: 3-18             [1, 14, 14, 512]     [1, 14, 14, 512]     3,155,088            2,101,760              3.59%              True
│    │    └─SwinTransformerBlock: 3-19             [1, 14, 14, 512]     [1, 14, 14, 512]     3,155,088            2,101,760              3.59%              True
│    │    └─SwinTransformerBlock: 3-20             [1, 14, 14, 512]     [1, 14, 14, 512]     3,155,088            2,101,760              3.59%              True
│    │    └─SwinTransformerBlock: 3-21             [1, 14, 14, 512]     [1, 14, 14, 512]     3,155,088            2,101,760              3.59%              True
│    │    └─SwinTransformerBlock: 3-22             [1, 14, 14, 512]     [1, 14, 14, 512]     3,155,088            2,101,760              3.59%              True
│    │    └─SwinTransformerBlock: 3-23             [1, 14, 14, 512]     [1, 14, 14, 512]     3,155,088            2,101,760              3.59%              True
│    │    └─SwinTransformerBlock: 3-24             [1, 14, 14, 512]     [1, 14, 14, 512]     3,155,088            2,101,760              3.59%              True
│    │    └─SwinTransformerBlock: 3-25             [1, 14, 14, 512]     [1, 14, 14, 512]     3,155,088            2,101,760              3.59%              True
│    │    └─SwinTransformerBlock: 3-26             [1, 14, 14, 512]     [1, 14, 14, 512]     3,155,088            2,101,760              3.59%              True
│    │    └─SwinTransformerBlock: 3-27             [1, 14, 14, 512]     [1, 14, 14, 512]     3,155,088            2,101,760              3.59%              True
│    │    └─SwinTransformerBlock: 3-28             [1, 14, 14, 512]     [1, 14, 14, 512]     3,155,088            2,101,760              3.59%              True
│    │    └─SwinTransformerBlock: 3-29             [1, 14, 14, 512]     [1, 14, 14, 512]     3,155,088            2,101,760              3.59%              True
│    └─PatchMerging: 2-7                           [1, 14, 14, 512]     [1, 7, 7, 1024]      --                   --                        --              True
│    │    └─LayerNorm: 3-30                        [1, 7, 7, 2048]      [1, 7, 7, 2048]      4,096                4,096                  0.00%              True
│    │    └─Linear: 3-31                           [1, 7, 7, 2048]      [1, 7, 7, 1024]      2,097,152            2,097,152              2.39%              True
│    └─Sequential: 2-8                             [1, 7, 7, 1024]      [1, 7, 7, 1024]      --                   --                        --              True
│    │    └─SwinTransformerBlock: 3-32             [1, 7, 7, 1024]      [1, 7, 7, 1024]      12,601,632           8,397,824             14.36%              True
│    │    └─SwinTransformerBlock: 3-33             [1, 7, 7, 1024]      [1, 7, 7, 1024]      12,601,632           8,397,824             14.36%              True
├─LayerNorm: 1-2                                   [1, 7, 7, 1024]      [1, 7, 7, 1024]      2,048                2,048                  0.00%              True
├─Permute: 1-3                                     [1, 7, 7, 1024]      [1, 1024, 7, 7]      --                   --                        --              --
├─AdaptiveAvgPool2d: 1-4                           [1, 1024, 7, 7]      [1, 1024, 1, 1]      --                   --                        --              --
├─Flatten: 1-5                                     [1, 1024, 1, 1]      [1, 1024]            --                   --                        --              --
├─Linear: 1-6                                      [1, 1024]            [1, 1000]            1,025,000            1,025,000              1.17%              True
==========================================================================================================================================================================
Total params: 87,768,224
Trainable params: 87,768,224
Non-trainable params: 0
Total mult-adds (Units.MEGABYTES): 79.40
==========================================================================================================================================================================
…
===============================================================================================================================================================================
Layer (type:depth-idx)                                  Input Shape          Output Shape         Param #              Mult-Adds            Param %              Trainable
===============================================================================================================================================================================
SwinTransformer                                         [1, 3, 224, 224]     [1, 1000]            --                   --                        --              True
├─Sequential: 1-1                                       [1, 3, 224, 224]     [1, 7, 7, 768]       --                   --                        --              True
│    └─Sequential: 2-1                                  [1, 3, 224, 224]     [1, 56, 56, 96]      --                   --                        --              True
│    │    └─Conv2d: 3-1                                 [1, 3, 224, 224]     [1, 96, 56, 56]      4,704                14,751,744             0.02%              True
│    │    └─Permute: 3-2                                [1, 96, 56, 56]      [1, 56, 56, 96]      --                   --                        --              --
│    │    └─LayerNorm: 3-3                              [1, 56, 56, 96]      [1, 56, 56, 96]      192                  192                    0.00%              True
│    └─Sequential: 2-2                                  [1, 56, 56, 96]      [1, 56, 56, 96]      --                   --                        --              True
│    │    └─SwinTransformerBlockV2: 3-4                 [1, 56, 56, 96]      [1, 56, 56, 96]      114,915              77,664                 0.41%              True
│    │    └─SwinTransformerBlockV2: 3-5                 [1, 56, 56, 96]      [1, 56, 56, 96]      114,915              77,664                 0.41%              True
│    └─PatchMergingV2: 2-3                              [1, 56, 56, 96]      [1, 28, 28, 192]     --                   --                        --              True
│    │    └─Linear: 3-6                                 [1, 28, 28, 384]     [1, 28, 28, 192]     73,728               73,728                 0.26%              True
│    │    └─LayerNorm: 3-7                              [1, 28, 28, 192]     [1, 28, 28, 192]     384                  384                    0.00%              True
│    └─Sequential: 2-4                                  [1, 28, 28, 192]     [1, 28, 28, 192]     --                   --                        --              True
│    │    └─SwinTransformerBlockV2: 3-8                 [1, 28, 28, 192]     [1, 28, 28, 192]     449,478              301,248                1.59%              True
│    │    └─SwinTransformerBlockV2: 3-9                 [1, 28, 28, 192]     [1, 28, 28, 192]     449,478              301,248                1.59%              True
│    └─PatchMergingV2: 2-5                              [1, 28, 28, 192]     [1, 14, 14, 384]     --                   --                        --              True
│    │    └─Linear: 3-10                                [1, 14, 14, 768]     [1, 14, 14, 384]     294,912              294,912                1.04%              True
│    │    └─LayerNorm: 3-11                             [1, 14, 14, 384]     [1, 14, 14, 384]     768                  768                    0.00%              True
│    └─Sequential: 2-6                                  [1, 14, 14, 384]     [1, 14, 14, 384]     --                   --                        --              True
│    │    └─SwinTransformerBlockV2: 3-12                [1, 14, 14, 384]     [1, 14, 14, 384]     1,782,156            1,190,784              6.29%              True
│    │    └─SwinTransformerBlockV2: 3-13                [1, 14, 14, 384]     [1, 14, 14, 384]     1,782,156            1,190,784              6.29%              True
│    │    └─SwinTransformerBlockV2: 3-14                [1, 14, 14, 384]     [1, 14, 14, 384]     1,782,156            1,190,784              6.29%              True
│    │    └─SwinTransformerBlockV2: 3-15                [1, 14, 14, 384]     [1, 14, 14, 384]     1,782,156            1,190,784              6.29%              True
│    │    └─SwinTransformerBlockV2: 3-16                [1, 14, 14, 384]     [1, 14, 14, 384]     1,782,156            1,190,784              6.29%              True
│    │    └─SwinTransformerBlockV2: 3-17                [1, 14, 14, 384]     [1, 14, 14, 384]     1,782,156            1,190,784              6.29%              True
│    └─PatchMergingV2: 2-7                              [1, 14, 14, 384]     [1, 7, 7, 768]       --                   --                        --              True
│    │    └─Linear: 3-18                                [1, 7, 7, 1536]      [1, 7, 7, 768]       1,179,648            1,179,648              4.16%              True
│    │    └─LayerNorm: 3-19                             [1, 7, 7, 768]       [1, 7, 7, 768]       1,536                1,536                  0.01%              True
│    └─Sequential: 2-8                                  [1, 7, 7, 768]       [1, 7, 7, 768]       --                   --                        --              True
│    │    └─SwinTransformerBlockV2: 3-20                [1, 7, 7, 768]       [1, 7, 7, 768]       7,101,720            4,739,328             25.05%              True
│    │    └─SwinTransformerBlockV2: 3-21                [1, 7, 7, 768]       [1, 7, 7, 768]       7,101,720            4,739,328             25.05%              True
├─LayerNorm: 1-2                                        [1, 7, 7, 768]       [1, 7, 7, 768]       1,536                1,536                  0.01%              True
├─Permute: 1-3                                          [1, 7, 7, 768]       [1, 768, 7, 7]       --                   --                        --              --
├─AdaptiveAvgPool2d: 1-4                                [1, 768, 7, 7]       [1, 768, 1, 1]       --                   --                        --              --
├─Flatten: 1-5                                          [1, 768, 1, 1]       [1, 768]             --                   --                        --              --
├─Linear: 1-6                                           [1, 768]             [1, 1000]            769,000              769,000                2.71%              True
===============================================================================================================================================================================
Total params: 28,351,570
Trainable params: 28,351,570
Non-trainable params: 0
Total mult-adds (Units.MEGABYTES): 34.45
===============================================================================================================================================================================
…
===============================================================================================================================================================================
Layer (type:depth-idx)                                  Input Shape          Output Shape         Param #              Mult-Adds            Param %              Trainable
===============================================================================================================================================================================
SwinTransformer                                         [1, 3, 224, 224]     [1, 1000]            --                   --                        --              True
├─Sequential: 1-1                                       [1, 3, 224, 224]     [1, 7, 7, 768]       --                   --                        --              True
│    └─Sequential: 2-1                                  [1, 3, 224, 224]     [1, 56, 56, 96]      --                   --                        --              True
│    │    └─Conv2d: 3-1                                 [1, 3, 224, 224]     [1, 96, 56, 56]      4,704                14,751,744             0.01%              True
│    │    └─Permute: 3-2                                [1, 96, 56, 56]      [1, 56, 56, 96]      --                   --                        --              --
│    │    └─LayerNorm: 3-3                              [1, 56, 56, 96]      [1, 56, 56, 96]      192                  192                    0.00%              True
│    └─Sequential: 2-2                                  [1, 56, 56, 96]      [1, 56, 56, 96]      --                   --                        --              True
│    │    └─SwinTransformerBlockV2: 3-4                 [1, 56, 56, 96]      [1, 56, 56, 96]      114,915              77,664                 0.23%              True
│    │    └─SwinTransformerBlockV2: 3-5                 [1, 56, 56, 96]      [1, 56, 56, 96]      114,915              77,664                 0.23%              True
│    └─PatchMergingV2: 2-3                              [1, 56, 56, 96]      [1, 28, 28, 192]     --                   --                        --              True
│    │    └─Linear: 3-6                                 [1, 28, 28, 384]     [1, 28, 28, 192]     73,728               73,728                 0.15%              True
│    │    └─LayerNorm: 3-7                              [1, 28, 28, 192]     [1, 28, 28, 192]     384                  384                    0.00%              True
│    └─Sequential: 2-4                                  [1, 28, 28, 192]     [1, 28, 28, 192]     --                   --                        --              True
│    │    └─SwinTransformerBlockV2: 3-8                 [1, 28, 28, 192]     [1, 28, 28, 192]     449,478              301,248                0.90%              True
│    │    └─SwinTransformerBlockV2: 3-9                 [1, 28, 28, 192]     [1, 28, 28, 192]     449,478              301,248                0.90%              True
│    └─PatchMergingV2: 2-5                              [1, 28, 28, 192]     [1, 14, 14, 384]     --                   --                        --              True
│    │    └─Linear: 3-10                                [1, 14, 14, 768]     [1, 14, 14, 384]     294,912              294,912                0.59%              True
│    │    └─LayerNorm: 3-11                             [1, 14, 14, 384]     [1, 14, 14, 384]     768                  768                    0.00%              True
│    └─Sequential: 2-6                                  [1, 14, 14, 384]     [1, 14, 14, 384]     --                   --                        --              True
│    │    └─SwinTransformerBlockV2: 3-12                [1, 14, 14, 384]     [1, 14, 14, 384]     1,782,156            1,190,784              3.58%              True
│    │    └─SwinTransformerBlockV2: 3-13                [1, 14, 14, 384]     [1, 14, 14, 384]     1,782,156            1,190,784              3.58%              True
│    │    └─SwinTransformerBlockV2: 3-14                [1, 14, 14, 384]     [1, 14, 14, 384]     1,782,156            1,190,784              3.58%              True
│    │    └─SwinTransformerBlockV2: 3-15                [1, 14, 14, 384]     [1, 14, 14, 384]     1,782,156            1,190,784              3.58%              True
│    │    └─SwinTransformerBlockV2: 3-16                [1, 14, 14, 384]     [1, 14, 14, 384]     1,782,156            1,190,784              3.58%              True
│    │    └─SwinTransformerBlockV2: 3-17                [1, 14, 14, 384]     [1, 14, 14, 384]     1,782,156            1,190,784              3.58%              True
│    │    └─SwinTransformerBlockV2: 3-18                [1, 14, 14, 384]     [1, 14, 14, 384]     1,782,156            1,190,784              3.58%              True
│    │    └─SwinTransformerBlockV2: 3-19                [1, 14, 14, 384]     [1, 14, 14, 384]     1,782,156            1,190,784              3.58%              True
│    │    └─SwinTransformerBlockV2: 3-20                [1, 14, 14, 384]     [1, 14, 14, 384]     1,782,156            1,190,784              3.58%              True
│    │    └─SwinTransformerBlockV2: 3-21                [1, 14, 14, 384]     [1, 14, 14, 384]     1,782,156            1,190,784              3.58%              True
│    │    └─SwinTransformerBlockV2: 3-22                [1, 14, 14, 384]     [1, 14, 14, 384]     1,782,156            1,190,784              3.58%              True
│    │    └─SwinTransformerBlockV2: 3-23                [1, 14, 14, 384]     [1, 14, 14, 384]     1,782,156            1,190,784              3.58%              True
│    │    └─SwinTransformerBlockV2: 3-24                [1, 14, 14, 384]     [1, 14, 14, 384]     1,782,156            1,190,784              3.58%              True
│    │    └─SwinTransformerBlockV2: 3-25                [1, 14, 14, 384]     [1, 14, 14, 384]     1,782,156            1,190,784              3.58%              True
│    │    └─SwinTransformerBlockV2: 3-26                [1, 14, 14, 384]     [1, 14, 14, 384]     1,782,156            1,190,784              3.58%              True
│    │    └─SwinTransformerBlockV2: 3-27                [1, 14, 14, 384]     [1, 14, 14, 384]     1,782,156            1,190,784              3.58%              True
│    │    └─SwinTransformerBlockV2: 3-28                [1, 14, 14, 384]     [1, 14, 14, 384]     1,782,156            1,190,784              3.58%              True
│    │    └─SwinTransformerBlockV2: 3-29                [1, 14, 14, 384]     [1, 14, 14, 384]     1,782,156            1,190,784              3.58%              True
│    └─PatchMergingV2: 2-7                              [1, 14, 14, 384]     [1, 7, 7, 768]       --                   --                        --              True
│    │    └─Linear: 3-30                                [1, 7, 7, 1536]      [1, 7, 7, 768]       1,179,648            1,179,648              2.37%              True
│    │    └─LayerNorm: 3-31                             [1, 7, 7, 768]       [1, 7, 7, 768]       1,536                1,536                  0.00%              True
│    └─Sequential: 2-8                                  [1, 7, 7, 768]       [1, 7, 7, 768]       --                   --                        --              True
│    │    └─SwinTransformerBlockV2: 3-32                [1, 7, 7, 768]       [1, 7, 7, 768]       7,101,720            4,739,328             14.28%              True
│    │    └─SwinTransformerBlockV2: 3-33                [1, 7, 7, 768]       [1, 7, 7, 768]       7,101,720            4,739,328             14.28%              True
├─LayerNorm: 1-2                                        [1, 7, 7, 768]       [1, 7, 7, 768]       1,536                1,536                  0.00%              True
├─Permute: 1-3                                          [1, 7, 7, 768]       [1, 768, 7, 7]       --                   --                        --              --
├─AdaptiveAvgPool2d: 1-4                                [1, 768, 7, 7]       [1, 768, 1, 1]       --                   --                        --              --
├─Flatten: 1-5                                          [1, 768, 1, 1]       [1, 768]             --                   --                        --              --
├─Linear: 1-6                                           [1, 768]             [1, 1000]            769,000              769,000                1.55%              True
===============================================================================================================================================================================
Total params: 49,737,442
Trainable params: 49,737,442
Non-trainable params: 0
Total mult-adds (Units.MEGABYTES): 48.74
===============================================================================================================================================================================
…
===============================================================================================================================================================================
Layer (type:depth-idx)                                  Input Shape          Output Shape         Param #              Mult-Adds            Param %              Trainable
===============================================================================================================================================================================
SwinTransformer                                         [1, 3, 224, 224]     [1, 1000]            --                   --                        --              True
├─Sequential: 1-1                                       [1, 3, 224, 224]     [1, 7, 7, 1024]      --                   --                        --              True
│    └─Sequential: 2-1                                  [1, 3, 224, 224]     [1, 56, 56, 128]     --                   --                        --              True
│    │    └─Conv2d: 3-1                                 [1, 3, 224, 224]     [1, 128, 56, 56]     6,272                19,668,992             0.01%              True
│    │    └─Permute: 3-2                                [1, 128, 56, 56]     [1, 56, 56, 128]     --                   --                        --              --
│    │    └─LayerNorm: 3-3                              [1, 56, 56, 128]     [1, 56, 56, 128]     256                  256                    0.00%              True
│    └─Sequential: 2-2                                  [1, 56, 56, 128]     [1, 56, 56, 128]     --                   --                        --              True
│    │    └─SwinTransformerBlockV2: 3-4                 [1, 56, 56, 128]     [1, 56, 56, 128]     201,860              135,808                0.23%              True
│    │    └─SwinTransformerBlockV2: 3-5                 [1, 56, 56, 128]     [1, 56, 56, 128]     201,860              135,808                0.23%              True
│    └─PatchMergingV2: 2-3                              [1, 56, 56, 128]     [1, 28, 28, 256]     --                   --                        --              True
│    │    └─Linear: 3-6                                 [1, 28, 28, 512]     [1, 28, 28, 256]     131,072              131,072                0.15%              True
│    │    └─LayerNorm: 3-7                              [1, 28, 28, 256]     [1, 28, 28, 256]     512                  512                    0.00%              True
│    └─Sequential: 2-4                                  [1, 28, 28, 256]     [1, 28, 28, 256]     --                   --                        --              True
│    │    └─SwinTransformerBlockV2: 3-8                 [1, 28, 28, 256]     [1, 28, 28, 256]     795,400              532,224                0.90%              True
│    │    └─SwinTransformerBlockV2: 3-9                 [1, 28, 28, 256]     [1, 28, 28, 256]     795,400              532,224                0.90%              True
│    └─PatchMergingV2: 2-5                              [1, 28, 28, 256]     [1, 14, 14, 512]     --                   --                        --              True
│    │    └─Linear: 3-10                                [1, 14, 14, 1024]    [1, 14, 14, 512]     524,288              524,288                0.60%              True
│    │    └─LayerNorm: 3-11                             [1, 14, 14, 512]     [1, 14, 14, 512]     1,024                1,024                  0.00%              True
│    └─Sequential: 2-6                                  [1, 14, 14, 512]     [1, 14, 14, 512]     --                   --                        --              True
│    │    └─SwinTransformerBlockV2: 3-12                [1, 14, 14, 512]     [1, 14, 14, 512]     3,162,128            2,111,488              3.60%              True
│    │    └─SwinTransformerBlockV2: 3-13                [1, 14, 14, 512]     [1, 14, 14, 512]     3,162,128            2,111,488              3.60%              True
│    │    └─SwinTransformerBlockV2: 3-14                [1, 14, 14, 512]     [1, 14, 14, 512]     3,162,128            2,111,488              3.60%              True
│    │    └─SwinTransformerBlockV2: 3-15                [1, 14, 14, 512]     [1, 14, 14, 512]     3,162,128            2,111,488              3.60%              True
│    │    └─SwinTransformerBlockV2: 3-16                [1, 14, 14, 512]     [1, 14, 14, 512]     3,162,128            2,111,488              3.60%              True
│    │    └─SwinTransformerBlockV2: 3-17                [1, 14, 14, 512]     [1, 14, 14, 512]     3,162,128            2,111,488              3.60%              True
│    │    └─SwinTransformerBlockV2: 3-18                [1, 14, 14, 512]     [1, 14, 14, 512]     3,162,128            2,111,488              3.60%              True
│    │    └─SwinTransformerBlockV2: 3-19                [1, 14, 14, 512]     [1, 14, 14, 512]     3,162,128            2,111,488              3.60%              True
│    │    └─SwinTransformerBlockV2: 3-20                [1, 14, 14, 512]     [1, 14, 14, 512]     3,162,128            2,111,488              3.60%              True
│    │    └─SwinTransformerBlockV2: 3-21                [1, 14, 14, 512]     [1, 14, 14, 512]     3,162,128            2,111,488              3.60%              True
│    │    └─SwinTransformerBlockV2: 3-22                [1, 14, 14, 512]     [1, 14, 14, 512]     3,162,128            2,111,488              3.60%              True
│    │    └─SwinTransformerBlockV2: 3-23                [1, 14, 14, 512]     [1, 14, 14, 512]     3,162,128            2,111,488              3.60%              True
│    │    └─SwinTransformerBlockV2: 3-24                [1, 14, 14, 512]     [1, 14, 14, 512]     3,162,128            2,111,488              3.60%              True
│    │    └─SwinTransformerBlockV2: 3-25                [1, 14, 14, 512]     [1, 14, 14, 512]     3,162,128            2,111,488              3.60%              True
│    │    └─SwinTransformerBlockV2: 3-26                [1, 14, 14, 512]     [1, 14, 14, 512]     3,162,128            2,111,488              3.60%              True
│    │    └─SwinTransformerBlockV2: 3-27                [1, 14, 14, 512]     [1, 14, 14, 512]     3,162,128            2,111,488              3.60%              True
│    │    └─SwinTransformerBlockV2: 3-28                [1, 14, 14, 512]     [1, 14, 14, 512]     3,162,128            2,111,488              3.60%              True
│    │    └─SwinTransformerBlockV2: 3-29                [1, 14, 14, 512]     [1, 14, 14, 512]     3,162,128            2,111,488              3.60%              True
│    └─PatchMergingV2: 2-7                              [1, 14, 14, 512]     [1, 7, 7, 1024]      --                   --                        --              True
│    │    └─Linear: 3-30                                [1, 7, 7, 2048]      [1, 7, 7, 1024]      2,097,152            2,097,152              2.39%              True
│    │    └─LayerNorm: 3-31                             [1, 7, 7, 1024]      [1, 7, 7, 1024]      2,048                2,048                  0.00%              True
│    └─Sequential: 2-8                                  [1, 7, 7, 1024]      [1, 7, 7, 1024]      --                   --                        --              True
│    │    └─SwinTransformerBlockV2: 3-32                [1, 7, 7, 1024]      [1, 7, 7, 1024]      12,614,176           8,415,744             14.35%              True
│    │    └─SwinTransformerBlockV2: 3-33                [1, 7, 7, 1024]      [1, 7, 7, 1024]      12,614,176           8,415,744             14.35%              True
├─LayerNorm: 1-2                                        [1, 7, 7, 1024]      [1, 7, 7, 1024]      2,048                2,048                  0.00%              True
├─Permute: 1-3                                          [1, 7, 7, 1024]      [1, 1024, 7, 7]      --                   --                        --              --
├─AdaptiveAvgPool2d: 1-4                                [1, 1024, 7, 7]      [1, 1024, 1, 1]      --                   --                        --              --
├─Flatten: 1-5                                          [1, 1024, 1, 1]      [1, 1024]            --                   --                        --              --
├─Linear: 1-6                                           [1, 1024]            [1, 1000]            1,025,000            1,025,000              1.17%              True
===============================================================================================================================================================================
Total params: 87,930,848
Trainable params: 87,930,848
Non-trainable params: 0
Total mult-adds (Units.MEGABYTES): 79.63
===============================================================================================================================================================================
…
=============================================================================================================================================================================================================
Layer (type:depth-idx)                                                                Input Shape          Output Shape         Param #              Mult-Adds            Param %              Trainable
=============================================================================================================================================================================================================
MaxVit                                                                                [1, 3, 224, 224]     [1, 1000]            --                   --                        --              True
├─Sequential: 1-1                                                                     [1, 3, 224, 224]     [1, 64, 112, 112]    --                   --                        --              True
│    └─Conv2dNormActivation: 2-1                                                      [1, 3, 224, 224]     [1, 64, 112, 112]    --                   --                        --              True
│    │    └─Conv2d: 3-1                                                               [1, 3, 224, 224]     [1, 64, 112, 112]    1,728                21,676,032             0.01%              True
│    │    └─BatchNorm2d: 3-2                                                          [1, 64, 112, 112]    [1, 64, 112, 112]    128                  128                    0.00%              True
│    │    └─GELU: 3-3                                                                 [1, 64, 112, 112]    [1, 64, 112, 112]    --                   --                        --              --
│    └─Conv2dNormActivation: 2-2                                                      [1, 64, 112, 112]    [1, 64, 112, 112]    --                   --                        --              True
│    │    └─Conv2d: 3-4                                                               [1, 64, 112, 112]    [1, 64, 112, 112]    36,928               463,224,832            0.12%              True
├─ModuleList: 1-2                                                                     --                   --                   --                   --                        --              True
│    └─MaxVitBlock: 2-3                                                               [1, 64, 112, 112]    [1, 64, 56, 56]      --                   --                        --              True
│    │    └─ModuleList: 3-5                                                           --                   --                   294,952              --                     0.95%              True
│    └─MaxVitBlock: 2-4                                                               [1, 64, 56, 56]      [1, 128, 28, 28]     --                   --                        --              True
│    │    └─ModuleList: 3-6                                                           --                   --                   1,114,064            --                     3.60%              True
│    └─MaxVitBlock: 2-5                                                               [1, 128, 28, 28]     [1, 256, 14, 14]     --                   --                        --              True
│    │    └─ModuleList: 3-7                                                           --                   --                   11,165,456           --                    36.11%              True
│    └─MaxVitBlock: 2-6                                                               [1, 256, 14, 14]     [1, 512, 7, 7]       --                   --                        --              True
│    │    └─ModuleList: 3-8                                                           --                   --                   17,530,688           --                    56.70%              True
├─Sequential: 1-3                                                                     [1, 512, 7, 7]       [1, 1000]            --                   --                        --              True
│    └─AdaptiveAvgPool2d: 2-7                                                         [1, 512, 7, 7]       [1, 512, 1, 1]       --                   --                        --              --
│    └─Flatten: 2-8                                                                   [1, 512, 1, 1]       [1, 512]             --                   --                        --              --
│    └─LayerNorm: 2-9                                                                 [1, 512]             [1, 512]             1,024                1,024                  0.00%              True
│    └─Linear: 2-10                                                                   [1, 512]             [1, 512]             262,656              262,656                0.85%              True
│    └─Tanh: 2-11                                                                     [1, 512]             [1, 512]             --                   --                        --              --
│    └─Linear: 2-12                                                                   [1, 512]             [1, 1000]            512,000              512,000                1.66%              True
=============================================================================================================================================================================================================
Total params: 30,919,624
Trainable params: 30,919,624
Non-trainable params: 0
Total mult-adds (Units.GIGABYTES): 2.01
=============================================================================================================================================================================================================
…
