alexnet
[Sequential(
  (0): Conv2d(3, 64, kernel_size=(11, 11), stride=(4, 4), padding=(2, 2))
  (1): ReLU(inplace=True)
  (2): MaxPool2d(kernel_size=3, stride=2, padding=0, dilation=1, ceil_mode=False)
  (3): Conv2d(64, 192, kernel_size=(5, 5), stride=(1, 1), padding=(2, 2))
  (4): ReLU(inplace=True)
  (5): MaxPool2d(kernel_size=3, stride=2, padding=0, dilation=1, ceil_mode=False)
  (6): Conv2d(192, 384, kernel_size=(3, 3), stride=(1, 1), padding=(1, 1))
  (7): ReLU(inplace=True)
  (8): Conv2d(384, 256, kernel_size=(3, 3), stride=(1, 1), padding=(1, 1))
  (9): ReLU(inplace=True)
  (10): Conv2d(256, 256, kernel_size=(3, 3), stride=(1, 1), padding=(1, 1))
  (11): ReLU(inplace=True)
  (12): MaxPool2d(kernel_size=3, stride=2, padding=0, dilation=1, ceil_mode=False)
), AdaptiveAvgPool2d(output_size=(6, 6)), Sequential(
  (0): Dropout(p=0.5, inplace=False)
  (1): Linear(in_features=9216, out_features=4096, bias=True)
  (2): ReLU(inplace=True)
  (3): Dropout(p=0.5, inplace=False)
  (4): Linear(in_features=4096, out_features=4096, bias=True)
  (5): ReLU(inplace=True)
  (6): Linear(in_features=4096, out_features=1000, bias=True)
), ReLU(inplace=True), Dropout(p=0.5, inplace=False), Linear(in_features=1000, out_features=2, bias=True)]


##########################################################################################3


googlenet
[BasicConv2d(
  (conv): Conv2d(3, 64, kernel_size=(7, 7), stride=(2, 2), padding=(3, 3), bias=False)
  (bn): BatchNorm2d(64, eps=0.001, momentum=0.1, affine=True, track_running_stats=True)
), MaxPool2d(kernel_size=3, stride=2, padding=0, dilation=1, ceil_mode=True), BasicConv2d(
  (conv): Conv2d(64, 64, kernel_size=(1, 1), stride=(1, 1), bias=False)
  (bn): BatchNorm2d(64, eps=0.001, momentum=0.1, affine=True, track_running_stats=True)
), BasicConv2d(
  (conv): Conv2d(64, 192, kernel_size=(3, 3), stride=(1, 1), padding=(1, 1), bias=False)
  (bn): BatchNorm2d(192, eps=0.001, momentum=0.1, affine=True, track_running_stats=True)
), MaxPool2d(kernel_size=3, stride=2, padding=0, dilation=1, ceil_mode=True), Inception(
  (branch1): BasicConv2d(
    (conv): Conv2d(192, 64, kernel_size=(1, 1), stride=(1, 1), bias=False)
    (bn): BatchNorm2d(64, eps=0.001, momentum=0.1, affine=True, track_running_stats=True)
  )
  (branch2): Sequential(
    (0): BasicConv2d(
      (conv): Conv2d(192, 96, kernel_size=(1, 1), stride=(1, 1), bias=False)
      (bn): BatchNorm2d(96, eps=0.001, momentum=0.1, affine=True, track_running_stats=True)
    )
    (1): BasicConv2d(
      (conv): Conv2d(96, 128, kernel_size=(3, 3), stride=(1, 1), padding=(1, 1), bias=False)
      (bn): BatchNorm2d(128, eps=0.001, momentum=0.1, affine=True, track_running_stats=True)
    )
  )
  (branch3): Sequential(
    (0): BasicConv2d(
      (conv): Conv2d(192, 16, kernel_size=(1, 1), stride=(1, 1), bias=False)
      (bn): BatchNorm2d(16, eps=0.001, momentum=0.1, affine=True, track_running_stats=True)
    )
    (1): BasicConv2d(
      (conv): Conv2d(16, 32, kernel_size=(3, 3), stride=(1, 1), padding=(1, 1), bias=False)
      (bn): BatchNorm2d(32, eps=0.001, momentum=0.1, affine=True, track_running_stats=True)
    )
  )
  (branch4): Sequential(
    (0): MaxPool2d(kernel_size=3, stride=1, padding=1, dilation=1, ceil_mode=True)
    (1): BasicConv2d(
      (conv): Conv2d(192, 32, kernel_size=(1, 1), stride=(1, 1), bias=False)
      (bn): BatchNorm2d(32, eps=0.001, momentum=0.1, affine=True, track_running_stats=True)
    )
  )
), Inception(
  (branch1): BasicConv2d(
    (conv): Conv2d(256, 128, kernel_size=(1, 1), stride=(1, 1), bias=False)
    (bn): BatchNorm2d(128, eps=0.001, momentum=0.1, affine=True, track_running_stats=True)
  )
  (branch2): Sequential(
    (0): BasicConv2d(
      (conv): Conv2d(256, 128, kernel_size=(1, 1), stride=(1, 1), bias=False)
      (bn): BatchNorm2d(128, eps=0.001, momentum=0.1, affine=True, track_running_stats=True)
    )
    (1): BasicConv2d(
      (conv): Conv2d(128, 192, kernel_size=(3, 3), stride=(1, 1), padding=(1, 1), bias=False)
      (bn): BatchNorm2d(192, eps=0.001, momentum=0.1, affine=True, track_running_stats=True)
    )
  )
  (branch3): Sequential(
    (0): BasicConv2d(
      (conv): Conv2d(256, 32, kernel_size=(1, 1), stride=(1, 1), bias=False)
      (bn): BatchNorm2d(32, eps=0.001, momentum=0.1, affine=True, track_running_stats=True)
    )
    (1): BasicConv2d(
      (conv): Conv2d(32, 96, kernel_size=(3, 3), stride=(1, 1), padding=(1, 1), bias=False)
      (bn): BatchNorm2d(96, eps=0.001, momentum=0.1, affine=True, track_running_stats=True)
    )
  )
  (branch4): Sequential(
    (0): MaxPool2d(kernel_size=3, stride=1, padding=1, dilation=1, ceil_mode=True)
    (1): BasicConv2d(
      (conv): Conv2d(256, 64, kernel_size=(1, 1), stride=(1, 1), bias=False)
      (bn): BatchNorm2d(64, eps=0.001, momentum=0.1, affine=True, track_running_stats=True)
    )
  )
), MaxPool2d(kernel_size=3, stride=2, padding=0, dilation=1, ceil_mode=True), Inception(
  (branch1): BasicConv2d(
    (conv): Conv2d(480, 192, kernel_size=(1, 1), stride=(1, 1), bias=False)
    (bn): BatchNorm2d(192, eps=0.001, momentum=0.1, affine=True, track_running_stats=True)
  )
  (branch2): Sequential(
    (0): BasicConv2d(
      (conv): Conv2d(480, 96, kernel_size=(1, 1), stride=(1, 1), bias=False)
      (bn): BatchNorm2d(96, eps=0.001, momentum=0.1, affine=True, track_running_stats=True)
    )
    (1): BasicConv2d(
      (conv): Conv2d(96, 208, kernel_size=(3, 3), stride=(1, 1), padding=(1, 1), bias=False)
      (bn): BatchNorm2d(208, eps=0.001, momentum=0.1, affine=True, track_running_stats=True)
    )
  )
  (branch3): Sequential(
    (0): BasicConv2d(
      (conv): Conv2d(480, 16, kernel_size=(1, 1), stride=(1, 1), bias=False)
      (bn): BatchNorm2d(16, eps=0.001, momentum=0.1, affine=True, track_running_stats=True)
    )
    (1): BasicConv2d(
      (conv): Conv2d(16, 48, kernel_size=(3, 3), stride=(1, 1), padding=(1, 1), bias=False)
      (bn): BatchNorm2d(48, eps=0.001, momentum=0.1, affine=True, track_running_stats=True)
    )
  )
  (branch4): Sequential(
    (0): MaxPool2d(kernel_size=3, stride=1, padding=1, dilation=1, ceil_mode=True)
    (1): BasicConv2d(
      (conv): Conv2d(480, 64, kernel_size=(1, 1), stride=(1, 1), bias=False)
      (bn): BatchNorm2d(64, eps=0.001, momentum=0.1, affine=True, track_running_stats=True)
    )
  )
), Inception(
  (branch1): BasicConv2d(
    (conv): Conv2d(512, 160, kernel_size=(1, 1), stride=(1, 1), bias=False)
    (bn): BatchNorm2d(160, eps=0.001, momentum=0.1, affine=True, track_running_stats=True)
  )
  (branch2): Sequential(
    (0): BasicConv2d(
      (conv): Conv2d(512, 112, kernel_size=(1, 1), stride=(1, 1), bias=False)
      (bn): BatchNorm2d(112, eps=0.001, momentum=0.1, affine=True, track_running_stats=True)
    )
    (1): BasicConv2d(
      (conv): Conv2d(112, 224, kernel_size=(3, 3), stride=(1, 1), padding=(1, 1), bias=False)
      (bn): BatchNorm2d(224, eps=0.001, momentum=0.1, affine=True, track_running_stats=True)
    )
  )
  (branch3): Sequential(
    (0): BasicConv2d(
      (conv): Conv2d(512, 24, kernel_size=(1, 1), stride=(1, 1), bias=False)
      (bn): BatchNorm2d(24, eps=0.001, momentum=0.1, affine=True, track_running_stats=True)
    )
    (1): BasicConv2d(
      (conv): Conv2d(24, 64, kernel_size=(3, 3), stride=(1, 1), padding=(1, 1), bias=False)
      (bn): BatchNorm2d(64, eps=0.001, momentum=0.1, affine=True, track_running_stats=True)
    )
  )
  (branch4): Sequential(
    (0): MaxPool2d(kernel_size=3, stride=1, padding=1, dilation=1, ceil_mode=True)
    (1): BasicConv2d(
      (conv): Conv2d(512, 64, kernel_size=(1, 1), stride=(1, 1), bias=False)
      (bn): BatchNorm2d(64, eps=0.001, momentum=0.1, affine=True, track_running_stats=True)
    )
  )
), Inception(
  (branch1): BasicConv2d(
    (conv): Conv2d(512, 128, kernel_size=(1, 1), stride=(1, 1), bias=False)
    (bn): BatchNorm2d(128, eps=0.001, momentum=0.1, affine=True, track_running_stats=True)
  )
  (branch2): Sequential(
    (0): BasicConv2d(
      (conv): Conv2d(512, 128, kernel_size=(1, 1), stride=(1, 1), bias=False)
      (bn): BatchNorm2d(128, eps=0.001, momentum=0.1, affine=True, track_running_stats=True)
    )
    (1): BasicConv2d(
      (conv): Conv2d(128, 256, kernel_size=(3, 3), stride=(1, 1), padding=(1, 1), bias=False)
      (bn): BatchNorm2d(256, eps=0.001, momentum=0.1, affine=True, track_running_stats=True)
    )
  )
  (branch3): Sequential(
    (0): BasicConv2d(
      (conv): Conv2d(512, 24, kernel_size=(1, 1), stride=(1, 1), bias=False)
      (bn): BatchNorm2d(24, eps=0.001, momentum=0.1, affine=True, track_running_stats=True)
    )
    (1): BasicConv2d(
      (conv): Conv2d(24, 64, kernel_size=(3, 3), stride=(1, 1), padding=(1, 1), bias=False)
      (bn): BatchNorm2d(64, eps=0.001, momentum=0.1, affine=True, track_running_stats=True)
    )
  )
  (branch4): Sequential(
    (0): MaxPool2d(kernel_size=3, stride=1, padding=1, dilation=1, ceil_mode=True)
    (1): BasicConv2d(
      (conv): Conv2d(512, 64, kernel_size=(1, 1), stride=(1, 1), bias=False)
      (bn): BatchNorm2d(64, eps=0.001, momentum=0.1, affine=True, track_running_stats=True)
    )
  )
), Inception(
  (branch1): BasicConv2d(
    (conv): Conv2d(512, 112, kernel_size=(1, 1), stride=(1, 1), bias=False)
    (bn): BatchNorm2d(112, eps=0.001, momentum=0.1, affine=True, track_running_stats=True)
  )
  (branch2): Sequential(
    (0): BasicConv2d(
      (conv): Conv2d(512, 144, kernel_size=(1, 1), stride=(1, 1), bias=False)
      (bn): BatchNorm2d(144, eps=0.001, momentum=0.1, affine=True, track_running_stats=True)
    )
    (1): BasicConv2d(
      (conv): Conv2d(144, 288, kernel_size=(3, 3), stride=(1, 1), padding=(1, 1), bias=False)
      (bn): BatchNorm2d(288, eps=0.001, momentum=0.1, affine=True, track_running_stats=True)
    )
  )
  (branch3): Sequential(
    (0): BasicConv2d(
      (conv): Conv2d(512, 32, kernel_size=(1, 1), stride=(1, 1), bias=False)
      (bn): BatchNorm2d(32, eps=0.001, momentum=0.1, affine=True, track_running_stats=True)
    )
    (1): BasicConv2d(
      (conv): Conv2d(32, 64, kernel_size=(3, 3), stride=(1, 1), padding=(1, 1), bias=False)
      (bn): BatchNorm2d(64, eps=0.001, momentum=0.1, affine=True, track_running_stats=True)
    )
  )
  (branch4): Sequential(
    (0): MaxPool2d(kernel_size=3, stride=1, padding=1, dilation=1, ceil_mode=True)
    (1): BasicConv2d(
      (conv): Conv2d(512, 64, kernel_size=(1, 1), stride=(1, 1), bias=False)
      (bn): BatchNorm2d(64, eps=0.001, momentum=0.1, affine=True, track_running_stats=True)
    )
  )
), Inception(
  (branch1): BasicConv2d(
    (conv): Conv2d(528, 256, kernel_size=(1, 1), stride=(1, 1), bias=False)
    (bn): BatchNorm2d(256, eps=0.001, momentum=0.1, affine=True, track_running_stats=True)
  )
  (branch2): Sequential(
    (0): BasicConv2d(
      (conv): Conv2d(528, 160, kernel_size=(1, 1), stride=(1, 1), bias=False)
      (bn): BatchNorm2d(160, eps=0.001, momentum=0.1, affine=True, track_running_stats=True)
    )
    (1): BasicConv2d(
      (conv): Conv2d(160, 320, kernel_size=(3, 3), stride=(1, 1), padding=(1, 1), bias=False)
      (bn): BatchNorm2d(320, eps=0.001, momentum=0.1, affine=True, track_running_stats=True)
    )
  )
  (branch3): Sequential(
    (0): BasicConv2d(
      (conv): Conv2d(528, 32, kernel_size=(1, 1), stride=(1, 1), bias=False)
      (bn): BatchNorm2d(32, eps=0.001, momentum=0.1, affine=True, track_running_stats=True)
    )
    (1): BasicConv2d(
      (conv): Conv2d(32, 128, kernel_size=(3, 3), stride=(1, 1), padding=(1, 1), bias=False)
      (bn): BatchNorm2d(128, eps=0.001, momentum=0.1, affine=True, track_running_stats=True)
    )
  )
  (branch4): Sequential(
    (0): MaxPool2d(kernel_size=3, stride=1, padding=1, dilation=1, ceil_mode=True)
    (1): BasicConv2d(
      (conv): Conv2d(528, 128, kernel_size=(1, 1), stride=(1, 1), bias=False)
      (bn): BatchNorm2d(128, eps=0.001, momentum=0.1, affine=True, track_running_stats=True)
    )
  )
), MaxPool2d(kernel_size=2, stride=2, padding=0, dilation=1, ceil_mode=True), Inception(
  (branch1): BasicConv2d(
    (conv): Conv2d(832, 256, kernel_size=(1, 1), stride=(1, 1), bias=False)
    (bn): BatchNorm2d(256, eps=0.001, momentum=0.1, affine=True, track_running_stats=True)
  )
  (branch2): Sequential(
    (0): BasicConv2d(
      (conv): Conv2d(832, 160, kernel_size=(1, 1), stride=(1, 1), bias=False)
      (bn): BatchNorm2d(160, eps=0.001, momentum=0.1, affine=True, track_running_stats=True)
    )
    (1): BasicConv2d(
      (conv): Conv2d(160, 320, kernel_size=(3, 3), stride=(1, 1), padding=(1, 1), bias=False)
      (bn): BatchNorm2d(320, eps=0.001, momentum=0.1, affine=True, track_running_stats=True)
    )
  )
  (branch3): Sequential(
    (0): BasicConv2d(
      (conv): Conv2d(832, 32, kernel_size=(1, 1), stride=(1, 1), bias=False)
      (bn): BatchNorm2d(32, eps=0.001, momentum=0.1, affine=True, track_running_stats=True)
    )
    (1): BasicConv2d(
      (conv): Conv2d(32, 128, kernel_size=(3, 3), stride=(1, 1), padding=(1, 1), bias=False)
      (bn): BatchNorm2d(128, eps=0.001, momentum=0.1, affine=True, track_running_stats=True)
    )
  )
  (branch4): Sequential(
    (0): MaxPool2d(kernel_size=3, stride=1, padding=1, dilation=1, ceil_mode=True)
    (1): BasicConv2d(
      (conv): Conv2d(832, 128, kernel_size=(1, 1), stride=(1, 1), bias=False)
      (bn): BatchNorm2d(128, eps=0.001, momentum=0.1, affine=True, track_running_stats=True)
    )
  )
), Inception(
  (branch1): BasicConv2d(
    (conv): Conv2d(832, 384, kernel_size=(1, 1), stride=(1, 1), bias=False)
    (bn): BatchNorm2d(384, eps=0.001, momentum=0.1, affine=True, track_running_stats=True)
  )
  (branch2): Sequential(
    (0): BasicConv2d(
      (conv): Conv2d(832, 192, kernel_size=(1, 1), stride=(1, 1), bias=False)
      (bn): BatchNorm2d(192, eps=0.001, momentum=0.1, affine=True, track_running_stats=True)
    )
    (1): BasicConv2d(
      (conv): Conv2d(192, 384, kernel_size=(3, 3), stride=(1, 1), padding=(1, 1), bias=False)
      (bn): BatchNorm2d(384, eps=0.001, momentum=0.1, affine=True, track_running_stats=True)
    )
  )
  (branch3): Sequential(
    (0): BasicConv2d(
      (conv): Conv2d(832, 48, kernel_size=(1, 1), stride=(1, 1), bias=False)
      (bn): BatchNorm2d(48, eps=0.001, momentum=0.1, affine=True, track_running_stats=True)
    )
    (1): BasicConv2d(
      (conv): Conv2d(48, 128, kernel_size=(3, 3), stride=(1, 1), padding=(1, 1), bias=False)
      (bn): BatchNorm2d(128, eps=0.001, momentum=0.1, affine=True, track_running_stats=True)
    )
  )
  (branch4): Sequential(
    (0): MaxPool2d(kernel_size=3, stride=1, padding=1, dilation=1, ceil_mode=True)
    (1): BasicConv2d(
      (conv): Conv2d(832, 128, kernel_size=(1, 1), stride=(1, 1), bias=False)
      (bn): BatchNorm2d(128, eps=0.001, momentum=0.1, affine=True, track_running_stats=True)
    )
  )
), AdaptiveAvgPool2d(output_size=(1, 1)), Dropout(p=0.2, inplace=False), Linear(in_features=1024, out_features=1000, bias=True), ReLU(inplace=True), Dropout(p=0.5, inplace=False), Linear(in_features=1000, out_features=2, bias=True)]


##########################################################################################3


convnext_base
[Sequential(
  (0): Conv2dNormActivation(
    (0): Conv2d(3, 128, kernel_size=(4, 4), stride=(4, 4))
    (1): LayerNorm2d((128,), eps=1e-06, elementwise_affine=True)
  )
  (1): Sequential(
    (0): CNBlock(
      (block): Sequential(
        (0): Conv2d(128, 128, kernel_size=(7, 7), stride=(1, 1), padding=(3, 3), groups=128)
        (1): Permute()
        (2): LayerNorm((128,), eps=1e-06, elementwise_affine=True)
        (3): Linear(in_features=128, out_features=512, bias=True)
        (4): GELU(approximate='none')
        (5): Linear(in_features=512, out_features=128, bias=True)
        (6): Permute()
      )
      (stochastic_depth): StochasticDepth(p=0.0, mode=row)
    )
    (1): CNBlock(
      (block): Sequential(
        (0): Conv2d(128, 128, kernel_size=(7, 7), stride=(1, 1), padding=(3, 3), groups=128)
        (1): Permute()
        (2): LayerNorm((128,), eps=1e-06, elementwise_affine=True)
        (3): Linear(in_features=128, out_features=512, bias=True)
        (4): GELU(approximate='none')
        (5): Linear(in_features=512, out_features=128, bias=True)
        (6): Permute()
      )
      (stochastic_depth): StochasticDepth(p=0.014285714285714285, mode=row)
    )
    (2): CNBlock(
      (block): Sequential(
        (0): Conv2d(128, 128, kernel_size=(7, 7), stride=(1, 1), padding=(3, 3), groups=128)
        (1): Permute()
        (2): LayerNorm((128,), eps=1e-06, elementwise_affine=True)
        (3): Linear(in_features=128, out_features=512, bias=True)
        (4): GELU(approximate='none')
        (5): Linear(in_features=512, out_features=128, bias=True)
        (6): Permute()
      )
      (stochastic_depth): StochasticDepth(p=0.02857142857142857, mode=row)
    )
  )
  (2): Sequential(
    (0): LayerNorm2d((128,), eps=1e-06, elementwise_affine=True)
    (1): Conv2d(128, 256, kernel_size=(2, 2), stride=(2, 2))
  )
  (3): Sequential(
    (0): CNBlock(
      (block): Sequential(
        (0): Conv2d(256, 256, kernel_size=(7, 7), stride=(1, 1), padding=(3, 3), groups=256)
        (1): Permute()
        (2): LayerNorm((256,), eps=1e-06, elementwise_affine=True)
        (3): Linear(in_features=256, out_features=1024, bias=True)
        (4): GELU(approximate='none')
        (5): Linear(in_features=1024, out_features=256, bias=True)
        (6): Permute()
      )
      (stochastic_depth): StochasticDepth(p=0.04285714285714286, mode=row)
    )
    (1): CNBlock(
      (block): Sequential(
        (0): Conv2d(256, 256, kernel_size=(7, 7), stride=(1, 1), padding=(3, 3), groups=256)
        (1): Permute()
        (2): LayerNorm((256,), eps=1e-06, elementwise_affine=True)
        (3): Linear(in_features=256, out_features=1024, bias=True)
        (4): GELU(approximate='none')
        (5): Linear(in_features=1024, out_features=256, bias=True)
        (6): Permute()
      )
      (stochastic_depth): StochasticDepth(p=0.05714285714285714, mode=row)
    )
    (2): CNBlock(
      (block): Sequential(
        (0): Conv2d(256, 256, kernel_size=(7, 7), stride=(1, 1), padding=(3, 3), groups=256)
        (1): Permute()
        (2): LayerNorm((256,), eps=1e-06, elementwise_affine=True)
        (3): Linear(in_features=256, out_features=1024, bias=True)
        (4): GELU(approximate='none')
        (5): Linear(in_features=1024, out_features=256, bias=True)
        (6): Permute()
      )
      (stochastic_depth): StochasticDepth(p=0.07142857142857142, mode=row)
    )
  )
  (4): Sequential(
    (0): LayerNorm2d((256,), eps=1e-06, elementwise_affine=True)
    (1): Conv2d(256, 512, kernel_size=(2, 2), stride=(2, 2))
  )
  (5): Sequential(
    (0): CNBlock(
      (block): Sequential(
        (0): Conv2d(512, 512, kernel_size=(7, 7), stride=(1, 1), padding=(3, 3), groups=512)
        (1): Permute()
        (2): LayerNorm((512,), eps=1e-06, elementwise_affine=True)
        (3): Linear(in_features=512, out_features=2048, bias=True)
        (4): GELU(approximate='none')
        (5): Linear(in_features=2048, out_features=512, bias=True)
        (6): Permute()
      )
      (stochastic_depth): StochasticDepth(p=0.08571428571428572, mode=row)
    )
    (1): CNBlock(
      (block): Sequential(
        (0): Conv2d(512, 512, kernel_size=(7, 7), stride=(1, 1), padding=(3, 3), groups=512)
        (1): Permute()
        (2): LayerNorm((512,), eps=1e-06, elementwise_affine=True)
        (3): Linear(in_features=512, out_features=2048, bias=True)
        (4): GELU(approximate='none')
        (5): Linear(in_features=2048, out_features=512, bias=True)
        (6): Permute()
      )
      (stochastic_depth): StochasticDepth(p=0.1, mode=row)
    )
    (2): CNBlock(
      (block): Sequential(
        (0): Conv2d(512, 512, kernel_size=(7, 7), stride=(1, 1), padding=(3, 3), groups=512)
        (1): Permute()
        (2): LayerNorm((512,), eps=1e-06, elementwise_affine=True)
        (3): Linear(in_features=512, out_features=2048, bias=True)
        (4): GELU(approximate='none')
        (5): Linear(in_features=2048, out_features=512, bias=True)
        (6): Permute()
      )
      (stochastic_depth): StochasticDepth(p=0.11428571428571428, mode=row)
    )
    (3): CNBlock(
      (block): Sequential(
        (0): Conv2d(512, 512, kernel_size=(7, 7), stride=(1, 1), padding=(3, 3), groups=512)
        (1): Permute()
        (2): LayerNorm((512,), eps=1e-06, elementwise_affine=True)
        (3): Linear(in_features=512, out_features=2048, bias=True)
        (4): GELU(approximate='none')
        (5): Linear(in_features=2048, out_features=512, bias=True)
        (6): Permute()
      )
      (stochastic_depth): StochasticDepth(p=0.12857142857142856, mode=row)
    )
    (4): CNBlock(
      (block): Sequential(
        (0): Conv2d(512, 512, kernel_size=(7, 7), stride=(1, 1), padding=(3, 3), groups=512)
        (1): Permute()
        (2): LayerNorm((512,), eps=1e-06, elementwise_affine=True)
        (3): Linear(in_features=512, out_features=2048, bias=True)
        (4): GELU(approximate='none')
        (5): Linear(in_features=2048, out_features=512, bias=True)
        (6): Permute()
      )
      (stochastic_depth): StochasticDepth(p=0.14285714285714285, mode=row)
    )
    (5): CNBlock(
      (block): Sequential(
        (0): Conv2d(512, 512, kernel_size=(7, 7), stride=(1, 1), padding=(3, 3), groups=512)
        (1): Permute()
        (2): LayerNorm((512,), eps=1e-06, elementwise_affine=True)
        (3): Linear(in_features=512, out_features=2048, bias=True)
        (4): GELU(approximate='none')
        (5): Linear(in_features=2048, out_features=512, bias=True)
        (6): Permute()
      )
      (stochastic_depth): StochasticDepth(p=0.15714285714285714, mode=row)
    )
    (6): CNBlock(
      (block): Sequential(
        (0): Conv2d(512, 512, kernel_size=(7, 7), stride=(1, 1), padding=(3, 3), groups=512)
        (1): Permute()
        (2): LayerNorm((512,), eps=1e-06, elementwise_affine=True)
        (3): Linear(in_features=512, out_features=2048, bias=True)
        (4): GELU(approximate='none')
        (5): Linear(in_features=2048, out_features=512, bias=True)
        (6): Permute()
      )
      (stochastic_depth): StochasticDepth(p=0.17142857142857143, mode=row)
    )
    (7): CNBlock(
      (block): Sequential(
        (0): Conv2d(512, 512, kernel_size=(7, 7), stride=(1, 1), padding=(3, 3), groups=512)
        (1): Permute()
        (2): LayerNorm((512,), eps=1e-06, elementwise_affine=True)
        (3): Linear(in_features=512, out_features=2048, bias=True)
        (4): GELU(approximate='none')
        (5): Linear(in_features=2048, out_features=512, bias=True)
        (6): Permute()
      )
      (stochastic_depth): StochasticDepth(p=0.18571428571428572, mode=row)
    )
    (8): CNBlock(
      (block): Sequential(
        (0): Conv2d(512, 512, kernel_size=(7, 7), stride=(1, 1), padding=(3, 3), groups=512)
        (1): Permute()
        (2): LayerNorm((512,), eps=1e-06, elementwise_affine=True)
        (3): Linear(in_features=512, out_features=2048, bias=True)
        (4): GELU(approximate='none')
        (5): Linear(in_features=2048, out_features=512, bias=True)
        (6): Permute()
      )
      (stochastic_depth): StochasticDepth(p=0.2, mode=row)
    )
    (9): CNBlock(
      (block): Sequential(
        (0): Conv2d(512, 512, kernel_size=(7, 7), stride=(1, 1), padding=(3, 3), groups=512)
        (1): Permute()
        (2): LayerNorm((512,), eps=1e-06, elementwise_affine=True)
        (3): Linear(in_features=512, out_features=2048, bias=True)
        (4): GELU(approximate='none')
        (5): Linear(in_features=2048, out_features=512, bias=True)
        (6): Permute()
      )
      (stochastic_depth): StochasticDepth(p=0.21428571428571427, mode=row)
    )
    (10): CNBlock(
      (block): Sequential(
        (0): Conv2d(512, 512, kernel_size=(7, 7), stride=(1, 1), padding=(3, 3), groups=512)
        (1): Permute()
        (2): LayerNorm((512,), eps=1e-06, elementwise_affine=True)
        (3): Linear(in_features=512, out_features=2048, bias=True)
        (4): GELU(approximate='none')
        (5): Linear(in_features=2048, out_features=512, bias=True)
        (6): Permute()
      )
      (stochastic_depth): StochasticDepth(p=0.22857142857142856, mode=row)
    )
    (11): CNBlock(
      (block): Sequential(
        (0): Conv2d(512, 512, kernel_size=(7, 7), stride=(1, 1), padding=(3, 3), groups=512)
        (1): Permute()
        (2): LayerNorm((512,), eps=1e-06, elementwise_affine=True)
        (3): Linear(in_features=512, out_features=2048, bias=True)
        (4): GELU(approximate='none')
        (5): Linear(in_features=2048, out_features=512, bias=True)
        (6): Permute()
      )
      (stochastic_depth): StochasticDepth(p=0.24285714285714285, mode=row)
    )
    (12): CNBlock(
      (block): Sequential(
        (0): Conv2d(512, 512, kernel_size=(7, 7), stride=(1, 1), padding=(3, 3), groups=512)
        (1): Permute()
        (2): LayerNorm((512,), eps=1e-06, elementwise_affine=True)
        (3): Linear(in_features=512, out_features=2048, bias=True)
        (4): GELU(approximate='none')
        (5): Linear(in_features=2048, out_features=512, bias=True)
        (6): Permute()
      )
      (stochastic_depth): StochasticDepth(p=0.2571428571428571, mode=row)
    )
    (13): CNBlock(
      (block): Sequential(
        (0): Conv2d(512, 512, kernel_size=(7, 7), stride=(1, 1), padding=(3, 3), groups=512)
        (1): Permute()
        (2): LayerNorm((512,), eps=1e-06, elementwise_affine=True)
        (3): Linear(in_features=512, out_features=2048, bias=True)
        (4): GELU(approximate='none')
        (5): Linear(in_features=2048, out_features=512, bias=True)
        (6): Permute()
      )
      (stochastic_depth): StochasticDepth(p=0.2714285714285714, mode=row)
    )
    (14): CNBlock(
      (block): Sequential(
        (0): Conv2d(512, 512, kernel_size=(7, 7), stride=(1, 1), padding=(3, 3), groups=512)
        (1): Permute()
        (2): LayerNorm((512,), eps=1e-06, elementwise_affine=True)
        (3): Linear(in_features=512, out_features=2048, bias=True)
        (4): GELU(approximate='none')
        (5): Linear(in_features=2048, out_features=512, bias=True)
        (6): Permute()
      )
      (stochastic_depth): StochasticDepth(p=0.2857142857142857, mode=row)
    )
    (15): CNBlock(
      (block): Sequential(
        (0): Conv2d(512, 512, kernel_size=(7, 7), stride=(1, 1), padding=(3, 3), groups=512)
        (1): Permute()
        (2): LayerNorm((512,), eps=1e-06, elementwise_affine=True)
        (3): Linear(in_features=512, out_features=2048, bias=True)
        (4): GELU(approximate='none')
        (5): Linear(in_features=2048, out_features=512, bias=True)
        (6): Permute()
      )
      (stochastic_depth): StochasticDepth(p=0.3, mode=row)
    )
    (16): CNBlock(
      (block): Sequential(
        (0): Conv2d(512, 512, kernel_size=(7, 7), stride=(1, 1), padding=(3, 3), groups=512)
        (1): Permute()
        (2): LayerNorm((512,), eps=1e-06, elementwise_affine=True)
        (3): Linear(in_features=512, out_features=2048, bias=True)
        (4): GELU(approximate='none')
        (5): Linear(in_features=2048, out_features=512, bias=True)
        (6): Permute()
      )
      (stochastic_depth): StochasticDepth(p=0.3142857142857143, mode=row)
    )
    (17): CNBlock(
      (block): Sequential(
        (0): Conv2d(512, 512, kernel_size=(7, 7), stride=(1, 1), padding=(3, 3), groups=512)
        (1): Permute()
        (2): LayerNorm((512,), eps=1e-06, elementwise_affine=True)
        (3): Linear(in_features=512, out_features=2048, bias=True)
        (4): GELU(approximate='none')
        (5): Linear(in_features=2048, out_features=512, bias=True)
        (6): Permute()
      )
      (stochastic_depth): StochasticDepth(p=0.32857142857142857, mode=row)
    )
    (18): CNBlock(
      (block): Sequential(
        (0): Conv2d(512, 512, kernel_size=(7, 7), stride=(1, 1), padding=(3, 3), groups=512)
        (1): Permute()
        (2): LayerNorm((512,), eps=1e-06, elementwise_affine=True)
        (3): Linear(in_features=512, out_features=2048, bias=True)
        (4): GELU(approximate='none')
        (5): Linear(in_features=2048, out_features=512, bias=True)
        (6): Permute()
      )
      (stochastic_depth): StochasticDepth(p=0.34285714285714286, mode=row)
    )
    (19): CNBlock(
      (block): Sequential(
        (0): Conv2d(512, 512, kernel_size=(7, 7), stride=(1, 1), padding=(3, 3), groups=512)
        (1): Permute()
        (2): LayerNorm((512,), eps=1e-06, elementwise_affine=True)
        (3): Linear(in_features=512, out_features=2048, bias=True)
        (4): GELU(approximate='none')
        (5): Linear(in_features=2048, out_features=512, bias=True)
        (6): Permute()
      )
      (stochastic_depth): StochasticDepth(p=0.35714285714285715, mode=row)
    )
    (20): CNBlock(
      (block): Sequential(
        (0): Conv2d(512, 512, kernel_size=(7, 7), stride=(1, 1), padding=(3, 3), groups=512)
        (1): Permute()
        (2): LayerNorm((512,), eps=1e-06, elementwise_affine=True)
        (3): Linear(in_features=512, out_features=2048, bias=True)
        (4): GELU(approximate='none')
        (5): Linear(in_features=2048, out_features=512, bias=True)
        (6): Permute()
      )
      (stochastic_depth): StochasticDepth(p=0.37142857142857144, mode=row)
    )
    (21): CNBlock(
      (block): Sequential(
        (0): Conv2d(512, 512, kernel_size=(7, 7), stride=(1, 1), padding=(3, 3), groups=512)
        (1): Permute()
        (2): LayerNorm((512,), eps=1e-06, elementwise_affine=True)
        (3): Linear(in_features=512, out_features=2048, bias=True)
        (4): GELU(approximate='none')
        (5): Linear(in_features=2048, out_features=512, bias=True)
        (6): Permute()
      )
      (stochastic_depth): StochasticDepth(p=0.38571428571428573, mode=row)
    )
    (22): CNBlock(
      (block): Sequential(
        (0): Conv2d(512, 512, kernel_size=(7, 7), stride=(1, 1), padding=(3, 3), groups=512)
        (1): Permute()
        (2): LayerNorm((512,), eps=1e-06, elementwise_affine=True)
        (3): Linear(in_features=512, out_features=2048, bias=True)
        (4): GELU(approximate='none')
        (5): Linear(in_features=2048, out_features=512, bias=True)
        (6): Permute()
      )
      (stochastic_depth): StochasticDepth(p=0.4, mode=row)
    )
    (23): CNBlock(
      (block): Sequential(
        (0): Conv2d(512, 512, kernel_size=(7, 7), stride=(1, 1), padding=(3, 3), groups=512)
        (1): Permute()
        (2): LayerNorm((512,), eps=1e-06, elementwise_affine=True)
        (3): Linear(in_features=512, out_features=2048, bias=True)
        (4): GELU(approximate='none')
        (5): Linear(in_features=2048, out_features=512, bias=True)
        (6): Permute()
      )
      (stochastic_depth): StochasticDepth(p=0.4142857142857143, mode=row)
    )
    (24): CNBlock(
      (block): Sequential(
        (0): Conv2d(512, 512, kernel_size=(7, 7), stride=(1, 1), padding=(3, 3), groups=512)
        (1): Permute()
        (2): LayerNorm((512,), eps=1e-06, elementwise_affine=True)
        (3): Linear(in_features=512, out_features=2048, bias=True)
        (4): GELU(approximate='none')
        (5): Linear(in_features=2048, out_features=512, bias=True)
        (6): Permute()
      )
      (stochastic_depth): StochasticDepth(p=0.42857142857142855, mode=row)
    )
    (25): CNBlock(
      (block): Sequential(
        (0): Conv2d(512, 512, kernel_size=(7, 7), stride=(1, 1), padding=(3, 3), groups=512)
        (1): Permute()
        (2): LayerNorm((512,), eps=1e-06, elementwise_affine=True)
        (3): Linear(in_features=512, out_features=2048, bias=True)
        (4): GELU(approximate='none')
        (5): Linear(in_features=2048, out_features=512, bias=True)
        (6): Permute()
      )
      (stochastic_depth): StochasticDepth(p=0.44285714285714284, mode=row)
    )
    (26): CNBlock(
      (block): Sequential(
        (0): Conv2d(512, 512, kernel_size=(7, 7), stride=(1, 1), padding=(3, 3), groups=512)
        (1): Permute()
        (2): LayerNorm((512,), eps=1e-06, elementwise_affine=True)
        (3): Linear(in_features=512, out_features=2048, bias=True)
        (4): GELU(approximate='none')
        (5): Linear(in_features=2048, out_features=512, bias=True)
        (6): Permute()
      )
      (stochastic_depth): StochasticDepth(p=0.45714285714285713, mode=row)
    )
  )
  (6): Sequential(
    (0): LayerNorm2d((512,), eps=1e-06, elementwise_affine=True)
    (1): Conv2d(512, 1024, kernel_size=(2, 2), stride=(2, 2))
  )
  (7): Sequential(
    (0): CNBlock(
      (block): Sequential(
        (0): Conv2d(1024, 1024, kernel_size=(7, 7), stride=(1, 1), padding=(3, 3), groups=1024)
        (1): Permute()
        (2): LayerNorm((1024,), eps=1e-06, elementwise_affine=True)
        (3): Linear(in_features=1024, out_features=4096, bias=True)
        (4): GELU(approximate='none')
        (5): Linear(in_features=4096, out_features=1024, bias=True)
        (6): Permute()
      )
      (stochastic_depth): StochasticDepth(p=0.4714285714285714, mode=row)
    )
    (1): CNBlock(
      (block): Sequential(
        (0): Conv2d(1024, 1024, kernel_size=(7, 7), stride=(1, 1), padding=(3, 3), groups=1024)
        (1): Permute()
        (2): LayerNorm((1024,), eps=1e-06, elementwise_affine=True)
        (3): Linear(in_features=1024, out_features=4096, bias=True)
        (4): GELU(approximate='none')
        (5): Linear(in_features=4096, out_features=1024, bias=True)
        (6): Permute()
      )
      (stochastic_depth): StochasticDepth(p=0.4857142857142857, mode=row)
    )
    (2): CNBlock(
      (block): Sequential(
        (0): Conv2d(1024, 1024, kernel_size=(7, 7), stride=(1, 1), padding=(3, 3), groups=1024)
        (1): Permute()
        (2): LayerNorm((1024,), eps=1e-06, elementwise_affine=True)
        (3): Linear(in_features=1024, out_features=4096, bias=True)
        (4): GELU(approximate='none')
        (5): Linear(in_features=4096, out_features=1024, bias=True)
        (6): Permute()
      )
      (stochastic_depth): StochasticDepth(p=0.5, mode=row)
    )
  )
), AdaptiveAvgPool2d(output_size=1), Sequential(
  (0): LayerNorm2d((1024,), eps=1e-06, elementwise_affine=True)
  (1): Flatten(start_dim=1, end_dim=-1)
  (2): Linear(in_features=1024, out_features=1000, bias=True)
), ReLU(inplace=True), Dropout(p=0.5, inplace=False), Linear(in_features=1000, out_features=2, bias=True)]


##########################################################################################3


convnext_tiny
[Sequential(
  (0): Conv2dNormActivation(
    (0): Conv2d(3, 96, kernel_size=(4, 4), stride=(4, 4))
    (1): LayerNorm2d((96,), eps=1e-06, elementwise_affine=True)
  )
  (1): Sequential(
    (0): CNBlock(
      (block): Sequential(
        (0): Conv2d(96, 96, kernel_size=(7, 7), stride=(1, 1), padding=(3, 3), groups=96)
        (1): Permute()
        (2): LayerNorm((96,), eps=1e-06, elementwise_affine=True)
        (3): Linear(in_features=96, out_features=384, bias=True)
        (4): GELU(approximate='none')
        (5): Linear(in_features=384, out_features=96, bias=True)
        (6): Permute()
      )
      (stochastic_depth): StochasticDepth(p=0.0, mode=row)
    )
    (1): CNBlock(
      (block): Sequential(
        (0): Conv2d(96, 96, kernel_size=(7, 7), stride=(1, 1), padding=(3, 3), groups=96)
        (1): Permute()
        (2): LayerNorm((96,), eps=1e-06, elementwise_affine=True)
        (3): Linear(in_features=96, out_features=384, bias=True)
        (4): GELU(approximate='none')
        (5): Linear(in_features=384, out_features=96, bias=True)
        (6): Permute()
      )
      (stochastic_depth): StochasticDepth(p=0.0058823529411764705, mode=row)
    )
    (2): CNBlock(
      (block): Sequential(
        (0): Conv2d(96, 96, kernel_size=(7, 7), stride=(1, 1), padding=(3, 3), groups=96)
        (1): Permute()
        (2): LayerNorm((96,), eps=1e-06, elementwise_affine=True)
        (3): Linear(in_features=96, out_features=384, bias=True)
        (4): GELU(approximate='none')
        (5): Linear(in_features=384, out_features=96, bias=True)
        (6): Permute()
      )
      (stochastic_depth): StochasticDepth(p=0.011764705882352941, mode=row)
    )
  )
  (2): Sequential(
    (0): LayerNorm2d((96,), eps=1e-06, elementwise_affine=True)
    (1): Conv2d(96, 192, kernel_size=(2, 2), stride=(2, 2))
  )
  (3): Sequential(
    (0): CNBlock(
      (block): Sequential(
        (0): Conv2d(192, 192, kernel_size=(7, 7), stride=(1, 1), padding=(3, 3), groups=192)
        (1): Permute()
        (2): LayerNorm((192,), eps=1e-06, elementwise_affine=True)
        (3): Linear(in_features=192, out_features=768, bias=True)
        (4): GELU(approximate='none')
        (5): Linear(in_features=768, out_features=192, bias=True)
        (6): Permute()
      )
      (stochastic_depth): StochasticDepth(p=0.017647058823529415, mode=row)
    )
    (1): CNBlock(
      (block): Sequential(
        (0): Conv2d(192, 192, kernel_size=(7, 7), stride=(1, 1), padding=(3, 3), groups=192)
        (1): Permute()
        (2): LayerNorm((192,), eps=1e-06, elementwise_affine=True)
        (3): Linear(in_features=192, out_features=768, bias=True)
        (4): GELU(approximate='none')
        (5): Linear(in_features=768, out_features=192, bias=True)
        (6): Permute()
      )
      (stochastic_depth): StochasticDepth(p=0.023529411764705882, mode=row)
    )
    (2): CNBlock(
      (block): Sequential(
        (0): Conv2d(192, 192, kernel_size=(7, 7), stride=(1, 1), padding=(3, 3), groups=192)
        (1): Permute()
        (2): LayerNorm((192,), eps=1e-06, elementwise_affine=True)
        (3): Linear(in_features=192, out_features=768, bias=True)
        (4): GELU(approximate='none')
        (5): Linear(in_features=768, out_features=192, bias=True)
        (6): Permute()
      )
      (stochastic_depth): StochasticDepth(p=0.029411764705882353, mode=row)
    )
  )
  (4): Sequential(
    (0): LayerNorm2d((192,), eps=1e-06, elementwise_affine=True)
    (1): Conv2d(192, 384, kernel_size=(2, 2), stride=(2, 2))
  )
  (5): Sequential(
    (0): CNBlock(
      (block): Sequential(
        (0): Conv2d(384, 384, kernel_size=(7, 7), stride=(1, 1), padding=(3, 3), groups=384)
        (1): Permute()
        (2): LayerNorm((384,), eps=1e-06, elementwise_affine=True)
        (3): Linear(in_features=384, out_features=1536, bias=True)
        (4): GELU(approximate='none')
        (5): Linear(in_features=1536, out_features=384, bias=True)
        (6): Permute()
      )
      (stochastic_depth): StochasticDepth(p=0.03529411764705883, mode=row)
    )
    (1): CNBlock(
      (block): Sequential(
        (0): Conv2d(384, 384, kernel_size=(7, 7), stride=(1, 1), padding=(3, 3), groups=384)
        (1): Permute()
        (2): LayerNorm((384,), eps=1e-06, elementwise_affine=True)
        (3): Linear(in_features=384, out_features=1536, bias=True)
        (4): GELU(approximate='none')
        (5): Linear(in_features=1536, out_features=384, bias=True)
        (6): Permute()
      )
      (stochastic_depth): StochasticDepth(p=0.0411764705882353, mode=row)
    )
    (2): CNBlock(
      (block): Sequential(
        (0): Conv2d(384, 384, kernel_size=(7, 7), stride=(1, 1), padding=(3, 3), groups=384)
        (1): Permute()
        (2): LayerNorm((384,), eps=1e-06, elementwise_affine=True)
        (3): Linear(in_features=384, out_features=1536, bias=True)
        (4): GELU(approximate='none')
        (5): Linear(in_features=1536, out_features=384, bias=True)
        (6): Permute()
      )
      (stochastic_depth): StochasticDepth(p=0.047058823529411764, mode=row)
    )
    (3): CNBlock(
      (block): Sequential(
        (0): Conv2d(384, 384, kernel_size=(7, 7), stride=(1, 1), padding=(3, 3), groups=384)
        (1): Permute()
        (2): LayerNorm((384,), eps=1e-06, elementwise_affine=True)
        (3): Linear(in_features=384, out_features=1536, bias=True)
        (4): GELU(approximate='none')
        (5): Linear(in_features=1536, out_features=384, bias=True)
        (6): Permute()
      )
      (stochastic_depth): StochasticDepth(p=0.052941176470588235, mode=row)
    )
    (4): CNBlock(
      (block): Sequential(
        (0): Conv2d(384, 384, kernel_size=(7, 7), stride=(1, 1), padding=(3, 3), groups=384)
        (1): Permute()
        (2): LayerNorm((384,), eps=1e-06, elementwise_affine=True)
        (3): Linear(in_features=384, out_features=1536, bias=True)
        (4): GELU(approximate='none')
        (5): Linear(in_features=1536, out_features=384, bias=True)
        (6): Permute()
      )
      (stochastic_depth): StochasticDepth(p=0.058823529411764705, mode=row)
    )
    (5): CNBlock(
      (block): Sequential(
        (0): Conv2d(384, 384, kernel_size=(7, 7), stride=(1, 1), padding=(3, 3), groups=384)
        (1): Permute()
        (2): LayerNorm((384,), eps=1e-06, elementwise_affine=True)
        (3): Linear(in_features=384, out_features=1536, bias=True)
        (4): GELU(approximate='none')
        (5): Linear(in_features=1536, out_features=384, bias=True)
        (6): Permute()
      )
      (stochastic_depth): StochasticDepth(p=0.06470588235294118, mode=row)
    )
    (6): CNBlock(
      (block): Sequential(
        (0): Conv2d(384, 384, kernel_size=(7, 7), stride=(1, 1), padding=(3, 3), groups=384)
        (1): Permute()
        (2): LayerNorm((384,), eps=1e-06, elementwise_affine=True)
        (3): Linear(in_features=384, out_features=1536, bias=True)
        (4): GELU(approximate='none')
        (5): Linear(in_features=1536, out_features=384, bias=True)
        (6): Permute()
      )
      (stochastic_depth): StochasticDepth(p=0.07058823529411766, mode=row)
    )
    (7): CNBlock(
      (block): Sequential(
        (0): Conv2d(384, 384, kernel_size=(7, 7), stride=(1, 1), padding=(3, 3), groups=384)
        (1): Permute()
        (2): LayerNorm((384,), eps=1e-06, elementwise_affine=True)
        (3): Linear(in_features=384, out_features=1536, bias=True)
        (4): GELU(approximate='none')
        (5): Linear(in_features=1536, out_features=384, bias=True)
        (6): Permute()
      )
      (stochastic_depth): StochasticDepth(p=0.07647058823529412, mode=row)
    )
    (8): CNBlock(
      (block): Sequential(
        (0): Conv2d(384, 384, kernel_size=(7, 7), stride=(1, 1), padding=(3, 3), groups=384)
        (1): Permute()
        (2): LayerNorm((384,), eps=1e-06, elementwise_affine=True)
        (3): Linear(in_features=384, out_features=1536, bias=True)
        (4): GELU(approximate='none')
        (5): Linear(in_features=1536, out_features=384, bias=True)
        (6): Permute()
      )
      (stochastic_depth): StochasticDepth(p=0.0823529411764706, mode=row)
    )
  )
  (6): Sequential(
    (0): LayerNorm2d((384,), eps=1e-06, elementwise_affine=True)
    (1): Conv2d(384, 768, kernel_size=(2, 2), stride=(2, 2))
  )
  (7): Sequential(
    (0): CNBlock(
      (block): Sequential(
        (0): Conv2d(768, 768, kernel_size=(7, 7), stride=(1, 1), padding=(3, 3), groups=768)
        (1): Permute()
        (2): LayerNorm((768,), eps=1e-06, elementwise_affine=True)
        (3): Linear(in_features=768, out_features=3072, bias=True)
        (4): GELU(approximate='none')
        (5): Linear(in_features=3072, out_features=768, bias=True)
        (6): Permute()
      )
      (stochastic_depth): StochasticDepth(p=0.08823529411764706, mode=row)
    )
    (1): CNBlock(
      (block): Sequential(
        (0): Conv2d(768, 768, kernel_size=(7, 7), stride=(1, 1), padding=(3, 3), groups=768)
        (1): Permute()
        (2): LayerNorm((768,), eps=1e-06, elementwise_affine=True)
        (3): Linear(in_features=768, out_features=3072, bias=True)
        (4): GELU(approximate='none')
        (5): Linear(in_features=3072, out_features=768, bias=True)
        (6): Permute()
      )
      (stochastic_depth): StochasticDepth(p=0.09411764705882353, mode=row)
    )
    (2): CNBlock(
      (block): Sequential(
        (0): Conv2d(768, 768, kernel_size=(7, 7), stride=(1, 1), padding=(3, 3), groups=768)
        (1): Permute()
        (2): LayerNorm((768,), eps=1e-06, elementwise_affine=True)
        (3): Linear(in_features=768, out_features=3072, bias=True)
        (4): GELU(approximate='none')
        (5): Linear(in_features=3072, out_features=768, bias=True)
        (6): Permute()
      )
      (stochastic_depth): StochasticDepth(p=0.1, mode=row)
    )
  )
), AdaptiveAvgPool2d(output_size=1), Sequential(
  (0): LayerNorm2d((768,), eps=1e-06, elementwise_affine=True)
  (1): Flatten(start_dim=1, end_dim=-1)
  (2): Linear(in_features=768, out_features=1000, bias=True)
), ReLU(inplace=True), Dropout(p=0.5, inplace=False), Linear(in_features=1000, out_features=2, bias=True)]


##########################################################################################3


convnext_small
[Sequential(
  (0): Conv2dNormActivation(
    (0): Conv2d(3, 96, kernel_size=(4, 4), stride=(4, 4))
    (1): LayerNorm2d((96,), eps=1e-06, elementwise_affine=True)
  )
  (1): Sequential(
    (0): CNBlock(
      (block): Sequential(
        (0): Conv2d(96, 96, kernel_size=(7, 7), stride=(1, 1), padding=(3, 3), groups=96)
        (1): Permute()
        (2): LayerNorm((96,), eps=1e-06, elementwise_affine=True)
        (3): Linear(in_features=96, out_features=384, bias=True)
        (4): GELU(approximate='none')
        (5): Linear(in_features=384, out_features=96, bias=True)
        (6): Permute()
      )
      (stochastic_depth): StochasticDepth(p=0.0, mode=row)
    )
    (1): CNBlock(
      (block): Sequential(
        (0): Conv2d(96, 96, kernel_size=(7, 7), stride=(1, 1), padding=(3, 3), groups=96)
        (1): Permute()
        (2): LayerNorm((96,), eps=1e-06, elementwise_affine=True)
        (3): Linear(in_features=96, out_features=384, bias=True)
        (4): GELU(approximate='none')
        (5): Linear(in_features=384, out_features=96, bias=True)
        (6): Permute()
      )
      (stochastic_depth): StochasticDepth(p=0.011428571428571429, mode=row)
    )
    (2): CNBlock(
      (block): Sequential(
        (0): Conv2d(96, 96, kernel_size=(7, 7), stride=(1, 1), padding=(3, 3), groups=96)
        (1): Permute()
        (2): LayerNorm((96,), eps=1e-06, elementwise_affine=True)
        (3): Linear(in_features=96, out_features=384, bias=True)
        (4): GELU(approximate='none')
        (5): Linear(in_features=384, out_features=96, bias=True)
        (6): Permute()
      )
      (stochastic_depth): StochasticDepth(p=0.022857142857142857, mode=row)
    )
  )
  (2): Sequential(
    (0): LayerNorm2d((96,), eps=1e-06, elementwise_affine=True)
    (1): Conv2d(96, 192, kernel_size=(2, 2), stride=(2, 2))
  )
  (3): Sequential(
    (0): CNBlock(
      (block): Sequential(
        (0): Conv2d(192, 192, kernel_size=(7, 7), stride=(1, 1), padding=(3, 3), groups=192)
        (1): Permute()
        (2): LayerNorm((192,), eps=1e-06, elementwise_affine=True)
        (3): Linear(in_features=192, out_features=768, bias=True)
        (4): GELU(approximate='none')
        (5): Linear(in_features=768, out_features=192, bias=True)
        (6): Permute()
      )
      (stochastic_depth): StochasticDepth(p=0.03428571428571429, mode=row)
    )
    (1): CNBlock(
      (block): Sequential(
        (0): Conv2d(192, 192, kernel_size=(7, 7), stride=(1, 1), padding=(3, 3), groups=192)
        (1): Permute()
        (2): LayerNorm((192,), eps=1e-06, elementwise_affine=True)
        (3): Linear(in_features=192, out_features=768, bias=True)
        (4): GELU(approximate='none')
        (5): Linear(in_features=768, out_features=192, bias=True)
        (6): Permute()
      )
      (stochastic_depth): StochasticDepth(p=0.045714285714285714, mode=row)
    )
    (2): CNBlock(
      (block): Sequential(
        (0): Conv2d(192, 192, kernel_size=(7, 7), stride=(1, 1), padding=(3, 3), groups=192)
        (1): Permute()
        (2): LayerNorm((192,), eps=1e-06, elementwise_affine=True)
        (3): Linear(in_features=192, out_features=768, bias=True)
        (4): GELU(approximate='none')
        (5): Linear(in_features=768, out_features=192, bias=True)
        (6): Permute()
      )
      (stochastic_depth): StochasticDepth(p=0.05714285714285714, mode=row)
    )
  )
  (4): Sequential(
    (0): LayerNorm2d((192,), eps=1e-06, elementwise_affine=True)
    (1): Conv2d(192, 384, kernel_size=(2, 2), stride=(2, 2))
  )
  (5): Sequential(
    (0): CNBlock(
      (block): Sequential(
        (0): Conv2d(384, 384, kernel_size=(7, 7), stride=(1, 1), padding=(3, 3), groups=384)
        (1): Permute()
        (2): LayerNorm((384,), eps=1e-06, elementwise_affine=True)
        (3): Linear(in_features=384, out_features=1536, bias=True)
        (4): GELU(approximate='none')
        (5): Linear(in_features=1536, out_features=384, bias=True)
        (6): Permute()
      )
      (stochastic_depth): StochasticDepth(p=0.06857142857142857, mode=row)
    )
    (1): CNBlock(
      (block): Sequential(
        (0): Conv2d(384, 384, kernel_size=(7, 7), stride=(1, 1), padding=(3, 3), groups=384)
        (1): Permute()
        (2): LayerNorm((384,), eps=1e-06, elementwise_affine=True)
        (3): Linear(in_features=384, out_features=1536, bias=True)
        (4): GELU(approximate='none')
        (5): Linear(in_features=1536, out_features=384, bias=True)
        (6): Permute()
      )
      (stochastic_depth): StochasticDepth(p=0.08, mode=row)
    )
    (2): CNBlock(
      (block): Sequential(
        (0): Conv2d(384, 384, kernel_size=(7, 7), stride=(1, 1), padding=(3, 3), groups=384)
        (1): Permute()
        (2): LayerNorm((384,), eps=1e-06, elementwise_affine=True)
        (3): Linear(in_features=384, out_features=1536, bias=True)
        (4): GELU(approximate='none')
        (5): Linear(in_features=1536, out_features=384, bias=True)
        (6): Permute()
      )
      (stochastic_depth): StochasticDepth(p=0.09142857142857143, mode=row)
    )
    (3): CNBlock(
      (block): Sequential(
        (0): Conv2d(384, 384, kernel_size=(7, 7), stride=(1, 1), padding=(3, 3), groups=384)
        (1): Permute()
        (2): LayerNorm((384,), eps=1e-06, elementwise_affine=True)
        (3): Linear(in_features=384, out_features=1536, bias=True)
        (4): GELU(approximate='none')
        (5): Linear(in_features=1536, out_features=384, bias=True)
        (6): Permute()
      )
      (stochastic_depth): StochasticDepth(p=0.10285714285714286, mode=row)
    )
    (4): CNBlock(
      (block): Sequential(
        (0): Conv2d(384, 384, kernel_size=(7, 7), stride=(1, 1), padding=(3, 3), groups=384)
        (1): Permute()
        (2): LayerNorm((384,), eps=1e-06, elementwise_affine=True)
        (3): Linear(in_features=384, out_features=1536, bias=True)
        (4): GELU(approximate='none')
        (5): Linear(in_features=1536, out_features=384, bias=True)
        (6): Permute()
      )
      (stochastic_depth): StochasticDepth(p=0.11428571428571428, mode=row)
    )
    (5): CNBlock(
      (block): Sequential(
        (0): Conv2d(384, 384, kernel_size=(7, 7), stride=(1, 1), padding=(3, 3), groups=384)
        (1): Permute()
        (2): LayerNorm((384,), eps=1e-06, elementwise_affine=True)
        (3): Linear(in_features=384, out_features=1536, bias=True)
        (4): GELU(approximate='none')
        (5): Linear(in_features=1536, out_features=384, bias=True)
        (6): Permute()
      )
      (stochastic_depth): StochasticDepth(p=0.12571428571428572, mode=row)
    )
    (6): CNBlock(
      (block): Sequential(
        (0): Conv2d(384, 384, kernel_size=(7, 7), stride=(1, 1), padding=(3, 3), groups=384)
        (1): Permute()
        (2): LayerNorm((384,), eps=1e-06, elementwise_affine=True)
        (3): Linear(in_features=384, out_features=1536, bias=True)
        (4): GELU(approximate='none')
        (5): Linear(in_features=1536, out_features=384, bias=True)
        (6): Permute()
      )
      (stochastic_depth): StochasticDepth(p=0.13714285714285715, mode=row)
    )
    (7): CNBlock(
      (block): Sequential(
        (0): Conv2d(384, 384, kernel_size=(7, 7), stride=(1, 1), padding=(3, 3), groups=384)
        (1): Permute()
        (2): LayerNorm((384,), eps=1e-06, elementwise_affine=True)
        (3): Linear(in_features=384, out_features=1536, bias=True)
        (4): GELU(approximate='none')
        (5): Linear(in_features=1536, out_features=384, bias=True)
        (6): Permute()
      )
      (stochastic_depth): StochasticDepth(p=0.14857142857142858, mode=row)
    )
    (8): CNBlock(
      (block): Sequential(
        (0): Conv2d(384, 384, kernel_size=(7, 7), stride=(1, 1), padding=(3, 3), groups=384)
        (1): Permute()
        (2): LayerNorm((384,), eps=1e-06, elementwise_affine=True)
        (3): Linear(in_features=384, out_features=1536, bias=True)
        (4): GELU(approximate='none')
        (5): Linear(in_features=1536, out_features=384, bias=True)
        (6): Permute()
      )
      (stochastic_depth): StochasticDepth(p=0.16, mode=row)
    )
    (9): CNBlock(
      (block): Sequential(
        (0): Conv2d(384, 384, kernel_size=(7, 7), stride=(1, 1), padding=(3, 3), groups=384)
        (1): Permute()
        (2): LayerNorm((384,), eps=1e-06, elementwise_affine=True)
        (3): Linear(in_features=384, out_features=1536, bias=True)
        (4): GELU(approximate='none')
        (5): Linear(in_features=1536, out_features=384, bias=True)
        (6): Permute()
      )
      (stochastic_depth): StochasticDepth(p=0.17142857142857143, mode=row)
    )
    (10): CNBlock(
      (block): Sequential(
        (0): Conv2d(384, 384, kernel_size=(7, 7), stride=(1, 1), padding=(3, 3), groups=384)
        (1): Permute()
        (2): LayerNorm((384,), eps=1e-06, elementwise_affine=True)
        (3): Linear(in_features=384, out_features=1536, bias=True)
        (4): GELU(approximate='none')
        (5): Linear(in_features=1536, out_features=384, bias=True)
        (6): Permute()
      )
      (stochastic_depth): StochasticDepth(p=0.18285714285714286, mode=row)
    )
    (11): CNBlock(
      (block): Sequential(
        (0): Conv2d(384, 384, kernel_size=(7, 7), stride=(1, 1), padding=(3, 3), groups=384)
        (1): Permute()
        (2): LayerNorm((384,), eps=1e-06, elementwise_affine=True)
        (3): Linear(in_features=384, out_features=1536, bias=True)
        (4): GELU(approximate='none')
        (5): Linear(in_features=1536, out_features=384, bias=True)
        (6): Permute()
      )
      (stochastic_depth): StochasticDepth(p=0.1942857142857143, mode=row)
    )
    (12): CNBlock(
      (block): Sequential(
        (0): Conv2d(384, 384, kernel_size=(7, 7), stride=(1, 1), padding=(3, 3), groups=384)
        (1): Permute()
        (2): LayerNorm((384,), eps=1e-06, elementwise_affine=True)
        (3): Linear(in_features=384, out_features=1536, bias=True)
        (4): GELU(approximate='none')
        (5): Linear(in_features=1536, out_features=384, bias=True)
        (6): Permute()
      )
      (stochastic_depth): StochasticDepth(p=0.2057142857142857, mode=row)
    )
    (13): CNBlock(
      (block): Sequential(
        (0): Conv2d(384, 384, kernel_size=(7, 7), stride=(1, 1), padding=(3, 3), groups=384)
        (1): Permute()
        (2): LayerNorm((384,), eps=1e-06, elementwise_affine=True)
        (3): Linear(in_features=384, out_features=1536, bias=True)
        (4): GELU(approximate='none')
        (5): Linear(in_features=1536, out_features=384, bias=True)
        (6): Permute()
      )
      (stochastic_depth): StochasticDepth(p=0.21714285714285717, mode=row)
    )
    (14): CNBlock(
      (block): Sequential(
        (0): Conv2d(384, 384, kernel_size=(7, 7), stride=(1, 1), padding=(3, 3), groups=384)
        (1): Permute()
        (2): LayerNorm((384,), eps=1e-06, elementwise_affine=True)
        (3): Linear(in_features=384, out_features=1536, bias=True)
        (4): GELU(approximate='none')
        (5): Linear(in_features=1536, out_features=384, bias=True)
        (6): Permute()
      )
      (stochastic_depth): StochasticDepth(p=0.22857142857142856, mode=row)
    )
    (15): CNBlock(
      (block): Sequential(
        (0): Conv2d(384, 384, kernel_size=(7, 7), stride=(1, 1), padding=(3, 3), groups=384)
        (1): Permute()
        (2): LayerNorm((384,), eps=1e-06, elementwise_affine=True)
        (3): Linear(in_features=384, out_features=1536, bias=True)
        (4): GELU(approximate='none')
        (5): Linear(in_features=1536, out_features=384, bias=True)
        (6): Permute()
      )
      (stochastic_depth): StochasticDepth(p=0.24000000000000002, mode=row)
    )
    (16): CNBlock(
      (block): Sequential(
        (0): Conv2d(384, 384, kernel_size=(7, 7), stride=(1, 1), padding=(3, 3), groups=384)
        (1): Permute()
        (2): LayerNorm((384,), eps=1e-06, elementwise_affine=True)
        (3): Linear(in_features=384, out_features=1536, bias=True)
        (4): GELU(approximate='none')
        (5): Linear(in_features=1536, out_features=384, bias=True)
        (6): Permute()
      )
      (stochastic_depth): StochasticDepth(p=0.25142857142857145, mode=row)
    )
    (17): CNBlock(
      (block): Sequential(
        (0): Conv2d(384, 384, kernel_size=(7, 7), stride=(1, 1), padding=(3, 3), groups=384)
        (1): Permute()
        (2): LayerNorm((384,), eps=1e-06, elementwise_affine=True)
        (3): Linear(in_features=384, out_features=1536, bias=True)
        (4): GELU(approximate='none')
        (5): Linear(in_features=1536, out_features=384, bias=True)
        (6): Permute()
      )
      (stochastic_depth): StochasticDepth(p=0.2628571428571429, mode=row)
    )
    (18): CNBlock(
      (block): Sequential(
        (0): Conv2d(384, 384, kernel_size=(7, 7), stride=(1, 1), padding=(3, 3), groups=384)
        (1): Permute()
        (2): LayerNorm((384,), eps=1e-06, elementwise_affine=True)
        (3): Linear(in_features=384, out_features=1536, bias=True)
        (4): GELU(approximate='none')
        (5): Linear(in_features=1536, out_features=384, bias=True)
        (6): Permute()
      )
      (stochastic_depth): StochasticDepth(p=0.2742857142857143, mode=row)
    )
    (19): CNBlock(
      (block): Sequential(
        (0): Conv2d(384, 384, kernel_size=(7, 7), stride=(1, 1), padding=(3, 3), groups=384)
        (1): Permute()
        (2): LayerNorm((384,), eps=1e-06, elementwise_affine=True)
        (3): Linear(in_features=384, out_features=1536, bias=True)
        (4): GELU(approximate='none')
        (5): Linear(in_features=1536, out_features=384, bias=True)
        (6): Permute()
      )
      (stochastic_depth): StochasticDepth(p=0.2857142857142857, mode=row)
    )
    (20): CNBlock(
      (block): Sequential(
        (0): Conv2d(384, 384, kernel_size=(7, 7), stride=(1, 1), padding=(3, 3), groups=384)
        (1): Permute()
        (2): LayerNorm((384,), eps=1e-06, elementwise_affine=True)
        (3): Linear(in_features=384, out_features=1536, bias=True)
        (4): GELU(approximate='none')
        (5): Linear(in_features=1536, out_features=384, bias=True)
        (6): Permute()
      )
      (stochastic_depth): StochasticDepth(p=0.29714285714285715, mode=row)
    )
    (21): CNBlock(
      (block): Sequential(
        (0): Conv2d(384, 384, kernel_size=(7, 7), stride=(1, 1), padding=(3, 3), groups=384)
        (1): Permute()
        (2): LayerNorm((384,), eps=1e-06, elementwise_affine=True)
        (3): Linear(in_features=384, out_features=1536, bias=True)
        (4): GELU(approximate='none')
        (5): Linear(in_features=1536, out_features=384, bias=True)
        (6): Permute()
      )
      (stochastic_depth): StochasticDepth(p=0.3085714285714286, mode=row)
    )
    (22): CNBlock(
      (block): Sequential(
        (0): Conv2d(384, 384, kernel_size=(7, 7), stride=(1, 1), padding=(3, 3), groups=384)
        (1): Permute()
        (2): LayerNorm((384,), eps=1e-06, elementwise_affine=True)
        (3): Linear(in_features=384, out_features=1536, bias=True)
        (4): GELU(approximate='none')
        (5): Linear(in_features=1536, out_features=384, bias=True)
        (6): Permute()
      )
      (stochastic_depth): StochasticDepth(p=0.32, mode=row)
    )
    (23): CNBlock(
      (block): Sequential(
        (0): Conv2d(384, 384, kernel_size=(7, 7), stride=(1, 1), padding=(3, 3), groups=384)
        (1): Permute()
        (2): LayerNorm((384,), eps=1e-06, elementwise_affine=True)
        (3): Linear(in_features=384, out_features=1536, bias=True)
        (4): GELU(approximate='none')
        (5): Linear(in_features=1536, out_features=384, bias=True)
        (6): Permute()
      )
      (stochastic_depth): StochasticDepth(p=0.33142857142857146, mode=row)
    )
    (24): CNBlock(
      (block): Sequential(
        (0): Conv2d(384, 384, kernel_size=(7, 7), stride=(1, 1), padding=(3, 3), groups=384)
        (1): Permute()
        (2): LayerNorm((384,), eps=1e-06, elementwise_affine=True)
        (3): Linear(in_features=384, out_features=1536, bias=True)
        (4): GELU(approximate='none')
        (5): Linear(in_features=1536, out_features=384, bias=True)
        (6): Permute()
      )
      (stochastic_depth): StochasticDepth(p=0.34285714285714286, mode=row)
    )
    (25): CNBlock(
      (block): Sequential(
        (0): Conv2d(384, 384, kernel_size=(7, 7), stride=(1, 1), padding=(3, 3), groups=384)
        (1): Permute()
        (2): LayerNorm((384,), eps=1e-06, elementwise_affine=True)
        (3): Linear(in_features=384, out_features=1536, bias=True)
        (4): GELU(approximate='none')
        (5): Linear(in_features=1536, out_features=384, bias=True)
        (6): Permute()
      )
      (stochastic_depth): StochasticDepth(p=0.3542857142857143, mode=row)
    )
    (26): CNBlock(
      (block): Sequential(
        (0): Conv2d(384, 384, kernel_size=(7, 7), stride=(1, 1), padding=(3, 3), groups=384)
        (1): Permute()
        (2): LayerNorm((384,), eps=1e-06, elementwise_affine=True)
        (3): Linear(in_features=384, out_features=1536, bias=True)
        (4): GELU(approximate='none')
        (5): Linear(in_features=1536, out_features=384, bias=True)
        (6): Permute()
      )
      (stochastic_depth): StochasticDepth(p=0.3657142857142857, mode=row)
    )
  )
  (6): Sequential(
    (0): LayerNorm2d((384,), eps=1e-06, elementwise_affine=True)
    (1): Conv2d(384, 768, kernel_size=(2, 2), stride=(2, 2))
  )
  (7): Sequential(
    (0): CNBlock(
      (block): Sequential(
        (0): Conv2d(768, 768, kernel_size=(7, 7), stride=(1, 1), padding=(3, 3), groups=768)
        (1): Permute()
        (2): LayerNorm((768,), eps=1e-06, elementwise_affine=True)
        (3): Linear(in_features=768, out_features=3072, bias=True)
        (4): GELU(approximate='none')
        (5): Linear(in_features=3072, out_features=768, bias=True)
        (6): Permute()
      )
      (stochastic_depth): StochasticDepth(p=0.37714285714285717, mode=row)
    )
    (1): CNBlock(
      (block): Sequential(
        (0): Conv2d(768, 768, kernel_size=(7, 7), stride=(1, 1), padding=(3, 3), groups=768)
        (1): Permute()
        (2): LayerNorm((768,), eps=1e-06, elementwise_affine=True)
        (3): Linear(in_features=768, out_features=3072, bias=True)
        (4): GELU(approximate='none')
        (5): Linear(in_features=3072, out_features=768, bias=True)
        (6): Permute()
      )
      (stochastic_depth): StochasticDepth(p=0.3885714285714286, mode=row)
    )
    (2): CNBlock(
      (block): Sequential(
        (0): Conv2d(768, 768, kernel_size=(7, 7), stride=(1, 1), padding=(3, 3), groups=768)
        (1): Permute()
        (2): LayerNorm((768,), eps=1e-06, elementwise_affine=True)
        (3): Linear(in_features=768, out_features=3072, bias=True)
        (4): GELU(approximate='none')
        (5): Linear(in_features=3072, out_features=768, bias=True)
        (6): Permute()
      )
      (stochastic_depth): StochasticDepth(p=0.4, mode=row)
    )
  )
), AdaptiveAvgPool2d(output_size=1), Sequential(
  (0): LayerNorm2d((768,), eps=1e-06, elementwise_affine=True)
  (1): Flatten(start_dim=1, end_dim=-1)
  (2): Linear(in_features=768, out_features=1000, bias=True)
), ReLU(inplace=True), Dropout(p=0.5, inplace=False), Linear(in_features=1000, out_features=2, bias=True)]


##########################################################################################3


convnext_large
[Sequential(
  (0): Conv2dNormActivation(
    (0): Conv2d(3, 192, kernel_size=(4, 4), stride=(4, 4))
    (1): LayerNorm2d((192,), eps=1e-06, elementwise_affine=True)
  )
  (1): Sequential(
    (0): CNBlock(
      (block): Sequential(
        (0): Conv2d(192, 192, kernel_size=(7, 7), stride=(1, 1), padding=(3, 3), groups=192)
        (1): Permute()
        (2): LayerNorm((192,), eps=1e-06, elementwise_affine=True)
        (3): Linear(in_features=192, out_features=768, bias=True)
        (4): GELU(approximate='none')
        (5): Linear(in_features=768, out_features=192, bias=True)
        (6): Permute()
      )
      (stochastic_depth): StochasticDepth(p=0.0, mode=row)
    )
    (1): CNBlock(
      (block): Sequential(
        (0): Conv2d(192, 192, kernel_size=(7, 7), stride=(1, 1), padding=(3, 3), groups=192)
        (1): Permute()
        (2): LayerNorm((192,), eps=1e-06, elementwise_affine=True)
        (3): Linear(in_features=192, out_features=768, bias=True)
        (4): GELU(approximate='none')
        (5): Linear(in_features=768, out_features=192, bias=True)
        (6): Permute()
      )
      (stochastic_depth): StochasticDepth(p=0.014285714285714285, mode=row)
    )
    (2): CNBlock(
      (block): Sequential(
        (0): Conv2d(192, 192, kernel_size=(7, 7), stride=(1, 1), padding=(3, 3), groups=192)
        (1): Permute()
        (2): LayerNorm((192,), eps=1e-06, elementwise_affine=True)
        (3): Linear(in_features=192, out_features=768, bias=True)
        (4): GELU(approximate='none')
        (5): Linear(in_features=768, out_features=192, bias=True)
        (6): Permute()
      )
      (stochastic_depth): StochasticDepth(p=0.02857142857142857, mode=row)
    )
  )
  (2): Sequential(
    (0): LayerNorm2d((192,), eps=1e-06, elementwise_affine=True)
    (1): Conv2d(192, 384, kernel_size=(2, 2), stride=(2, 2))
  )
  (3): Sequential(
    (0): CNBlock(
      (block): Sequential(
        (0): Conv2d(384, 384, kernel_size=(7, 7), stride=(1, 1), padding=(3, 3), groups=384)
        (1): Permute()
        (2): LayerNorm((384,), eps=1e-06, elementwise_affine=True)
        (3): Linear(in_features=384, out_features=1536, bias=True)
        (4): GELU(approximate='none')
        (5): Linear(in_features=1536, out_features=384, bias=True)
        (6): Permute()
      )
      (stochastic_depth): StochasticDepth(p=0.04285714285714286, mode=row)
    )
    (1): CNBlock(
      (block): Sequential(
        (0): Conv2d(384, 384, kernel_size=(7, 7), stride=(1, 1), padding=(3, 3), groups=384)
        (1): Permute()
        (2): LayerNorm((384,), eps=1e-06, elementwise_affine=True)
        (3): Linear(in_features=384, out_features=1536, bias=True)
        (4): GELU(approximate='none')
        (5): Linear(in_features=1536, out_features=384, bias=True)
        (6): Permute()
      )
      (stochastic_depth): StochasticDepth(p=0.05714285714285714, mode=row)
    )
    (2): CNBlock(
      (block): Sequential(
        (0): Conv2d(384, 384, kernel_size=(7, 7), stride=(1, 1), padding=(3, 3), groups=384)
        (1): Permute()
        (2): LayerNorm((384,), eps=1e-06, elementwise_affine=True)
        (3): Linear(in_features=384, out_features=1536, bias=True)
        (4): GELU(approximate='none')
        (5): Linear(in_features=1536, out_features=384, bias=True)
        (6): Permute()
      )
      (stochastic_depth): StochasticDepth(p=0.07142857142857142, mode=row)
    )
  )
  (4): Sequential(
    (0): LayerNorm2d((384,), eps=1e-06, elementwise_affine=True)
    (1): Conv2d(384, 768, kernel_size=(2, 2), stride=(2, 2))
  )
  (5): Sequential(
    (0): CNBlock(
      (block): Sequential(
        (0): Conv2d(768, 768, kernel_size=(7, 7), stride=(1, 1), padding=(3, 3), groups=768)
        (1): Permute()
        (2): LayerNorm((768,), eps=1e-06, elementwise_affine=True)
        (3): Linear(in_features=768, out_features=3072, bias=True)
        (4): GELU(approximate='none')
        (5): Linear(in_features=3072, out_features=768, bias=True)
        (6): Permute()
      )
      (stochastic_depth): StochasticDepth(p=0.08571428571428572, mode=row)
    )
    (1): CNBlock(
      (block): Sequential(
        (0): Conv2d(768, 768, kernel_size=(7, 7), stride=(1, 1), padding=(3, 3), groups=768)
        (1): Permute()
        (2): LayerNorm((768,), eps=1e-06, elementwise_affine=True)
        (3): Linear(in_features=768, out_features=3072, bias=True)
        (4): GELU(approximate='none')
        (5): Linear(in_features=3072, out_features=768, bias=True)
        (6): Permute()
      )
      (stochastic_depth): StochasticDepth(p=0.1, mode=row)
    )
    (2): CNBlock(
      (block): Sequential(
        (0): Conv2d(768, 768, kernel_size=(7, 7), stride=(1, 1), padding=(3, 3), groups=768)
        (1): Permute()
        (2): LayerNorm((768,), eps=1e-06, elementwise_affine=True)
        (3): Linear(in_features=768, out_features=3072, bias=True)
        (4): GELU(approximate='none')
        (5): Linear(in_features=3072, out_features=768, bias=True)
        (6): Permute()
      )
      (stochastic_depth): StochasticDepth(p=0.11428571428571428, mode=row)
    )
    (3): CNBlock(
      (block): Sequential(
        (0): Conv2d(768, 768, kernel_size=(7, 7), stride=(1, 1), padding=(3, 3), groups=768)
        (1): Permute()
        (2): LayerNorm((768,), eps=1e-06, elementwise_affine=True)
        (3): Linear(in_features=768, out_features=3072, bias=True)
        (4): GELU(approximate='none')
        (5): Linear(in_features=3072, out_features=768, bias=True)
        (6): Permute()
      )
      (stochastic_depth): StochasticDepth(p=0.12857142857142856, mode=row)
    )
    (4): CNBlock(
      (block): Sequential(
        (0): Conv2d(768, 768, kernel_size=(7, 7), stride=(1, 1), padding=(3, 3), groups=768)
        (1): Permute()
        (2): LayerNorm((768,), eps=1e-06, elementwise_affine=True)
        (3): Linear(in_features=768, out_features=3072, bias=True)
        (4): GELU(approximate='none')
        (5): Linear(in_features=3072, out_features=768, bias=True)
        (6): Permute()
      )
      (stochastic_depth): StochasticDepth(p=0.14285714285714285, mode=row)
    )
    (5): CNBlock(
      (block): Sequential(
        (0): Conv2d(768, 768, kernel_size=(7, 7), stride=(1, 1), padding=(3, 3), groups=768)
        (1): Permute()
        (2): LayerNorm((768,), eps=1e-06, elementwise_affine=True)
        (3): Linear(in_features=768, out_features=3072, bias=True)
        (4): GELU(approximate='none')
        (5): Linear(in_features=3072, out_features=768, bias=True)
        (6): Permute()
      )
      (stochastic_depth): StochasticDepth(p=0.15714285714285714, mode=row)
    )
    (6): CNBlock(
      (block): Sequential(
        (0): Conv2d(768, 768, kernel_size=(7, 7), stride=(1, 1), padding=(3, 3), groups=768)
        (1): Permute()
        (2): LayerNorm((768,), eps=1e-06, elementwise_affine=True)
        (3): Linear(in_features=768, out_features=3072, bias=True)
        (4): GELU(approximate='none')
        (5): Linear(in_features=3072, out_features=768, bias=True)
        (6): Permute()
      )
      (stochastic_depth): StochasticDepth(p=0.17142857142857143, mode=row)
    )
    (7): CNBlock(
      (block): Sequential(
        (0): Conv2d(768, 768, kernel_size=(7, 7), stride=(1, 1), padding=(3, 3), groups=768)
        (1): Permute()
        (2): LayerNorm((768,), eps=1e-06, elementwise_affine=True)
        (3): Linear(in_features=768, out_features=3072, bias=True)
        (4): GELU(approximate='none')
        (5): Linear(in_features=3072, out_features=768, bias=True)
        (6): Permute()
      )
      (stochastic_depth): StochasticDepth(p=0.18571428571428572, mode=row)
    )
    (8): CNBlock(
      (block): Sequential(
        (0): Conv2d(768, 768, kernel_size=(7, 7), stride=(1, 1), padding=(3, 3), groups=768)
        (1): Permute()
        (2): LayerNorm((768,), eps=1e-06, elementwise_affine=True)
        (3): Linear(in_features=768, out_features=3072, bias=True)
        (4): GELU(approximate='none')
        (5): Linear(in_features=3072, out_features=768, bias=True)
        (6): Permute()
      )
      (stochastic_depth): StochasticDepth(p=0.2, mode=row)
    )
    (9): CNBlock(
      (block): Sequential(
        (0): Conv2d(768, 768, kernel_size=(7, 7), stride=(1, 1), padding=(3, 3), groups=768)
        (1): Permute()
        (2): LayerNorm((768,), eps=1e-06, elementwise_affine=True)
        (3): Linear(in_features=768, out_features=3072, bias=True)
        (4): GELU(approximate='none')
        (5): Linear(in_features=3072, out_features=768, bias=True)
        (6): Permute()
      )
      (stochastic_depth): StochasticDepth(p=0.21428571428571427, mode=row)
    )
    (10): CNBlock(
      (block): Sequential(
        (0): Conv2d(768, 768, kernel_size=(7, 7), stride=(1, 1), padding=(3, 3), groups=768)
        (1): Permute()
        (2): LayerNorm((768,), eps=1e-06, elementwise_affine=True)
        (3): Linear(in_features=768, out_features=3072, bias=True)
        (4): GELU(approximate='none')
        (5): Linear(in_features=3072, out_features=768, bias=True)
        (6): Permute()
      )
      (stochastic_depth): StochasticDepth(p=0.22857142857142856, mode=row)
    )
    (11): CNBlock(
      (block): Sequential(
        (0): Conv2d(768, 768, kernel_size=(7, 7), stride=(1, 1), padding=(3, 3), groups=768)
        (1): Permute()
        (2): LayerNorm((768,), eps=1e-06, elementwise_affine=True)
        (3): Linear(in_features=768, out_features=3072, bias=True)
        (4): GELU(approximate='none')
        (5): Linear(in_features=3072, out_features=768, bias=True)
        (6): Permute()
      )
      (stochastic_depth): StochasticDepth(p=0.24285714285714285, mode=row)
    )
    (12): CNBlock(
      (block): Sequential(
        (0): Conv2d(768, 768, kernel_size=(7, 7), stride=(1, 1), padding=(3, 3), groups=768)
        (1): Permute()
        (2): LayerNorm((768,), eps=1e-06, elementwise_affine=True)
        (3): Linear(in_features=768, out_features=3072, bias=True)
        (4): GELU(approximate='none')
        (5): Linear(in_features=3072, out_features=768, bias=True)
        (6): Permute()
      )
      (stochastic_depth): StochasticDepth(p=0.2571428571428571, mode=row)
    )
    (13): CNBlock(
      (block): Sequential(
        (0): Conv2d(768, 768, kernel_size=(7, 7), stride=(1, 1), padding=(3, 3), groups=768)
        (1): Permute()
        (2): LayerNorm((768,), eps=1e-06, elementwise_affine=True)
        (3): Linear(in_features=768, out_features=3072, bias=True)
        (4): GELU(approximate='none')
        (5): Linear(in_features=3072, out_features=768, bias=True)
        (6): Permute()
      )
      (stochastic_depth): StochasticDepth(p=0.2714285714285714, mode=row)
    )
    (14): CNBlock(
      (block): Sequential(
        (0): Conv2d(768, 768, kernel_size=(7, 7), stride=(1, 1), padding=(3, 3), groups=768)
        (1): Permute()
        (2): LayerNorm((768,), eps=1e-06, elementwise_affine=True)
        (3): Linear(in_features=768, out_features=3072, bias=True)
        (4): GELU(approximate='none')
        (5): Linear(in_features=3072, out_features=768, bias=True)
        (6): Permute()
      )
      (stochastic_depth): StochasticDepth(p=0.2857142857142857, mode=row)
    )
    (15): CNBlock(
      (block): Sequential(
        (0): Conv2d(768, 768, kernel_size=(7, 7), stride=(1, 1), padding=(3, 3), groups=768)
        (1): Permute()
        (2): LayerNorm((768,), eps=1e-06, elementwise_affine=True)
        (3): Linear(in_features=768, out_features=3072, bias=True)
        (4): GELU(approximate='none')
        (5): Linear(in_features=3072, out_features=768, bias=True)
        (6): Permute()
      )
      (stochastic_depth): StochasticDepth(p=0.3, mode=row)
    )
    (16): CNBlock(
      (block): Sequential(
        (0): Conv2d(768, 768, kernel_size=(7, 7), stride=(1, 1), padding=(3, 3), groups=768)
        (1): Permute()
        (2): LayerNorm((768,), eps=1e-06, elementwise_affine=True)
        (3): Linear(in_features=768, out_features=3072, bias=True)
        (4): GELU(approximate='none')
        (5): Linear(in_features=3072, out_features=768, bias=True)
        (6): Permute()
      )
      (stochastic_depth): StochasticDepth(p=0.3142857142857143, mode=row)
    )
    (17): CNBlock(
      (block): Sequential(
        (0): Conv2d(768, 768, kernel_size=(7, 7), stride=(1, 1), padding=(3, 3), groups=768)
        (1): Permute()
        (2): LayerNorm((768,), eps=1e-06, elementwise_affine=True)
        (3): Linear(in_features=768, out_features=3072, bias=True)
        (4): GELU(approximate='none')
        (5): Linear(in_features=3072, out_features=768, bias=True)
        (6): Permute()
      )
      (stochastic_depth): StochasticDepth(p=0.32857142857142857, mode=row)
    )
    (18): CNBlock(
      (block): Sequential(
        (0): Conv2d(768, 768, kernel_size=(7, 7), stride=(1, 1), padding=(3, 3), groups=768)
        (1): Permute()
        (2): LayerNorm((768,), eps=1e-06, elementwise_affine=True)
        (3): Linear(in_features=768, out_features=3072, bias=True)
        (4): GELU(approximate='none')
        (5): Linear(in_features=3072, out_features=768, bias=True)
        (6): Permute()
      )
      (stochastic_depth): StochasticDepth(p=0.34285714285714286, mode=row)
    )
    (19): CNBlock(
      (block): Sequential(
        (0): Conv2d(768, 768, kernel_size=(7, 7), stride=(1, 1), padding=(3, 3), groups=768)
        (1): Permute()
        (2): LayerNorm((768,), eps=1e-06, elementwise_affine=True)
        (3): Linear(in_features=768, out_features=3072, bias=True)
        (4): GELU(approximate='none')
        (5): Linear(in_features=3072, out_features=768, bias=True)
        (6): Permute()
      )
      (stochastic_depth): StochasticDepth(p=0.35714285714285715, mode=row)
    )
    (20): CNBlock(
      (block): Sequential(
        (0): Conv2d(768, 768, kernel_size=(7, 7), stride=(1, 1), padding=(3, 3), groups=768)
        (1): Permute()
        (2): LayerNorm((768,), eps=1e-06, elementwise_affine=True)
        (3): Linear(in_features=768, out_features=3072, bias=True)
        (4): GELU(approximate='none')
        (5): Linear(in_features=3072, out_features=768, bias=True)
        (6): Permute()
      )
      (stochastic_depth): StochasticDepth(p=0.37142857142857144, mode=row)
    )
    (21): CNBlock(
      (block): Sequential(
        (0): Conv2d(768, 768, kernel_size=(7, 7), stride=(1, 1), padding=(3, 3), groups=768)
        (1): Permute()
        (2): LayerNorm((768,), eps=1e-06, elementwise_affine=True)
        (3): Linear(in_features=768, out_features=3072, bias=True)
        (4): GELU(approximate='none')
        (5): Linear(in_features=3072, out_features=768, bias=True)
        (6): Permute()
      )
      (stochastic_depth): StochasticDepth(p=0.38571428571428573, mode=row)
    )
    (22): CNBlock(
      (block): Sequential(
        (0): Conv2d(768, 768, kernel_size=(7, 7), stride=(1, 1), padding=(3, 3), groups=768)
        (1): Permute()
        (2): LayerNorm((768,), eps=1e-06, elementwise_affine=True)
        (3): Linear(in_features=768, out_features=3072, bias=True)
        (4): GELU(approximate='none')
        (5): Linear(in_features=3072, out_features=768, bias=True)
        (6): Permute()
      )
      (stochastic_depth): StochasticDepth(p=0.4, mode=row)
    )
    (23): CNBlock(
      (block): Sequential(
        (0): Conv2d(768, 768, kernel_size=(7, 7), stride=(1, 1), padding=(3, 3), groups=768)
        (1): Permute()
        (2): LayerNorm((768,), eps=1e-06, elementwise_affine=True)
        (3): Linear(in_features=768, out_features=3072, bias=True)
        (4): GELU(approximate='none')
        (5): Linear(in_features=3072, out_features=768, bias=True)
        (6): Permute()
      )
      (stochastic_depth): StochasticDepth(p=0.4142857142857143, mode=row)
    )
    (24): CNBlock(
      (block): Sequential(
        (0): Conv2d(768, 768, kernel_size=(7, 7), stride=(1, 1), padding=(3, 3), groups=768)
        (1): Permute()
        (2): LayerNorm((768,), eps=1e-06, elementwise_affine=True)
        (3): Linear(in_features=768, out_features=3072, bias=True)
        (4): GELU(approximate='none')
        (5): Linear(in_features=3072, out_features=768, bias=True)
        (6): Permute()
      )
      (stochastic_depth): StochasticDepth(p=0.42857142857142855, mode=row)
    )
    (25): CNBlock(
      (block): Sequential(
        (0): Conv2d(768, 768, kernel_size=(7, 7), stride=(1, 1), padding=(3, 3), groups=768)
        (1): Permute()
        (2): LayerNorm((768,), eps=1e-06, elementwise_affine=True)
        (3): Linear(in_features=768, out_features=3072, bias=True)
        (4): GELU(approximate='none')
        (5): Linear(in_features=3072, out_features=768, bias=True)
        (6): Permute()
      )
      (stochastic_depth): StochasticDepth(p=0.44285714285714284, mode=row)
    )
    (26): CNBlock(
      (block): Sequential(
        (0): Conv2d(768, 768, kernel_size=(7, 7), stride=(1, 1), padding=(3, 3), groups=768)
        (1): Permute()
        (2): LayerNorm((768,), eps=1e-06, elementwise_affine=True)
        (3): Linear(in_features=768, out_features=3072, bias=True)
        (4): GELU(approximate='none')
        (5): Linear(in_features=3072, out_features=768, bias=True)
        (6): Permute()
      )
      (stochastic_depth): StochasticDepth(p=0.45714285714285713, mode=row)
    )
  )
  (6): Sequential(
    (0): LayerNorm2d((768,), eps=1e-06, elementwise_affine=True)
    (1): Conv2d(768, 1536, kernel_size=(2, 2), stride=(2, 2))
  )
  (7): Sequential(
    (0): CNBlock(
      (block): Sequential(
        (0): Conv2d(1536, 1536, kernel_size=(7, 7), stride=(1, 1), padding=(3, 3), groups=1536)
        (1): Permute()
        (2): LayerNorm((1536,), eps=1e-06, elementwise_affine=True)
        (3): Linear(in_features=1536, out_features=6144, bias=True)
        (4): GELU(approximate='none')
        (5): Linear(in_features=6144, out_features=1536, bias=True)
        (6): Permute()
      )
      (stochastic_depth): StochasticDepth(p=0.4714285714285714, mode=row)
    )
    (1): CNBlock(
      (block): Sequential(
        (0): Conv2d(1536, 1536, kernel_size=(7, 7), stride=(1, 1), padding=(3, 3), groups=1536)
        (1): Permute()
        (2): LayerNorm((1536,), eps=1e-06, elementwise_affine=True)
        (3): Linear(in_features=1536, out_features=6144, bias=True)
        (4): GELU(approximate='none')
        (5): Linear(in_features=6144, out_features=1536, bias=True)
        (6): Permute()
      )
      (stochastic_depth): StochasticDepth(p=0.4857142857142857, mode=row)
    )
    (2): CNBlock(
      (block): Sequential(
        (0): Conv2d(1536, 1536, kernel_size=(7, 7), stride=(1, 1), padding=(3, 3), groups=1536)
        (1): Permute()
        (2): LayerNorm((1536,), eps=1e-06, elementwise_affine=True)
        (3): Linear(in_features=1536, out_features=6144, bias=True)
        (4): GELU(approximate='none')
        (5): Linear(in_features=6144, out_features=1536, bias=True)
        (6): Permute()
      )
      (stochastic_depth): StochasticDepth(p=0.5, mode=row)
    )
  )
), AdaptiveAvgPool2d(output_size=1), Sequential(
  (0): LayerNorm2d((1536,), eps=1e-06, elementwise_affine=True)
  (1): Flatten(start_dim=1, end_dim=-1)
  (2): Linear(in_features=1536, out_features=1000, bias=True)
), ReLU(inplace=True), Dropout(p=0.5, inplace=False), Linear(in_features=1000, out_features=2, bias=True)]


##########################################################################################3


densenet121
[Sequential(
  (conv0): Conv2d(3, 64, kernel_size=(7, 7), stride=(2, 2), padding=(3, 3), bias=False)
  (norm0): BatchNorm2d(64, eps=1e-05, momentum=0.1, affine=True, track_running_stats=True)
  (relu0): ReLU(inplace=True)
  (pool0): MaxPool2d(kernel_size=3, stride=2, padding=1, dilation=1, ceil_mode=False)
  (denseblock1): _DenseBlock(
    (denselayer1): _DenseLayer(
      (norm1): BatchNorm2d(64, eps=1e-05, momentum=0.1, affine=True, track_running_stats=True)
      (relu1): ReLU(inplace=True)
      (conv1): Conv2d(64, 128, kernel_size=(1, 1), stride=(1, 1), bias=False)
      (norm2): BatchNorm2d(128, eps=1e-05, momentum=0.1, affine=True, track_running_stats=True)
      (relu2): ReLU(inplace=True)
      (conv2): Conv2d(128, 32, kernel_size=(3, 3), stride=(1, 1), padding=(1, 1), bias=False)
    )
    (denselayer2): _DenseLayer(
      (norm1): BatchNorm2d(96, eps=1e-05, momentum=0.1, affine=True, track_running_stats=True)
      (relu1): ReLU(inplace=True)
      (conv1): Conv2d(96, 128, kernel_size=(1, 1), stride=(1, 1), bias=False)
      (norm2): BatchNorm2d(128, eps=1e-05, momentum=0.1, affine=True, track_running_stats=True)
      (relu2): ReLU(inplace=True)
      (conv2): Conv2d(128, 32, kernel_size=(3, 3), stride=(1, 1), padding=(1, 1), bias=False)
    )
    (denselayer3): _DenseLayer(
      (norm1): BatchNorm2d(128, eps=1e-05, momentum=0.1, affine=True, track_running_stats=True)
      (relu1): ReLU(inplace=True)
      (conv1): Conv2d(128, 128, kernel_size=(1, 1), stride=(1, 1), bias=False)
      (norm2): BatchNorm2d(128, eps=1e-05, momentum=0.1, affine=True, track_running_stats=True)
      (relu2): ReLU(inplace=True)
      (conv2): Conv2d(128, 32, kernel_size=(3, 3), stride=(1, 1), padding=(1, 1), bias=False)
    )
    (denselayer4): _DenseLayer(
      (norm1): BatchNorm2d(160, eps=1e-05, momentum=0.1, affine=True, track_running_stats=True)
      (relu1): ReLU(inplace=True)
      (conv1): Conv2d(160, 128, kernel_size=(1, 1), stride=(1, 1), bias=False)
      (norm2): BatchNorm2d(128, eps=1e-05, momentum=0.1, affine=True, track_running_stats=True)
      (relu2): ReLU(inplace=True)
      (conv2): Conv2d(128, 32, kernel_size=(3, 3), stride=(1, 1), padding=(1, 1), bias=False)
    )
    (denselayer5): _DenseLayer(
      (norm1): BatchNorm2d(192, eps=1e-05, momentum=0.1, affine=True, track_running_stats=True)
      (relu1): ReLU(inplace=True)
      (conv1): Conv2d(192, 128, kernel_size=(1, 1), stride=(1, 1), bias=False)
      (norm2): BatchNorm2d(128, eps=1e-05, momentum=0.1, affine=True, track_running_stats=True)
      (relu2): ReLU(inplace=True)
      (conv2): Conv2d(128, 32, kernel_size=(3, 3), stride=(1, 1), padding=(1, 1), bias=False)
    )
    (denselayer6): _DenseLayer(
      (norm1): BatchNorm2d(224, eps=1e-05, momentum=0.1, affine=True, track_running_stats=True)
      (relu1): ReLU(inplace=True)
      (conv1): Conv2d(224, 128, kernel_size=(1, 1), stride=(1, 1), bias=False)
      (norm2): BatchNorm2d(128, eps=1e-05, momentum=0.1, affine=True, track_running_stats=True)
      (relu2): ReLU(inplace=True)
      (conv2): Conv2d(128, 32, kernel_size=(3, 3), stride=(1, 1), padding=(1, 1), bias=False)
    )
  )
  (transition1): _Transition(
    (norm): BatchNorm2d(256, eps=1e-05, momentum=0.1, affine=True, track_running_stats=True)
    (relu): ReLU(inplace=True)
    (conv): Conv2d(256, 128, kernel_size=(1, 1), stride=(1, 1), bias=False)
    (pool): AvgPool2d(kernel_size=2, stride=2, padding=0)
  )
  (denseblock2): _DenseBlock(
    (denselayer1): _DenseLayer(
      (norm1): BatchNorm2d(128, eps=1e-05, momentum=0.1, affine=True, track_running_stats=True)
      (relu1): ReLU(inplace=True)
      (conv1): Conv2d(128, 128, kernel_size=(1, 1), stride=(1, 1), bias=False)
      (norm2): BatchNorm2d(128, eps=1e-05, momentum=0.1, affine=True, track_running_stats=True)
      (relu2): ReLU(inplace=True)
      (conv2): Conv2d(128, 32, kernel_size=(3, 3), stride=(1, 1), padding=(1, 1), bias=False)
    )
    (denselayer2): _DenseLayer(
      (norm1): BatchNorm2d(160, eps=1e-05, momentum=0.1, affine=True, track_running_stats=True)
      (relu1): ReLU(inplace=True)
      (conv1): Conv2d(160, 128, kernel_size=(1, 1), stride=(1, 1), bias=False)
      (norm2): BatchNorm2d(128, eps=1e-05, momentum=0.1, affine=True, track_running_stats=True)
      (relu2): ReLU(inplace=True)
      (conv2): Conv2d(128, 32, kernel_size=(3, 3), stride=(1, 1), padding=(1, 1), bias=False)
    )
    (denselayer3): _DenseLayer(
      (norm1): BatchNorm2d(192, eps=1e-05, momentum=0.1, affine=True, track_running_stats=True)
      (relu1): ReLU(inplace=True)
      (conv1): Conv2d(192, 128, kernel_size=(1, 1), stride=(1, 1), bias=False)
      (norm2): BatchNorm2d(128, eps=1e-05, momentum=0.1, affine=True, track_running_stats=True)
      (relu2): ReLU(inplace=True)
      (conv2): Conv2d(128, 32, kernel_size=(3, 3), stride=(1, 1), padding=(1, 1), bias=False)
    )
    (denselayer4): _DenseLayer(
      (norm1): BatchNorm2d(224, eps=1e-05, momentum=0.1, affine=True, track_running_stats=True)
      (relu1): ReLU(inplace=True)
      (conv1): Conv2d(224, 128, kernel_size=(1, 1), stride=(1, 1), bias=False)
      (norm2): BatchNorm2d(128, eps=1e-05, momentum=0.1, affine=True, track_running_stats=True)
      (relu2): ReLU(inplace=True)
      (conv2): Conv2d(128, 32, kernel_size=(3, 3), stride=(1, 1), padding=(1, 1), bias=False)
    )
    (denselayer5): _DenseLayer(
      (norm1): BatchNorm2d(256, eps=1e-05, momentum=0.1, affine=True, track_running_stats=True)
      (relu1): ReLU(inplace=True)
      (conv1): Conv2d(256, 128, kernel_size=(1, 1), stride=(1, 1), bias=False)
      (norm2): BatchNorm2d(128, eps=1e-05, momentum=0.1, affine=True, track_running_stats=True)
      (relu2): ReLU(inplace=True)
      (conv2): Conv2d(128, 32, kernel_size=(3, 3), stride=(1, 1), padding=(1, 1), bias=False)
    )
    (denselayer6): _DenseLayer(
      (norm1): BatchNorm2d(288, eps=1e-05, momentum=0.1, affine=True, track_running_stats=True)
      (relu1): ReLU(inplace=True)
      (conv1): Conv2d(288, 128, kernel_size=(1, 1), stride=(1, 1), bias=False)
      (norm2): BatchNorm2d(128, eps=1e-05, momentum=0.1, affine=True, track_running_stats=True)
      (relu2): ReLU(inplace=True)
      (conv2): Conv2d(128, 32, kernel_size=(3, 3), stride=(1, 1), padding=(1, 1), bias=False)
    )
    (denselayer7): _DenseLayer(
      (norm1): BatchNorm2d(320, eps=1e-05, momentum=0.1, affine=True, track_running_stats=True)
      (relu1): ReLU(inplace=True)
      (conv1): Conv2d(320, 128, kernel_size=(1, 1), stride=(1, 1), bias=False)
      (norm2): BatchNorm2d(128, eps=1e-05, momentum=0.1, affine=True, track_running_stats=True)
      (relu2): ReLU(inplace=True)
      (conv2): Conv2d(128, 32, kernel_size=(3, 3), stride=(1, 1), padding=(1, 1), bias=False)
    )
    (denselayer8): _DenseLayer(
      (norm1): BatchNorm2d(352, eps=1e-05, momentum=0.1, affine=True, track_running_stats=True)
      (relu1): ReLU(inplace=True)
      (conv1): Conv2d(352, 128, kernel_size=(1, 1), stride=(1, 1), bias=False)
      (norm2): BatchNorm2d(128, eps=1e-05, momentum=0.1, affine=True, track_running_stats=True)
      (relu2): ReLU(inplace=True)
      (conv2): Conv2d(128, 32, kernel_size=(3, 3), stride=(1, 1), padding=(1, 1), bias=False)
    )
    (denselayer9): _DenseLayer(
      (norm1): BatchNorm2d(384, eps=1e-05, momentum=0.1, affine=True, track_running_stats=True)
      (relu1): ReLU(inplace=True)
      (conv1): Conv2d(384, 128, kernel_size=(1, 1), stride=(1, 1), bias=False)
      (norm2): BatchNorm2d(128, eps=1e-05, momentum=0.1, affine=True, track_running_stats=True)
      (relu2): ReLU(inplace=True)
      (conv2): Conv2d(128, 32, kernel_size=(3, 3), stride=(1, 1), padding=(1, 1), bias=False)
    )
    (denselayer10): _DenseLayer(
      (norm1): BatchNorm2d(416, eps=1e-05, momentum=0.1, affine=True, track_running_stats=True)
      (relu1): ReLU(inplace=True)
      (conv1): Conv2d(416, 128, kernel_size=(1, 1), stride=(1, 1), bias=False)
      (norm2): BatchNorm2d(128, eps=1e-05, momentum=0.1, affine=True, track_running_stats=True)
      (relu2): ReLU(inplace=True)
      (conv2): Conv2d(128, 32, kernel_size=(3, 3), stride=(1, 1), padding=(1, 1), bias=False)
    )
    (denselayer11): _DenseLayer(
      (norm1): BatchNorm2d(448, eps=1e-05, momentum=0.1, affine=True, track_running_stats=True)
      (relu1): ReLU(inplace=True)
      (conv1): Conv2d(448, 128, kernel_size=(1, 1), stride=(1, 1), bias=False)
      (norm2): BatchNorm2d(128, eps=1e-05, momentum=0.1, affine=True, track_running_stats=True)
      (relu2): ReLU(inplace=True)
      (conv2): Conv2d(128, 32, kernel_size=(3, 3), stride=(1, 1), padding=(1, 1), bias=False)
    )
    (denselayer12): _DenseLayer(
      (norm1): BatchNorm2d(480, eps=1e-05, momentum=0.1, affine=True, track_running_stats=True)
      (relu1): ReLU(inplace=True)
      (conv1): Conv2d(480, 128, kernel_size=(1, 1), stride=(1, 1), bias=False)
      (norm2): BatchNorm2d(128, eps=1e-05, momentum=0.1, affine=True, track_running_stats=True)
      (relu2): ReLU(inplace=True)
      (conv2): Conv2d(128, 32, kernel_size=(3, 3), stride=(1, 1), padding=(1, 1), bias=False)
    )
  )
  (transition2): _Transition(
    (norm): BatchNorm2d(512, eps=1e-05, momentum=0.1, affine=True, track_running_stats=True)
    (relu): ReLU(inplace=True)
    (conv): Conv2d(512, 256, kernel_size=(1, 1), stride=(1, 1), bias=False)
    (pool): AvgPool2d(kernel_size=2, stride=2, padding=0)
  )
  (denseblock3): _DenseBlock(
    (denselayer1): _DenseLayer(
      (norm1): BatchNorm2d(256, eps=1e-05, momentum=0.1, affine=True, track_running_stats=True)
      (relu1): ReLU(inplace=True)
      (conv1): Conv2d(256, 128, kernel_size=(1, 1), stride=(1, 1), bias=False)
      (norm2): BatchNorm2d(128, eps=1e-05, momentum=0.1, affine=True, track_running_stats=True)
      (relu2): ReLU(inplace=True)
      (conv2): Conv2d(128, 32, kernel_size=(3, 3), stride=(1, 1), padding=(1, 1), bias=False)
    )
    (denselayer2): _DenseLayer(
      (norm1): BatchNorm2d(288, eps=1e-05, momentum=0.1, affine=True, track_running_stats=True)
      (relu1): ReLU(inplace=True)
      (conv1): Conv2d(288, 128, kernel_size=(1, 1), stride=(1, 1), bias=False)
      (norm2): BatchNorm2d(128, eps=1e-05, momentum=0.1, affine=True, track_running_stats=True)
      (relu2): ReLU(inplace=True)
      (conv2): Conv2d(128, 32, kernel_size=(3, 3), stride=(1, 1), padding=(1, 1), bias=False)
    )
    (denselayer3): _DenseLayer(
      (norm1): BatchNorm2d(320, eps=1e-05, momentum=0.1, affine=True, track_running_stats=True)
      (relu1): ReLU(inplace=True)
      (conv1): Conv2d(320, 128, kernel_size=(1, 1), stride=(1, 1), bias=False)
      (norm2): BatchNorm2d(128, eps=1e-05, momentum=0.1, affine=True, track_running_stats=True)
      (relu2): ReLU(inplace=True)
      (conv2): Conv2d(128, 32, kernel_size=(3, 3), stride=(1, 1), padding=(1, 1), bias=False)
    )
    (denselayer4): _DenseLayer(
      (norm1): BatchNorm2d(352, eps=1e-05, momentum=0.1, affine=True, track_running_stats=True)
      (relu1): ReLU(inplace=True)
      (conv1): Conv2d(352, 128, kernel_size=(1, 1), stride=(1, 1), bias=False)
      (norm2): BatchNorm2d(128, eps=1e-05, momentum=0.1, affine=True, track_running_stats=True)
      (relu2): ReLU(inplace=True)
      (conv2): Conv2d(128, 32, kernel_size=(3, 3), stride=(1, 1), padding=(1, 1), bias=False)
    )
    (denselayer5): _DenseLayer(
      (norm1): BatchNorm2d(384, eps=1e-05, momentum=0.1, affine=True, track_running_stats=True)
      (relu1): ReLU(inplace=True)
      (conv1): Conv2d(384, 128, kernel_size=(1, 1), stride=(1, 1), bias=False)
      (norm2): BatchNorm2d(128, eps=1e-05, momentum=0.1, affine=True, track_running_stats=True)
      (relu2): ReLU(inplace=True)
      (conv2): Conv2d(128, 32, kernel_size=(3, 3), stride=(1, 1), padding=(1, 1), bias=False)
    )
    (denselayer6): _DenseLayer(
      (norm1): BatchNorm2d(416, eps=1e-05, momentum=0.1, affine=True, track_running_stats=True)
      (relu1): ReLU(inplace=True)
      (conv1): Conv2d(416, 128, kernel_size=(1, 1), stride=(1, 1), bias=False)
      (norm2): BatchNorm2d(128, eps=1e-05, momentum=0.1, affine=True, track_running_stats=True)
      (relu2): ReLU(inplace=True)
      (conv2): Conv2d(128, 32, kernel_size=(3, 3), stride=(1, 1), padding=(1, 1), bias=False)
    )
    (denselayer7): _DenseLayer(
      (norm1): BatchNorm2d(448, eps=1e-05, momentum=0.1, affine=True, track_running_stats=True)
      (relu1): ReLU(inplace=True)
      (conv1): Conv2d(448, 128, kernel_size=(1, 1), stride=(1, 1), bias=False)
      (norm2): BatchNorm2d(128, eps=1e-05, momentum=0.1, affine=True, track_running_stats=True)
      (relu2): ReLU(inplace=True)
      (conv2): Conv2d(128, 32, kernel_size=(3, 3), stride=(1, 1), padding=(1, 1), bias=False)
    )
    (denselayer8): _DenseLayer(
      (norm1): BatchNorm2d(480, eps=1e-05, momentum=0.1, affine=True, track_running_stats=True)
      (relu1): ReLU(inplace=True)
      (conv1): Conv2d(480, 128, kernel_size=(1, 1), stride=(1, 1), bias=False)
      (norm2): BatchNorm2d(128, eps=1e-05, momentum=0.1, affine=True, track_running_stats=True)
      (relu2): ReLU(inplace=True)
      (conv2): Conv2d(128, 32, kernel_size=(3, 3), stride=(1, 1), padding=(1, 1), bias=False)
    )
    (denselayer9): _DenseLayer(
      (norm1): BatchNorm2d(512, eps=1e-05, momentum=0.1, affine=True, track_running_stats=True)
      (relu1): ReLU(inplace=True)
      (conv1): Conv2d(512, 128, kernel_size=(1, 1), stride=(1, 1), bias=False)
      (norm2): BatchNorm2d(128, eps=1e-05, momentum=0.1, affine=True, track_running_stats=True)
      (relu2): ReLU(inplace=True)
      (conv2): Conv2d(128, 32, kernel_size=(3, 3), stride=(1, 1), padding=(1, 1), bias=False)
    )
    (denselayer10): _DenseLayer(
      (norm1): BatchNorm2d(544, eps=1e-05, momentum=0.1, affine=True, track_running_stats=True)
      (relu1): ReLU(inplace=True)
      (conv1): Conv2d(544, 128, kernel_size=(1, 1), stride=(1, 1), bias=False)
      (norm2): BatchNorm2d(128, eps=1e-05, momentum=0.1, affine=True, track_running_stats=True)
      (relu2): ReLU(inplace=True)
      (conv2): Conv2d(128, 32, kernel_size=(3, 3), stride=(1, 1), padding=(1, 1), bias=False)
    )
    (denselayer11): _DenseLayer(
      (norm1): BatchNorm2d(576, eps=1e-05, momentum=0.1, affine=True, track_running_stats=True)
      (relu1): ReLU(inplace=True)
      (conv1): Conv2d(576, 128, kernel_size=(1, 1), stride=(1, 1), bias=False)
      (norm2): BatchNorm2d(128, eps=1e-05, momentum=0.1, affine=True, track_running_stats=True)
      (relu2): ReLU(inplace=True)
      (conv2): Conv2d(128, 32, kernel_size=(3, 3), stride=(1, 1), padding=(1, 1), bias=False)
    )
    (denselayer12): _DenseLayer(
      (norm1): BatchNorm2d(608, eps=1e-05, momentum=0.1, affine=True, track_running_stats=True)
      (relu1): ReLU(inplace=True)
      (conv1): Conv2d(608, 128, kernel_size=(1, 1), stride=(1, 1), bias=False)
      (norm2): BatchNorm2d(128, eps=1e-05, momentum=0.1, affine=True, track_running_stats=True)
      (relu2): ReLU(inplace=True)
      (conv2): Conv2d(128, 32, kernel_size=(3, 3), stride=(1, 1), padding=(1, 1), bias=False)
    )
    (denselayer13): _DenseLayer(
      (norm1): BatchNorm2d(640, eps=1e-05, momentum=0.1, affine=True, track_running_stats=True)
      (relu1): ReLU(inplace=True)
      (conv1): Conv2d(640, 128, kernel_size=(1, 1), stride=(1, 1), bias=False)
      (norm2): BatchNorm2d(128, eps=1e-05, momentum=0.1, affine=True, track_running_stats=True)
      (relu2): ReLU(inplace=True)
      (conv2): Conv2d(128, 32, kernel_size=(3, 3), stride=(1, 1), padding=(1, 1), bias=False)
    )
    (denselayer14): _DenseLayer(
      (norm1): BatchNorm2d(672, eps=1e-05, momentum=0.1, affine=True, track_running_stats=True)
      (relu1): ReLU(inplace=True)
      (conv1): Conv2d(672, 128, kernel_size=(1, 1), stride=(1, 1), bias=False)
      (norm2): BatchNorm2d(128, eps=1e-05, momentum=0.1, affine=True, track_running_stats=True)
      (relu2): ReLU(inplace=True)
      (conv2): Conv2d(128, 32, kernel_size=(3, 3), stride=(1, 1), padding=(1, 1), bias=False)
    )
    (denselayer15): _DenseLayer(
      (norm1): BatchNorm2d(704, eps=1e-05, momentum=0.1, affine=True, track_running_stats=True)
      (relu1): ReLU(inplace=True)
      (conv1): Conv2d(704, 128, kernel_size=(1, 1), stride=(1, 1), bias=False)
      (norm2): BatchNorm2d(128, eps=1e-05, momentum=0.1, affine=True, track_running_stats=True)
      (relu2): ReLU(inplace=True)
      (conv2): Conv2d(128, 32, kernel_size=(3, 3), stride=(1, 1), padding=(1, 1), bias=False)
    )
    (denselayer16): _DenseLayer(
      (norm1): BatchNorm2d(736, eps=1e-05, momentum=0.1, affine=True, track_running_stats=True)
      (relu1): ReLU(inplace=True)
      (conv1): Conv2d(736, 128, kernel_size=(1, 1), stride=(1, 1), bias=False)
      (norm2): BatchNorm2d(128, eps=1e-05, momentum=0.1, affine=True, track_running_stats=True)
      (relu2): ReLU(inplace=True)
      (conv2): Conv2d(128, 32, kernel_size=(3, 3), stride=(1, 1), padding=(1, 1), bias=False)
    )
    (denselayer17): _DenseLayer(
      (norm1): BatchNorm2d(768, eps=1e-05, momentum=0.1, affine=True, track_running_stats=True)
      (relu1): ReLU(inplace=True)
      (conv1): Conv2d(768, 128, kernel_size=(1, 1), stride=(1, 1), bias=False)
      (norm2): BatchNorm2d(128, eps=1e-05, momentum=0.1, affine=True, track_running_stats=True)
      (relu2): ReLU(inplace=True)
      (conv2): Conv2d(128, 32, kernel_size=(3, 3), stride=(1, 1), padding=(1, 1), bias=False)
    )
    (denselayer18): _DenseLayer(
      (norm1): BatchNorm2d(800, eps=1e-05, momentum=0.1, affine=True, track_running_stats=True)
      (relu1): ReLU(inplace=True)
      (conv1): Conv2d(800, 128, kernel_size=(1, 1), stride=(1, 1), bias=False)
      (norm2): BatchNorm2d(128, eps=1e-05, momentum=0.1, affine=True, track_running_stats=True)
      (relu2): ReLU(inplace=True)
      (conv2): Conv2d(128, 32, kernel_size=(3, 3), stride=(1, 1), padding=(1, 1), bias=False)
    )
    (denselayer19): _DenseLayer(
      (norm1): BatchNorm2d(832, eps=1e-05, momentum=0.1, affine=True, track_running_stats=True)
      (relu1): ReLU(inplace=True)
      (conv1): Conv2d(832, 128, kernel_size=(1, 1), stride=(1, 1), bias=False)
      (norm2): BatchNorm2d(128, eps=1e-05, momentum=0.1, affine=True, track_running_stats=True)
      (relu2): ReLU(inplace=True)
      (conv2): Conv2d(128, 32, kernel_size=(3, 3), stride=(1, 1), padding=(1, 1), bias=False)
    )
    (denselayer20): _DenseLayer(
      (norm1): BatchNorm2d(864, eps=1e-05, momentum=0.1, affine=True, track_running_stats=True)
      (relu1): ReLU(inplace=True)
      (conv1): Conv2d(864, 128, kernel_size=(1, 1), stride=(1, 1), bias=False)
      (norm2): BatchNorm2d(128, eps=1e-05, momentum=0.1, affine=True, track_running_stats=True)
      (relu2): ReLU(inplace=True)
      (conv2): Conv2d(128, 32, kernel_size=(3, 3), stride=(1, 1), padding=(1, 1), bias=False)
    )
    (denselayer21): _DenseLayer(
      (norm1): BatchNorm2d(896, eps=1e-05, momentum=0.1, affine=True, track_running_stats=True)
      (relu1): ReLU(inplace=True)
      (conv1): Conv2d(896, 128, kernel_size=(1, 1), stride=(1, 1), bias=False)
      (norm2): BatchNorm2d(128, eps=1e-05, momentum=0.1, affine=True, track_running_stats=True)
      (relu2): ReLU(inplace=True)
      (conv2): Conv2d(128, 32, kernel_size=(3, 3), stride=(1, 1), padding=(1, 1), bias=False)
    )
    (denselayer22): _DenseLayer(
      (norm1): BatchNorm2d(928, eps=1e-05, momentum=0.1, affine=True, track_running_stats=True)
      (relu1): ReLU(inplace=True)
      (conv1): Conv2d(928, 128, kernel_size=(1, 1), stride=(1, 1), bias=False)
      (norm2): BatchNorm2d(128, eps=1e-05, momentum=0.1, affine=True, track_running_stats=True)
      (relu2): ReLU(inplace=True)
      (conv2): Conv2d(128, 32, kernel_size=(3, 3), stride=(1, 1), padding=(1, 1), bias=False)
    )
    (denselayer23): _DenseLayer(
      (norm1): BatchNorm2d(960, eps=1e-05, momentum=0.1, affine=True, track_running_stats=True)
      (relu1): ReLU(inplace=True)
      (conv1): Conv2d(960, 128, kernel_size=(1, 1), stride=(1, 1), bias=False)
      (norm2): BatchNorm2d(128, eps=1e-05, momentum=0.1, affine=True, track_running_stats=True)
      (relu2): ReLU(inplace=True)
      (conv2): Conv2d(128, 32, kernel_size=(3, 3), stride=(1, 1), padding=(1, 1), bias=False)
    )
    (denselayer24): _DenseLayer(
      (norm1): BatchNorm2d(992, eps=1e-05, momentum=0.1, affine=True, track_running_stats=True)
      (relu1): ReLU(inplace=True)
      (conv1): Conv2d(992, 128, kernel_size=(1, 1), stride=(1, 1), bias=False)
      (norm2): BatchNorm2d(128, eps=1e-05, momentum=0.1, affine=True, track_running_stats=True)
      (relu2): ReLU(inplace=True)
      (conv2): Conv2d(128, 32, kernel_size=(3, 3), stride=(1, 1), padding=(1, 1), bias=False)
    )
  )
  (transition3): _Transition(
    (norm): BatchNorm2d(1024, eps=1e-05, momentum=0.1, affine=True, track_running_stats=True)
    (relu): ReLU(inplace=True)
    (conv): Conv2d(1024, 512, kernel_size=(1, 1), stride=(1, 1), bias=False)
    (pool): AvgPool2d(kernel_size=2, stride=2, padding=0)
  )
  (denseblock4): _DenseBlock(
    (denselayer1): _DenseLayer(
      (norm1): BatchNorm2d(512, eps=1e-05, momentum=0.1, affine=True, track_running_stats=True)
      (relu1): ReLU(inplace=True)
      (conv1): Conv2d(512, 128, kernel_size=(1, 1), stride=(1, 1), bias=False)
      (norm2): BatchNorm2d(128, eps=1e-05, momentum=0.1, affine=True, track_running_stats=True)
      (relu2): ReLU(inplace=True)
      (conv2): Conv2d(128, 32, kernel_size=(3, 3), stride=(1, 1), padding=(1, 1), bias=False)
    )
    (denselayer2): _DenseLayer(
      (norm1): BatchNorm2d(544, eps=1e-05, momentum=0.1, affine=True, track_running_stats=True)
      (relu1): ReLU(inplace=True)
      (conv1): Conv2d(544, 128, kernel_size=(1, 1), stride=(1, 1), bias=False)
      (norm2): BatchNorm2d(128, eps=1e-05, momentum=0.1, affine=True, track_running_stats=True)
      (relu2): ReLU(inplace=True)
      (conv2): Conv2d(128, 32, kernel_size=(3, 3), stride=(1, 1), padding=(1, 1), bias=False)
    )
    (denselayer3): _DenseLayer(
      (norm1): BatchNorm2d(576, eps=1e-05, momentum=0.1, affine=True, track_running_stats=True)
      (relu1): ReLU(inplace=True)
      (conv1): Conv2d(576, 128, kernel_size=(1, 1), stride=(1, 1), bias=False)
      (norm2): BatchNorm2d(128, eps=1e-05, momentum=0.1, affine=True, track_running_stats=True)
      (relu2): ReLU(inplace=True)
      (conv2): Conv2d(128, 32, kernel_size=(3, 3), stride=(1, 1), padding=(1, 1), bias=False)
    )
    (denselayer4): _DenseLayer(
      (norm1): BatchNorm2d(608, eps=1e-05, momentum=0.1, affine=True, track_running_stats=True)
      (relu1): ReLU(inplace=True)
      (conv1): Conv2d(608, 128, kernel_size=(1, 1), stride=(1, 1), bias=False)
      (norm2): BatchNorm2d(128, eps=1e-05, momentum=0.1, affine=True, track_running_stats=True)
      (relu2): ReLU(inplace=True)
      (conv2): Conv2d(128, 32, kernel_size=(3, 3), stride=(1, 1), padding=(1, 1), bias=False)
    )
    (denselayer5): _DenseLayer(
      (norm1): BatchNorm2d(640, eps=1e-05, momentum=0.1, affine=True, track_running_stats=True)
      (relu1): ReLU(inplace=True)
      (conv1): Conv2d(640, 128, kernel_size=(1, 1), stride=(1, 1), bias=False)
      (norm2): BatchNorm2d(128, eps=1e-05, momentum=0.1, affine=True, track_running_stats=True)
      (relu2): ReLU(inplace=True)
      (conv2): Conv2d(128, 32, kernel_size=(3, 3), stride=(1, 1), padding=(1, 1), bias=False)
    )
    (denselayer6): _DenseLayer(
      (norm1): BatchNorm2d(672, eps=1e-05, momentum=0.1, affine=True, track_running_stats=True)
      (relu1): ReLU(inplace=True)
      (conv1): Conv2d(672, 128, kernel_size=(1, 1), stride=(1, 1), bias=False)
      (norm2): BatchNorm2d(128, eps=1e-05, momentum=0.1, affine=True, track_running_stats=True)
      (relu2): ReLU(inplace=True)
      (conv2): Conv2d(128, 32, kernel_size=(3, 3), stride=(1, 1), padding=(1, 1), bias=False)
    )
    (denselayer7): _DenseLayer(
      (norm1): BatchNorm2d(704, eps=1e-05, momentum=0.1, affine=True, track_running_stats=True)
      (relu1): ReLU(inplace=True)
      (conv1): Conv2d(704, 128, kernel_size=(1, 1), stride=(1, 1), bias=False)
      (norm2): BatchNorm2d(128, eps=1e-05, momentum=0.1, affine=True, track_running_stats=True)
      (relu2): ReLU(inplace=True)
      (conv2): Conv2d(128, 32, kernel_size=(3, 3), stride=(1, 1), padding=(1, 1), bias=False)
    )
    (denselayer8): _DenseLayer(
      (norm1): BatchNorm2d(736, eps=1e-05, momentum=0.1, affine=True, track_running_stats=True)
      (relu1): ReLU(inplace=True)
      (conv1): Conv2d(736, 128, kernel_size=(1, 1), stride=(1, 1), bias=False)
      (norm2): BatchNorm2d(128, eps=1e-05, momentum=0.1, affine=True, track_running_stats=True)
      (relu2): ReLU(inplace=True)
      (conv2): Conv2d(128, 32, kernel_size=(3, 3), stride=(1, 1), padding=(1, 1), bias=False)
    )
    (denselayer9): _DenseLayer(
      (norm1): BatchNorm2d(768, eps=1e-05, momentum=0.1, affine=True, track_running_stats=True)
      (relu1): ReLU(inplace=True)
      (conv1): Conv2d(768, 128, kernel_size=(1, 1), stride=(1, 1), bias=False)
      (norm2): BatchNorm2d(128, eps=1e-05, momentum=0.1, affine=True, track_running_stats=True)
      (relu2): ReLU(inplace=True)
      (conv2): Conv2d(128, 32, kernel_size=(3, 3), stride=(1, 1), padding=(1, 1), bias=False)
    )
    (denselayer10): _DenseLayer(
      (norm1): BatchNorm2d(800, eps=1e-05, momentum=0.1, affine=True, track_running_stats=True)
      (relu1): ReLU(inplace=True)
      (conv1): Conv2d(800, 128, kernel_size=(1, 1), stride=(1, 1), bias=False)
      (norm2): BatchNorm2d(128, eps=1e-05, momentum=0.1, affine=True, track_running_stats=True)
      (relu2): ReLU(inplace=True)
      (conv2): Conv2d(128, 32, kernel_size=(3, 3), stride=(1, 1), padding=(1, 1), bias=False)
    )
    (denselayer11): _DenseLayer(
      (norm1): BatchNorm2d(832, eps=1e-05, momentum=0.1, affine=True, track_running_stats=True)
      (relu1): ReLU(inplace=True)
      (conv1): Conv2d(832, 128, kernel_size=(1, 1), stride=(1, 1), bias=False)
      (norm2): BatchNorm2d(128, eps=1e-05, momentum=0.1, affine=True, track_running_stats=True)
      (relu2): ReLU(inplace=True)
      (conv2): Conv2d(128, 32, kernel_size=(3, 3), stride=(1, 1), padding=(1, 1), bias=False)
    )
    (denselayer12): _DenseLayer(
      (norm1): BatchNorm2d(864, eps=1e-05, momentum=0.1, affine=True, track_running_stats=True)
      (relu1): ReLU(inplace=True)
      (conv1): Conv2d(864, 128, kernel_size=(1, 1), stride=(1, 1), bias=False)
      (norm2): BatchNorm2d(128, eps=1e-05, momentum=0.1, affine=True, track_running_stats=True)
      (relu2): ReLU(inplace=True)
      (conv2): Conv2d(128, 32, kernel_size=(3, 3), stride=(1, 1), padding=(1, 1), bias=False)
    )
    (denselayer13): _DenseLayer(
      (norm1): BatchNorm2d(896, eps=1e-05, momentum=0.1, affine=True, track_running_stats=True)
      (relu1): ReLU(inplace=True)
      (conv1): Conv2d(896, 128, kernel_size=(1, 1), stride=(1, 1), bias=False)
      (norm2): BatchNorm2d(128, eps=1e-05, momentum=0.1, affine=True, track_running_stats=True)
      (relu2): ReLU(inplace=True)
      (conv2): Conv2d(128, 32, kernel_size=(3, 3), stride=(1, 1), padding=(1, 1), bias=False)
    )
    (denselayer14): _DenseLayer(
      (norm1): BatchNorm2d(928, eps=1e-05, momentum=0.1, affine=True, track_running_stats=True)
      (relu1): ReLU(inplace=True)
      (conv1): Conv2d(928, 128, kernel_size=(1, 1), stride=(1, 1), bias=False)
      (norm2): BatchNorm2d(128, eps=1e-05, momentum=0.1, affine=True, track_running_stats=True)
      (relu2): ReLU(inplace=True)
      (conv2): Conv2d(128, 32, kernel_size=(3, 3), stride=(1, 1), padding=(1, 1), bias=False)
    )
    (denselayer15): _DenseLayer(
      (norm1): BatchNorm2d(960, eps=1e-05, momentum=0.1, affine=True, track_running_stats=True)
      (relu1): ReLU(inplace=True)
      (conv1): Conv2d(960, 128, kernel_size=(1, 1), stride=(1, 1), bias=False)
      (norm2): BatchNorm2d(128, eps=1e-05, momentum=0.1, affine=True, track_running_stats=True)
      (relu2): ReLU(inplace=True)
      (conv2): Conv2d(128, 32, kernel_size=(3, 3), stride=(1, 1), padding=(1, 1), bias=False)
    )
    (denselayer16): _DenseLayer(
      (norm1): BatchNorm2d(992, eps=1e-05, momentum=0.1, affine=True, track_running_stats=True)
      (relu1): ReLU(inplace=True)
      (conv1): Conv2d(992, 128, kernel_size=(1, 1), stride=(1, 1), bias=False)
      (norm2): BatchNorm2d(128, eps=1e-05, momentum=0.1, affine=True, track_running_stats=True)
      (relu2): ReLU(inplace=True)
      (conv2): Conv2d(128, 32, kernel_size=(3, 3), stride=(1, 1), padding=(1, 1), bias=False)
    )
  )
  (norm5): BatchNorm2d(1024, eps=1e-05, momentum=0.1, affine=True, track_running_stats=True)
), Linear(in_features=1024, out_features=1000, bias=True), ReLU(inplace=True), Dropout(p=0.5, inplace=False), Linear(in_features=1000, out_features=2, bias=True)]


##########################################################################################3


densenet161
[Sequential(
  (conv0): Conv2d(3, 96, kernel_size=(7, 7), stride=(2, 2), padding=(3, 3), bias=False)
  (norm0): BatchNorm2d(96, eps=1e-05, momentum=0.1, affine=True, track_running_stats=True)
  (relu0): ReLU(inplace=True)
  (pool0): MaxPool2d(kernel_size=3, stride=2, padding=1, dilation=1, ceil_mode=False)
  (denseblock1): _DenseBlock(
    (denselayer1): _DenseLayer(
      (norm1): BatchNorm2d(96, eps=1e-05, momentum=0.1, affine=True, track_running_stats=True)
      (relu1): ReLU(inplace=True)
      (conv1): Conv2d(96, 192, kernel_size=(1, 1), stride=(1, 1), bias=False)
      (norm2): BatchNorm2d(192, eps=1e-05, momentum=0.1, affine=True, track_running_stats=True)
      (relu2): ReLU(inplace=True)
      (conv2): Conv2d(192, 48, kernel_size=(3, 3), stride=(1, 1), padding=(1, 1), bias=False)
    )
    (denselayer2): _DenseLayer(
      (norm1): BatchNorm2d(144, eps=1e-05, momentum=0.1, affine=True, track_running_stats=True)
      (relu1): ReLU(inplace=True)
      (conv1): Conv2d(144, 192, kernel_size=(1, 1), stride=(1, 1), bias=False)
      (norm2): BatchNorm2d(192, eps=1e-05, momentum=0.1, affine=True, track_running_stats=True)
      (relu2): ReLU(inplace=True)
      (conv2): Conv2d(192, 48, kernel_size=(3, 3), stride=(1, 1), padding=(1, 1), bias=False)
    )
    (denselayer3): _DenseLayer(
      (norm1): BatchNorm2d(192, eps=1e-05, momentum=0.1, affine=True, track_running_stats=True)
      (relu1): ReLU(inplace=True)
      (conv1): Conv2d(192, 192, kernel_size=(1, 1), stride=(1, 1), bias=False)
      (norm2): BatchNorm2d(192, eps=1e-05, momentum=0.1, affine=True, track_running_stats=True)
      (relu2): ReLU(inplace=True)
      (conv2): Conv2d(192, 48, kernel_size=(3, 3), stride=(1, 1), padding=(1, 1), bias=False)
    )
    (denselayer4): _DenseLayer(
      (norm1): BatchNorm2d(240, eps=1e-05, momentum=0.1, affine=True, track_running_stats=True)
      (relu1): ReLU(inplace=True)
      (conv1): Conv2d(240, 192, kernel_size=(1, 1), stride=(1, 1), bias=False)
      (norm2): BatchNorm2d(192, eps=1e-05, momentum=0.1, affine=True, track_running_stats=True)
      (relu2): ReLU(inplace=True)
      (conv2): Conv2d(192, 48, kernel_size=(3, 3), stride=(1, 1), padding=(1, 1), bias=False)
    )
    (denselayer5): _DenseLayer(
      (norm1): BatchNorm2d(288, eps=1e-05, momentum=0.1, affine=True, track_running_stats=True)
      (relu1): ReLU(inplace=True)
      (conv1): Conv2d(288, 192, kernel_size=(1, 1), stride=(1, 1), bias=False)
      (norm2): BatchNorm2d(192, eps=1e-05, momentum=0.1, affine=True, track_running_stats=True)
      (relu2): ReLU(inplace=True)
      (conv2): Conv2d(192, 48, kernel_size=(3, 3), stride=(1, 1), padding=(1, 1), bias=False)
    )
    (denselayer6): _DenseLayer(
      (norm1): BatchNorm2d(336, eps=1e-05, momentum=0.1, affine=True, track_running_stats=True)
      (relu1): ReLU(inplace=True)
      (conv1): Conv2d(336, 192, kernel_size=(1, 1), stride=(1, 1), bias=False)
      (norm2): BatchNorm2d(192, eps=1e-05, momentum=0.1, affine=True, track_running_stats=True)
      (relu2): ReLU(inplace=True)
      (conv2): Conv2d(192, 48, kernel_size=(3, 3), stride=(1, 1), padding=(1, 1), bias=False)
    )
  )
  (transition1): _Transition(
    (norm): BatchNorm2d(384, eps=1e-05, momentum=0.1, affine=True, track_running_stats=True)
    (relu): ReLU(inplace=True)
    (conv): Conv2d(384, 192, kernel_size=(1, 1), stride=(1, 1), bias=False)
    (pool): AvgPool2d(kernel_size=2, stride=2, padding=0)
  )
  (denseblock2): _DenseBlock(
    (denselayer1): _DenseLayer(
      (norm1): BatchNorm2d(192, eps=1e-05, momentum=0.1, affine=True, track_running_stats=True)
      (relu1): ReLU(inplace=True)
      (conv1): Conv2d(192, 192, kernel_size=(1, 1), stride=(1, 1), bias=False)
      (norm2): BatchNorm2d(192, eps=1e-05, momentum=0.1, affine=True, track_running_stats=True)
      (relu2): ReLU(inplace=True)
      (conv2): Conv2d(192, 48, kernel_size=(3, 3), stride=(1, 1), padding=(1, 1), bias=False)
    )
    (denselayer2): _DenseLayer(
      (norm1): BatchNorm2d(240, eps=1e-05, momentum=0.1, affine=True, track_running_stats=True)
      (relu1): ReLU(inplace=True)
      (conv1): Conv2d(240, 192, kernel_size=(1, 1), stride=(1, 1), bias=False)
      (norm2): BatchNorm2d(192, eps=1e-05, momentum=0.1, affine=True, track_running_stats=True)
      (relu2): ReLU(inplace=True)
      (conv2): Conv2d(192, 48, kernel_size=(3, 3), stride=(1, 1), padding=(1, 1), bias=False)
    )
    (denselayer3): _DenseLayer(
      (norm1): BatchNorm2d(288, eps=1e-05, momentum=0.1, affine=True, track_running_stats=True)
      (relu1): ReLU(inplace=True)
      (conv1): Conv2d(288, 192, kernel_size=(1, 1), stride=(1, 1), bias=False)
      (norm2): BatchNorm2d(192, eps=1e-05, momentum=0.1, affine=True, track_running_stats=True)
      (relu2): ReLU(inplace=True)
      (conv2): Conv2d(192, 48, kernel_size=(3, 3), stride=(1, 1), padding=(1, 1), bias=False)
    )
    (denselayer4): _DenseLayer(
      (norm1): BatchNorm2d(336, eps=1e-05, momentum=0.1, affine=True, track_running_stats=True)
      (relu1): ReLU(inplace=True)
      (conv1): Conv2d(336, 192, kernel_size=(1, 1), stride=(1, 1), bias=False)
      (norm2): BatchNorm2d(192, eps=1e-05, momentum=0.1, affine=True, track_running_stats=True)
      (relu2): ReLU(inplace=True)
      (conv2): Conv2d(192, 48, kernel_size=(3, 3), stride=(1, 1), padding=(1, 1), bias=False)
    )
    (denselayer5): _DenseLayer(
      (norm1): BatchNorm2d(384, eps=1e-05, momentum=0.1, affine=True, track_running_stats=True)
      (relu1): ReLU(inplace=True)
      (conv1): Conv2d(384, 192, kernel_size=(1, 1), stride=(1, 1), bias=False)
      (norm2): BatchNorm2d(192, eps=1e-05, momentum=0.1, affine=True, track_running_stats=True)
      (relu2): ReLU(inplace=True)
      (conv2): Conv2d(192, 48, kernel_size=(3, 3), stride=(1, 1), padding=(1, 1), bias=False)
    )
    (denselayer6): _DenseLayer(
      (norm1): BatchNorm2d(432, eps=1e-05, momentum=0.1, affine=True, track_running_stats=True)
      (relu1): ReLU(inplace=True)
      (conv1): Conv2d(432, 192, kernel_size=(1, 1), stride=(1, 1), bias=False)
      (norm2): BatchNorm2d(192, eps=1e-05, momentum=0.1, affine=True, track_running_stats=True)
      (relu2): ReLU(inplace=True)
      (conv2): Conv2d(192, 48, kernel_size=(3, 3), stride=(1, 1), padding=(1, 1), bias=False)
    )
    (denselayer7): _DenseLayer(
      (norm1): BatchNorm2d(480, eps=1e-05, momentum=0.1, affine=True, track_running_stats=True)
      (relu1): ReLU(inplace=True)
      (conv1): Conv2d(480, 192, kernel_size=(1, 1), stride=(1, 1), bias=False)
      (norm2): BatchNorm2d(192, eps=1e-05, momentum=0.1, affine=True, track_running_stats=True)
      (relu2): ReLU(inplace=True)
      (conv2): Conv2d(192, 48, kernel_size=(3, 3), stride=(1, 1), padding=(1, 1), bias=False)
    )
    (denselayer8): _DenseLayer(
      (norm1): BatchNorm2d(528, eps=1e-05, momentum=0.1, affine=True, track_running_stats=True)
      (relu1): ReLU(inplace=True)
      (conv1): Conv2d(528, 192, kernel_size=(1, 1), stride=(1, 1), bias=False)
      (norm2): BatchNorm2d(192, eps=1e-05, momentum=0.1, affine=True, track_running_stats=True)
      (relu2): ReLU(inplace=True)
      (conv2): Conv2d(192, 48, kernel_size=(3, 3), stride=(1, 1), padding=(1, 1), bias=False)
    )
    (denselayer9): _DenseLayer(
      (norm1): BatchNorm2d(576, eps=1e-05, momentum=0.1, affine=True, track_running_stats=True)
      (relu1): ReLU(inplace=True)
      (conv1): Conv2d(576, 192, kernel_size=(1, 1), stride=(1, 1), bias=False)
      (norm2): BatchNorm2d(192, eps=1e-05, momentum=0.1, affine=True, track_running_stats=True)
      (relu2): ReLU(inplace=True)
      (conv2): Conv2d(192, 48, kernel_size=(3, 3), stride=(1, 1), padding=(1, 1), bias=False)
    )
    (denselayer10): _DenseLayer(
      (norm1): BatchNorm2d(624, eps=1e-05, momentum=0.1, affine=True, track_running_stats=True)
      (relu1): ReLU(inplace=True)
      (conv1): Conv2d(624, 192, kernel_size=(1, 1), stride=(1, 1), bias=False)
      (norm2): BatchNorm2d(192, eps=1e-05, momentum=0.1, affine=True, track_running_stats=True)
      (relu2): ReLU(inplace=True)
      (conv2): Conv2d(192, 48, kernel_size=(3, 3), stride=(1, 1), padding=(1, 1), bias=False)
    )
    (denselayer11): _DenseLayer(
      (norm1): BatchNorm2d(672, eps=1e-05, momentum=0.1, affine=True, track_running_stats=True)
      (relu1): ReLU(inplace=True)
      (conv1): Conv2d(672, 192, kernel_size=(1, 1), stride=(1, 1), bias=False)
      (norm2): BatchNorm2d(192, eps=1e-05, momentum=0.1, affine=True, track_running_stats=True)
      (relu2): ReLU(inplace=True)
      (conv2): Conv2d(192, 48, kernel_size=(3, 3), stride=(1, 1), padding=(1, 1), bias=False)
    )
    (denselayer12): _DenseLayer(
      (norm1): BatchNorm2d(720, eps=1e-05, momentum=0.1, affine=True, track_running_stats=True)
      (relu1): ReLU(inplace=True)
      (conv1): Conv2d(720, 192, kernel_size=(1, 1), stride=(1, 1), bias=False)
      (norm2): BatchNorm2d(192, eps=1e-05, momentum=0.1, affine=True, track_running_stats=True)
      (relu2): ReLU(inplace=True)
      (conv2): Conv2d(192, 48, kernel_size=(3, 3), stride=(1, 1), padding=(1, 1), bias=False)
    )
  )
  (transition2): _Transition(
    (norm): BatchNorm2d(768, eps=1e-05, momentum=0.1, affine=True, track_running_stats=True)
    (relu): ReLU(inplace=True)
    (conv): Conv2d(768, 384, kernel_size=(1, 1), stride=(1, 1), bias=False)
    (pool): AvgPool2d(kernel_size=2, stride=2, padding=0)
  )
  (denseblock3): _DenseBlock(
    (denselayer1): _DenseLayer(
      (norm1): BatchNorm2d(384, eps=1e-05, momentum=0.1, affine=True, track_running_stats=True)
      (relu1): ReLU(inplace=True)
      (conv1): Conv2d(384, 192, kernel_size=(1, 1), stride=(1, 1), bias=False)
      (norm2): BatchNorm2d(192, eps=1e-05, momentum=0.1, affine=True, track_running_stats=True)
      (relu2): ReLU(inplace=True)
      (conv2): Conv2d(192, 48, kernel_size=(3, 3), stride=(1, 1), padding=(1, 1), bias=False)
    )
    (denselayer2): _DenseLayer(
      (norm1): BatchNorm2d(432, eps=1e-05, momentum=0.1, affine=True, track_running_stats=True)
      (relu1): ReLU(inplace=True)
      (conv1): Conv2d(432, 192, kernel_size=(1, 1), stride=(1, 1), bias=False)
      (norm2): BatchNorm2d(192, eps=1e-05, momentum=0.1, affine=True, track_running_stats=True)
      (relu2): ReLU(inplace=True)
      (conv2): Conv2d(192, 48, kernel_size=(3, 3), stride=(1, 1), padding=(1, 1), bias=False)
    )
    (denselayer3): _DenseLayer(
      (norm1): BatchNorm2d(480, eps=1e-05, momentum=0.1, affine=True, track_running_stats=True)
      (relu1): ReLU(inplace=True)
      (conv1): Conv2d(480, 192, kernel_size=(1, 1), stride=(1, 1), bias=False)
      (norm2): BatchNorm2d(192, eps=1e-05, momentum=0.1, affine=True, track_running_stats=True)
      (relu2): ReLU(inplace=True)
      (conv2): Conv2d(192, 48, kernel_size=(3, 3), stride=(1, 1), padding=(1, 1), bias=False)
    )
    (denselayer4): _DenseLayer(
      (norm1): BatchNorm2d(528, eps=1e-05, momentum=0.1, affine=True, track_running_stats=True)
      (relu1): ReLU(inplace=True)
      (conv1): Conv2d(528, 192, kernel_size=(1, 1), stride=(1, 1), bias=False)
      (norm2): BatchNorm2d(192, eps=1e-05, momentum=0.1, affine=True, track_running_stats=True)
      (relu2): ReLU(inplace=True)
      (conv2): Conv2d(192, 48, kernel_size=(3, 3), stride=(1, 1), padding=(1, 1), bias=False)
    )
    (denselayer5): _DenseLayer(
      (norm1): BatchNorm2d(576, eps=1e-05, momentum=0.1, affine=True, track_running_stats=True)
      (relu1): ReLU(inplace=True)
      (conv1): Conv2d(576, 192, kernel_size=(1, 1), stride=(1, 1), bias=False)
      (norm2): BatchNorm2d(192, eps=1e-05, momentum=0.1, affine=True, track_running_stats=True)
      (relu2): ReLU(inplace=True)
      (conv2): Conv2d(192, 48, kernel_size=(3, 3), stride=(1, 1), padding=(1, 1), bias=False)
    )
    (denselayer6): _DenseLayer(
      (norm1): BatchNorm2d(624, eps=1e-05, momentum=0.1, affine=True, track_running_stats=True)
      (relu1): ReLU(inplace=True)
      (conv1): Conv2d(624, 192, kernel_size=(1, 1), stride=(1, 1), bias=False)
      (norm2): BatchNorm2d(192, eps=1e-05, momentum=0.1, affine=True, track_running_stats=True)
      (relu2): ReLU(inplace=True)
      (conv2): Conv2d(192, 48, kernel_size=(3, 3), stride=(1, 1), padding=(1, 1), bias=False)
    )
    (denselayer7): _DenseLayer(
      (norm1): BatchNorm2d(672, eps=1e-05, momentum=0.1, affine=True, track_running_stats=True)
      (relu1): ReLU(inplace=True)
      (conv1): Conv2d(672, 192, kernel_size=(1, 1), stride=(1, 1), bias=False)
      (norm2): BatchNorm2d(192, eps=1e-05, momentum=0.1, affine=True, track_running_stats=True)
      (relu2): ReLU(inplace=True)
      (conv2): Conv2d(192, 48, kernel_size=(3, 3), stride=(1, 1), padding=(1, 1), bias=False)
    )
    (denselayer8): _DenseLayer(
      (norm1): BatchNorm2d(720, eps=1e-05, momentum=0.1, affine=True, track_running_stats=True)
      (relu1): ReLU(inplace=True)
      (conv1): Conv2d(720, 192, kernel_size=(1, 1), stride=(1, 1), bias=False)
      (norm2): BatchNorm2d(192, eps=1e-05, momentum=0.1, affine=True, track_running_stats=True)
      (relu2): ReLU(inplace=True)
      (conv2): Conv2d(192, 48, kernel_size=(3, 3), stride=(1, 1), padding=(1, 1), bias=False)
    )
    (denselayer9): _DenseLayer(
      (norm1): BatchNorm2d(768, eps=1e-05, momentum=0.1, affine=True, track_running_stats=True)
      (relu1): ReLU(inplace=True)
      (conv1): Conv2d(768, 192, kernel_size=(1, 1), stride=(1, 1), bias=False)
      (norm2): BatchNorm2d(192, eps=1e-05, momentum=0.1, affine=True, track_running_stats=True)
      (relu2): ReLU(inplace=True)
      (conv2): Conv2d(192, 48, kernel_size=(3, 3), stride=(1, 1), padding=(1, 1), bias=False)
    )
    (denselayer10): _DenseLayer(
      (norm1): BatchNorm2d(816, eps=1e-05, momentum=0.1, affine=True, track_running_stats=True)
      (relu1): ReLU(inplace=True)
      (conv1): Conv2d(816, 192, kernel_size=(1, 1), stride=(1, 1), bias=False)
      (norm2): BatchNorm2d(192, eps=1e-05, momentum=0.1, affine=True, track_running_stats=True)
      (relu2): ReLU(inplace=True)
      (conv2): Conv2d(192, 48, kernel_size=(3, 3), stride=(1, 1), padding=(1, 1), bias=False)
    )
    (denselayer11): _DenseLayer(
      (norm1): BatchNorm2d(864, eps=1e-05, momentum=0.1, affine=True, track_running_stats=True)
      (relu1): ReLU(inplace=True)
      (conv1): Conv2d(864, 192, kernel_size=(1, 1), stride=(1, 1), bias=False)
      (norm2): BatchNorm2d(192, eps=1e-05, momentum=0.1, affine=True, track_running_stats=True)
      (relu2): ReLU(inplace=True)
      (conv2): Conv2d(192, 48, kernel_size=(3, 3), stride=(1, 1), padding=(1, 1), bias=False)
    )
    (denselayer12): _DenseLayer(
      (norm1): BatchNorm2d(912, eps=1e-05, momentum=0.1, affine=True, track_running_stats=True)
      (relu1): ReLU(inplace=True)
      (conv1): Conv2d(912, 192, kernel_size=(1, 1), stride=(1, 1), bias=False)
      (norm2): BatchNorm2d(192, eps=1e-05, momentum=0.1, affine=True, track_running_stats=True)
      (relu2): ReLU(inplace=True)
      (conv2): Conv2d(192, 48, kernel_size=(3, 3), stride=(1, 1), padding=(1, 1), bias=False)
    )
    (denselayer13): _DenseLayer(
      (norm1): BatchNorm2d(960, eps=1e-05, momentum=0.1, affine=True, track_running_stats=True)
      (relu1): ReLU(inplace=True)
      (conv1): Conv2d(960, 192, kernel_size=(1, 1), stride=(1, 1), bias=False)
      (norm2): BatchNorm2d(192, eps=1e-05, momentum=0.1, affine=True, track_running_stats=True)
      (relu2): ReLU(inplace=True)
      (conv2): Conv2d(192, 48, kernel_size=(3, 3), stride=(1, 1), padding=(1, 1), bias=False)
    )
    (denselayer14): _DenseLayer(
      (norm1): BatchNorm2d(1008, eps=1e-05, momentum=0.1, affine=True, track_running_stats=True)
      (relu1): ReLU(inplace=True)
      (conv1): Conv2d(1008, 192, kernel_size=(1, 1), stride=(1, 1), bias=False)
      (norm2): BatchNorm2d(192, eps=1e-05, momentum=0.1, affine=True, track_running_stats=True)
      (relu2): ReLU(inplace=True)
      (conv2): Conv2d(192, 48, kernel_size=(3, 3), stride=(1, 1), padding=(1, 1), bias=False)
    )
    (denselayer15): _DenseLayer(
      (norm1): BatchNorm2d(1056, eps=1e-05, momentum=0.1, affine=True, track_running_stats=True)
      (relu1): ReLU(inplace=True)
      (conv1): Conv2d(1056, 192, kernel_size=(1, 1), stride=(1, 1), bias=False)
      (norm2): BatchNorm2d(192, eps=1e-05, momentum=0.1, affine=True, track_running_stats=True)
      (relu2): ReLU(inplace=True)
      (conv2): Conv2d(192, 48, kernel_size=(3, 3), stride=(1, 1), padding=(1, 1), bias=False)
    )
    (denselayer16): _DenseLayer(
      (norm1): BatchNorm2d(1104, eps=1e-05, momentum=0.1, affine=True, track_running_stats=True)
      (relu1): ReLU(inplace=True)
      (conv1): Conv2d(1104, 192, kernel_size=(1, 1), stride=(1, 1), bias=False)
      (norm2): BatchNorm2d(192, eps=1e-05, momentum=0.1, affine=True, track_running_stats=True)
      (relu2): ReLU(inplace=True)
      (conv2): Conv2d(192, 48, kernel_size=(3, 3), stride=(1, 1), padding=(1, 1), bias=False)
    )
    (denselayer17): _DenseLayer(
      (norm1): BatchNorm2d(1152, eps=1e-05, momentum=0.1, affine=True, track_running_stats=True)
      (relu1): ReLU(inplace=True)
      (conv1): Conv2d(1152, 192, kernel_size=(1, 1), stride=(1, 1), bias=False)
      (norm2): BatchNorm2d(192, eps=1e-05, momentum=0.1, affine=True, track_running_stats=True)
      (relu2): ReLU(inplace=True)
      (conv2): Conv2d(192, 48, kernel_size=(3, 3), stride=(1, 1), padding=(1, 1), bias=False)
    )
    (denselayer18): _DenseLayer(
      (norm1): BatchNorm2d(1200, eps=1e-05, momentum=0.1, affine=True, track_running_stats=True)
      (relu1): ReLU(inplace=True)
      (conv1): Conv2d(1200, 192, kernel_size=(1, 1), stride=(1, 1), bias=False)
      (norm2): BatchNorm2d(192, eps=1e-05, momentum=0.1, affine=True, track_running_stats=True)
      (relu2): ReLU(inplace=True)
      (conv2): Conv2d(192, 48, kernel_size=(3, 3), stride=(1, 1), padding=(1, 1), bias=False)
    )
    (denselayer19): _DenseLayer(
      (norm1): BatchNorm2d(1248, eps=1e-05, momentum=0.1, affine=True, track_running_stats=True)
      (relu1): ReLU(inplace=True)
      (conv1): Conv2d(1248, 192, kernel_size=(1, 1), stride=(1, 1), bias=False)
      (norm2): BatchNorm2d(192, eps=1e-05, momentum=0.1, affine=True, track_running_stats=True)
      (relu2): ReLU(inplace=True)
      (conv2): Conv2d(192, 48, kernel_size=(3, 3), stride=(1, 1), padding=(1, 1), bias=False)
    )
    (denselayer20): _DenseLayer(
      (norm1): BatchNorm2d(1296, eps=1e-05, momentum=0.1, affine=True, track_running_stats=True)
      (relu1): ReLU(inplace=True)
      (conv1): Conv2d(1296, 192, kernel_size=(1, 1), stride=(1, 1), bias=False)
      (norm2): BatchNorm2d(192, eps=1e-05, momentum=0.1, affine=True, track_running_stats=True)
      (relu2): ReLU(inplace=True)
      (conv2): Conv2d(192, 48, kernel_size=(3, 3), stride=(1, 1), padding=(1, 1), bias=False)
    )
    (denselayer21): _DenseLayer(
      (norm1): BatchNorm2d(1344, eps=1e-05, momentum=0.1, affine=True, track_running_stats=True)
      (relu1): ReLU(inplace=True)
      (conv1): Conv2d(1344, 192, kernel_size=(1, 1), stride=(1, 1), bias=False)
      (norm2): BatchNorm2d(192, eps=1e-05, momentum=0.1, affine=True, track_running_stats=True)
      (relu2): ReLU(inplace=True)
      (conv2): Conv2d(192, 48, kernel_size=(3, 3), stride=(1, 1), padding=(1, 1), bias=False)
    )
    (denselayer22): _DenseLayer(
      (norm1): BatchNorm2d(1392, eps=1e-05, momentum=0.1, affine=True, track_running_stats=True)
      (relu1): ReLU(inplace=True)
      (conv1): Conv2d(1392, 192, kernel_size=(1, 1), stride=(1, 1), bias=False)
      (norm2): BatchNorm2d(192, eps=1e-05, momentum=0.1, affine=True, track_running_stats=True)
      (relu2): ReLU(inplace=True)
      (conv2): Conv2d(192, 48, kernel_size=(3, 3), stride=(1, 1), padding=(1, 1), bias=False)
    )
    (denselayer23): _DenseLayer(
      (norm1): BatchNorm2d(1440, eps=1e-05, momentum=0.1, affine=True, track_running_stats=True)
      (relu1): ReLU(inplace=True)
      (conv1): Conv2d(1440, 192, kernel_size=(1, 1), stride=(1, 1), bias=False)
      (norm2): BatchNorm2d(192, eps=1e-05, momentum=0.1, affine=True, track_running_stats=True)
      (relu2): ReLU(inplace=True)
      (conv2): Conv2d(192, 48, kernel_size=(3, 3), stride=(1, 1), padding=(1, 1), bias=False)
    )
    (denselayer24): _DenseLayer(
      (norm1): BatchNorm2d(1488, eps=1e-05, momentum=0.1, affine=True, track_running_stats=True)
      (relu1): ReLU(inplace=True)
      (conv1): Conv2d(1488, 192, kernel_size=(1, 1), stride=(1, 1), bias=False)
      (norm2): BatchNorm2d(192, eps=1e-05, momentum=0.1, affine=True, track_running_stats=True)
      (relu2): ReLU(inplace=True)
      (conv2): Conv2d(192, 48, kernel_size=(3, 3), stride=(1, 1), padding=(1, 1), bias=False)
    )
    (denselayer25): _DenseLayer(
      (norm1): BatchNorm2d(1536, eps=1e-05, momentum=0.1, affine=True, track_running_stats=True)
      (relu1): ReLU(inplace=True)
      (conv1): Conv2d(1536, 192, kernel_size=(1, 1), stride=(1, 1), bias=False)
      (norm2): BatchNorm2d(192, eps=1e-05, momentum=0.1, affine=True, track_running_stats=True)
      (relu2): ReLU(inplace=True)
      (conv2): Conv2d(192, 48, kernel_size=(3, 3), stride=(1, 1), padding=(1, 1), bias=False)
    )
    (denselayer26): _DenseLayer(
      (norm1): BatchNorm2d(1584, eps=1e-05, momentum=0.1, affine=True, track_running_stats=True)
      (relu1): ReLU(inplace=True)
      (conv1): Conv2d(1584, 192, kernel_size=(1, 1), stride=(1, 1), bias=False)
      (norm2): BatchNorm2d(192, eps=1e-05, momentum=0.1, affine=True, track_running_stats=True)
      (relu2): ReLU(inplace=True)
      (conv2): Conv2d(192, 48, kernel_size=(3, 3), stride=(1, 1), padding=(1, 1), bias=False)
    )
    (denselayer27): _DenseLayer(
      (norm1): BatchNorm2d(1632, eps=1e-05, momentum=0.1, affine=True, track_running_stats=True)
      (relu1): ReLU(inplace=True)
      (conv1): Conv2d(1632, 192, kernel_size=(1, 1), stride=(1, 1), bias=False)
      (norm2): BatchNorm2d(192, eps=1e-05, momentum=0.1, affine=True, track_running_stats=True)
      (relu2): ReLU(inplace=True)
      (conv2): Conv2d(192, 48, kernel_size=(3, 3), stride=(1, 1), padding=(1, 1), bias=False)
    )
    (denselayer28): _DenseLayer(
      (norm1): BatchNorm2d(1680, eps=1e-05, momentum=0.1, affine=True, track_running_stats=True)
      (relu1): ReLU(inplace=True)
      (conv1): Conv2d(1680, 192, kernel_size=(1, 1), stride=(1, 1), bias=False)
      (norm2): BatchNorm2d(192, eps=1e-05, momentum=0.1, affine=True, track_running_stats=True)
      (relu2): ReLU(inplace=True)
      (conv2): Conv2d(192, 48, kernel_size=(3, 3), stride=(1, 1), padding=(1, 1), bias=False)
    )
    (denselayer29): _DenseLayer(
      (norm1): BatchNorm2d(1728, eps=1e-05, momentum=0.1, affine=True, track_running_stats=True)
      (relu1): ReLU(inplace=True)
      (conv1): Conv2d(1728, 192, kernel_size=(1, 1), stride=(1, 1), bias=False)
      (norm2): BatchNorm2d(192, eps=1e-05, momentum=0.1, affine=True, track_running_stats=True)
      (relu2): ReLU(inplace=True)
      (conv2): Conv2d(192, 48, kernel_size=(3, 3), stride=(1, 1), padding=(1, 1), bias=False)
    )
    (denselayer30): _DenseLayer(
      (norm1): BatchNorm2d(1776, eps=1e-05, momentum=0.1, affine=True, track_running_stats=True)
      (relu1): ReLU(inplace=True)
      (conv1): Conv2d(1776, 192, kernel_size=(1, 1), stride=(1, 1), bias=False)
      (norm2): BatchNorm2d(192, eps=1e-05, momentum=0.1, affine=True, track_running_stats=True)
      (relu2): ReLU(inplace=True)
      (conv2): Conv2d(192, 48, kernel_size=(3, 3), stride=(1, 1), padding=(1, 1), bias=False)
    )
    (denselayer31): _DenseLayer(
      (norm1): BatchNorm2d(1824, eps=1e-05, momentum=0.1, affine=True, track_running_stats=True)
      (relu1): ReLU(inplace=True)
      (conv1): Conv2d(1824, 192, kernel_size=(1, 1), stride=(1, 1), bias=False)
      (norm2): BatchNorm2d(192, eps=1e-05, momentum=0.1, affine=True, track_running_stats=True)
      (relu2): ReLU(inplace=True)
      (conv2): Conv2d(192, 48, kernel_size=(3, 3), stride=(1, 1), padding=(1, 1), bias=False)
    )
    (denselayer32): _DenseLayer(
      (norm1): BatchNorm2d(1872, eps=1e-05, momentum=0.1, affine=True, track_running_stats=True)
      (relu1): ReLU(inplace=True)
      (conv1): Conv2d(1872, 192, kernel_size=(1, 1), stride=(1, 1), bias=False)
      (norm2): BatchNorm2d(192, eps=1e-05, momentum=0.1, affine=True, track_running_stats=True)
      (relu2): ReLU(inplace=True)
      (conv2): Conv2d(192, 48, kernel_size=(3, 3), stride=(1, 1), padding=(1, 1), bias=False)
    )
    (denselayer33): _DenseLayer(
      (norm1): BatchNorm2d(1920, eps=1e-05, momentum=0.1, affine=True, track_running_stats=True)
      (relu1): ReLU(inplace=True)
      (conv1): Conv2d(1920, 192, kernel_size=(1, 1), stride=(1, 1), bias=False)
      (norm2): BatchNorm2d(192, eps=1e-05, momentum=0.1, affine=True, track_running_stats=True)
      (relu2): ReLU(inplace=True)
      (conv2): Conv2d(192, 48, kernel_size=(3, 3), stride=(1, 1), padding=(1, 1), bias=False)
    )
    (denselayer34): _DenseLayer(
      (norm1): BatchNorm2d(1968, eps=1e-05, momentum=0.1, affine=True, track_running_stats=True)
      (relu1): ReLU(inplace=True)
      (conv1): Conv2d(1968, 192, kernel_size=(1, 1), stride=(1, 1), bias=False)
      (norm2): BatchNorm2d(192, eps=1e-05, momentum=0.1, affine=True, track_running_stats=True)
      (relu2): ReLU(inplace=True)
      (conv2): Conv2d(192, 48, kernel_size=(3, 3), stride=(1, 1), padding=(1, 1), bias=False)
    )
    (denselayer35): _DenseLayer(
      (norm1): BatchNorm2d(2016, eps=1e-05, momentum=0.1, affine=True, track_running_stats=True)
      (relu1): ReLU(inplace=True)
      (conv1): Conv2d(2016, 192, kernel_size=(1, 1), stride=(1, 1), bias=False)
      (norm2): BatchNorm2d(192, eps=1e-05, momentum=0.1, affine=True, track_running_stats=True)
      (relu2): ReLU(inplace=True)
      (conv2): Conv2d(192, 48, kernel_size=(3, 3), stride=(1, 1), padding=(1, 1), bias=False)
    )
    (denselayer36): _DenseLayer(
      (norm1): BatchNorm2d(2064, eps=1e-05, momentum=0.1, affine=True, track_running_stats=True)
      (relu1): ReLU(inplace=True)
      (conv1): Conv2d(2064, 192, kernel_size=(1, 1), stride=(1, 1), bias=False)
      (norm2): BatchNorm2d(192, eps=1e-05, momentum=0.1, affine=True, track_running_stats=True)
      (relu2): ReLU(inplace=True)
      (conv2): Conv2d(192, 48, kernel_size=(3, 3), stride=(1, 1), padding=(1, 1), bias=False)
    )
  )
  (transition3): _Transition(
    (norm): BatchNorm2d(2112, eps=1e-05, momentum=0.1, affine=True, track_running_stats=True)
    (relu): ReLU(inplace=True)
    (conv): Conv2d(2112, 1056, kernel_size=(1, 1), stride=(1, 1), bias=False)
    (pool): AvgPool2d(kernel_size=2, stride=2, padding=0)
  )
  (denseblock4): _DenseBlock(
    (denselayer1): _DenseLayer(
      (norm1): BatchNorm2d(1056, eps=1e-05, momentum=0.1, affine=True, track_running_stats=True)
      (relu1): ReLU(inplace=True)
      (conv1): Conv2d(1056, 192, kernel_size=(1, 1), stride=(1, 1), bias=False)
      (norm2): BatchNorm2d(192, eps=1e-05, momentum=0.1, affine=True, track_running_stats=True)
      (relu2): ReLU(inplace=True)
      (conv2): Conv2d(192, 48, kernel_size=(3, 3), stride=(1, 1), padding=(1, 1), bias=False)
    )
    (denselayer2): _DenseLayer(
      (norm1): BatchNorm2d(1104, eps=1e-05, momentum=0.1, affine=True, track_running_stats=True)
      (relu1): ReLU(inplace=True)
      (conv1): Conv2d(1104, 192, kernel_size=(1, 1), stride=(1, 1), bias=False)
      (norm2): BatchNorm2d(192, eps=1e-05, momentum=0.1, affine=True, track_running_stats=True)
      (relu2): ReLU(inplace=True)
      (conv2): Conv2d(192, 48, kernel_size=(3, 3), stride=(1, 1), padding=(1, 1), bias=False)
    )
    (denselayer3): _DenseLayer(
      (norm1): BatchNorm2d(1152, eps=1e-05, momentum=0.1, affine=True, track_running_stats=True)
      (relu1): ReLU(inplace=True)
      (conv1): Conv2d(1152, 192, kernel_size=(1, 1), stride=(1, 1), bias=False)
      (norm2): BatchNorm2d(192, eps=1e-05, momentum=0.1, affine=True, track_running_stats=True)
      (relu2): ReLU(inplace=True)
      (conv2): Conv2d(192, 48, kernel_size=(3, 3), stride=(1, 1), padding=(1, 1), bias=False)
    )
    (denselayer4): _DenseLayer(
      (norm1): BatchNorm2d(1200, eps=1e-05, momentum=0.1, affine=True, track_running_stats=True)
      (relu1): ReLU(inplace=True)
      (conv1): Conv2d(1200, 192, kernel_size=(1, 1), stride=(1, 1), bias=False)
      (norm2): BatchNorm2d(192, eps=1e-05, momentum=0.1, affine=True, track_running_stats=True)
      (relu2): ReLU(inplace=True)
      (conv2): Conv2d(192, 48, kernel_size=(3, 3), stride=(1, 1), padding=(1, 1), bias=False)
    )
    (denselayer5): _DenseLayer(
      (norm1): BatchNorm2d(1248, eps=1e-05, momentum=0.1, affine=True, track_running_stats=True)
      (relu1): ReLU(inplace=True)
      (conv1): Conv2d(1248, 192, kernel_size=(1, 1), stride=(1, 1), bias=False)
      (norm2): BatchNorm2d(192, eps=1e-05, momentum=0.1, affine=True, track_running_stats=True)
      (relu2): ReLU(inplace=True)
      (conv2): Conv2d(192, 48, kernel_size=(3, 3), stride=(1, 1), padding=(1, 1), bias=False)
    )
    (denselayer6): _DenseLayer(
      (norm1): BatchNorm2d(1296, eps=1e-05, momentum=0.1, affine=True, track_running_stats=True)
      (relu1): ReLU(inplace=True)
      (conv1): Conv2d(1296, 192, kernel_size=(1, 1), stride=(1, 1), bias=False)
      (norm2): BatchNorm2d(192, eps=1e-05, momentum=0.1, affine=True, track_running_stats=True)
      (relu2): ReLU(inplace=True)
      (conv2): Conv2d(192, 48, kernel_size=(3, 3), stride=(1, 1), padding=(1, 1), bias=False)
    )
    (denselayer7): _DenseLayer(
      (norm1): BatchNorm2d(1344, eps=1e-05, momentum=0.1, affine=True, track_running_stats=True)
      (relu1): ReLU(inplace=True)
      (conv1): Conv2d(1344, 192, kernel_size=(1, 1), stride=(1, 1), bias=False)
      (norm2): BatchNorm2d(192, eps=1e-05, momentum=0.1, affine=True, track_running_stats=True)
      (relu2): ReLU(inplace=True)
      (conv2): Conv2d(192, 48, kernel_size=(3, 3), stride=(1, 1), padding=(1, 1), bias=False)
    )
    (denselayer8): _DenseLayer(
      (norm1): BatchNorm2d(1392, eps=1e-05, momentum=0.1, affine=True, track_running_stats=True)
      (relu1): ReLU(inplace=True)
      (conv1): Conv2d(1392, 192, kernel_size=(1, 1), stride=(1, 1), bias=False)
      (norm2): BatchNorm2d(192, eps=1e-05, momentum=0.1, affine=True, track_running_stats=True)
      (relu2): ReLU(inplace=True)
      (conv2): Conv2d(192, 48, kernel_size=(3, 3), stride=(1, 1), padding=(1, 1), bias=False)
    )
    (denselayer9): _DenseLayer(
      (norm1): BatchNorm2d(1440, eps=1e-05, momentum=0.1, affine=True, track_running_stats=True)
      (relu1): ReLU(inplace=True)
      (conv1): Conv2d(1440, 192, kernel_size=(1, 1), stride=(1, 1), bias=False)
      (norm2): BatchNorm2d(192, eps=1e-05, momentum=0.1, affine=True, track_running_stats=True)
      (relu2): ReLU(inplace=True)
      (conv2): Conv2d(192, 48, kernel_size=(3, 3), stride=(1, 1), padding=(1, 1), bias=False)
    )
    (denselayer10): _DenseLayer(
      (norm1): BatchNorm2d(1488, eps=1e-05, momentum=0.1, affine=True, track_running_stats=True)
      (relu1): ReLU(inplace=True)
      (conv1): Conv2d(1488, 192, kernel_size=(1, 1), stride=(1, 1), bias=False)
      (norm2): BatchNorm2d(192, eps=1e-05, momentum=0.1, affine=True, track_running_stats=True)
      (relu2): ReLU(inplace=True)
      (conv2): Conv2d(192, 48, kernel_size=(3, 3), stride=(1, 1), padding=(1, 1), bias=False)
    )
    (denselayer11): _DenseLayer(
      (norm1): BatchNorm2d(1536, eps=1e-05, momentum=0.1, affine=True, track_running_stats=True)
      (relu1): ReLU(inplace=True)
      (conv1): Conv2d(1536, 192, kernel_size=(1, 1), stride=(1, 1), bias=False)
      (norm2): BatchNorm2d(192, eps=1e-05, momentum=0.1, affine=True, track_running_stats=True)
      (relu2): ReLU(inplace=True)
      (conv2): Conv2d(192, 48, kernel_size=(3, 3), stride=(1, 1), padding=(1, 1), bias=False)
    )
    (denselayer12): _DenseLayer(
      (norm1): BatchNorm2d(1584, eps=1e-05, momentum=0.1, affine=True, track_running_stats=True)
      (relu1): ReLU(inplace=True)
      (conv1): Conv2d(1584, 192, kernel_size=(1, 1), stride=(1, 1), bias=False)
      (norm2): BatchNorm2d(192, eps=1e-05, momentum=0.1, affine=True, track_running_stats=True)
      (relu2): ReLU(inplace=True)
      (conv2): Conv2d(192, 48, kernel_size=(3, 3), stride=(1, 1), padding=(1, 1), bias=False)
    )
    (denselayer13): _DenseLayer(
      (norm1): BatchNorm2d(1632, eps=1e-05, momentum=0.1, affine=True, track_running_stats=True)
      (relu1): ReLU(inplace=True)
      (conv1): Conv2d(1632, 192, kernel_size=(1, 1), stride=(1, 1), bias=False)
      (norm2): BatchNorm2d(192, eps=1e-05, momentum=0.1, affine=True, track_running_stats=True)
      (relu2): ReLU(inplace=True)
      (conv2): Conv2d(192, 48, kernel_size=(3, 3), stride=(1, 1), padding=(1, 1), bias=False)
    )
    (denselayer14): _DenseLayer(
      (norm1): BatchNorm2d(1680, eps=1e-05, momentum=0.1, affine=True, track_running_stats=True)
      (relu1): ReLU(inplace=True)
      (conv1): Conv2d(1680, 192, kernel_size=(1, 1), stride=(1, 1), bias=False)
      (norm2): BatchNorm2d(192, eps=1e-05, momentum=0.1, affine=True, track_running_stats=True)
      (relu2): ReLU(inplace=True)
      (conv2): Conv2d(192, 48, kernel_size=(3, 3), stride=(1, 1), padding=(1, 1), bias=False)
    )
    (denselayer15): _DenseLayer(
      (norm1): BatchNorm2d(1728, eps=1e-05, momentum=0.1, affine=True, track_running_stats=True)
      (relu1): ReLU(inplace=True)
      (conv1): Conv2d(1728, 192, kernel_size=(1, 1), stride=(1, 1), bias=False)
      (norm2): BatchNorm2d(192, eps=1e-05, momentum=0.1, affine=True, track_running_stats=True)
      (relu2): ReLU(inplace=True)
      (conv2): Conv2d(192, 48, kernel_size=(3, 3), stride=(1, 1), padding=(1, 1), bias=False)
    )
    (denselayer16): _DenseLayer(
      (norm1): BatchNorm2d(1776, eps=1e-05, momentum=0.1, affine=True, track_running_stats=True)
      (relu1): ReLU(inplace=True)
      (conv1): Conv2d(1776, 192, kernel_size=(1, 1), stride=(1, 1), bias=False)
      (norm2): BatchNorm2d(192, eps=1e-05, momentum=0.1, affine=True, track_running_stats=True)
      (relu2): ReLU(inplace=True)
      (conv2): Conv2d(192, 48, kernel_size=(3, 3), stride=(1, 1), padding=(1, 1), bias=False)
    )
    (denselayer17): _DenseLayer(
      (norm1): BatchNorm2d(1824, eps=1e-05, momentum=0.1, affine=True, track_running_stats=True)
      (relu1): ReLU(inplace=True)
      (conv1): Conv2d(1824, 192, kernel_size=(1, 1), stride=(1, 1), bias=False)
      (norm2): BatchNorm2d(192, eps=1e-05, momentum=0.1, affine=True, track_running_stats=True)
      (relu2): ReLU(inplace=True)
      (conv2): Conv2d(192, 48, kernel_size=(3, 3), stride=(1, 1), padding=(1, 1), bias=False)
    )
    (denselayer18): _DenseLayer(
      (norm1): BatchNorm2d(1872, eps=1e-05, momentum=0.1, affine=True, track_running_stats=True)
      (relu1): ReLU(inplace=True)
      (conv1): Conv2d(1872, 192, kernel_size=(1, 1), stride=(1, 1), bias=False)
      (norm2): BatchNorm2d(192, eps=1e-05, momentum=0.1, affine=True, track_running_stats=True)
      (relu2): ReLU(inplace=True)
      (conv2): Conv2d(192, 48, kernel_size=(3, 3), stride=(1, 1), padding=(1, 1), bias=False)
    )
    (denselayer19): _DenseLayer(
      (norm1): BatchNorm2d(1920, eps=1e-05, momentum=0.1, affine=True, track_running_stats=True)
      (relu1): ReLU(inplace=True)
      (conv1): Conv2d(1920, 192, kernel_size=(1, 1), stride=(1, 1), bias=False)
      (norm2): BatchNorm2d(192, eps=1e-05, momentum=0.1, affine=True, track_running_stats=True)
      (relu2): ReLU(inplace=True)
      (conv2): Conv2d(192, 48, kernel_size=(3, 3), stride=(1, 1), padding=(1, 1), bias=False)
    )
    (denselayer20): _DenseLayer(
      (norm1): BatchNorm2d(1968, eps=1e-05, momentum=0.1, affine=True, track_running_stats=True)
      (relu1): ReLU(inplace=True)
      (conv1): Conv2d(1968, 192, kernel_size=(1, 1), stride=(1, 1), bias=False)
      (norm2): BatchNorm2d(192, eps=1e-05, momentum=0.1, affine=True, track_running_stats=True)
      (relu2): ReLU(inplace=True)
      (conv2): Conv2d(192, 48, kernel_size=(3, 3), stride=(1, 1), padding=(1, 1), bias=False)
    )
    (denselayer21): _DenseLayer(
      (norm1): BatchNorm2d(2016, eps=1e-05, momentum=0.1, affine=True, track_running_stats=True)
      (relu1): ReLU(inplace=True)
      (conv1): Conv2d(2016, 192, kernel_size=(1, 1), stride=(1, 1), bias=False)
      (norm2): BatchNorm2d(192, eps=1e-05, momentum=0.1, affine=True, track_running_stats=True)
      (relu2): ReLU(inplace=True)
      (conv2): Conv2d(192, 48, kernel_size=(3, 3), stride=(1, 1), padding=(1, 1), bias=False)
    )
    (denselayer22): _DenseLayer(
      (norm1): BatchNorm2d(2064, eps=1e-05, momentum=0.1, affine=True, track_running_stats=True)
      (relu1): ReLU(inplace=True)
      (conv1): Conv2d(2064, 192, kernel_size=(1, 1), stride=(1, 1), bias=False)
…
      (norm1): LayerNorm((512,), eps=1e-05, elementwise_affine=True)
      (attn): ShiftedWindowAttentionV2(
        (qkv): Linear(in_features=512, out_features=1536, bias=True)
        (proj): Linear(in_features=512, out_features=512, bias=True)
        (cpb_mlp): Sequential(
          (0): Linear(in_features=2, out_features=512, bias=True)
          (1): ReLU(inplace=True)
          (2): Linear(in_features=512, out_features=16, bias=False)
        )
      )
      (stochastic_depth): StochasticDepth(p=0.32608695652173914, mode=row)
      (norm2): LayerNorm((512,), eps=1e-05, elementwise_affine=True)
      (mlp): MLP(
        (0): Linear(in_features=512, out_features=2048, bias=True)
        (1): GELU(approximate='none')
        (2): Dropout(p=0.0, inplace=False)
        (3): Linear(in_features=2048, out_features=512, bias=True)
        (4): Dropout(p=0.0, inplace=False)
      )
    )
    (12): SwinTransformerBlockV2(
      (norm1): LayerNorm((512,), eps=1e-05, elementwise_affine=True)
      (attn): ShiftedWindowAttentionV2(
        (qkv): Linear(in_features=512, out_features=1536, bias=True)
        (proj): Linear(in_features=512, out_features=512, bias=True)
        (cpb_mlp): Sequential(
          (0): Linear(in_features=2, out_features=512, bias=True)
          (1): ReLU(inplace=True)
          (2): Linear(in_features=512, out_features=16, bias=False)
        )
      )
      (stochastic_depth): StochasticDepth(p=0.34782608695652173, mode=row)
      (norm2): LayerNorm((512,), eps=1e-05, elementwise_affine=True)
      (mlp): MLP(
        (0): Linear(in_features=512, out_features=2048, bias=True)
        (1): GELU(approximate='none')
        (2): Dropout(p=0.0, inplace=False)
        (3): Linear(in_features=2048, out_features=512, bias=True)
        (4): Dropout(p=0.0, inplace=False)
      )
    )
    (13): SwinTransformerBlockV2(
      (norm1): LayerNorm((512,), eps=1e-05, elementwise_affine=True)
      (attn): ShiftedWindowAttentionV2(
        (qkv): Linear(in_features=512, out_features=1536, bias=True)
        (proj): Linear(in_features=512, out_features=512, bias=True)
        (cpb_mlp): Sequential(
          (0): Linear(in_features=2, out_features=512, bias=True)
          (1): ReLU(inplace=True)
          (2): Linear(in_features=512, out_features=16, bias=False)
        )
      )
      (stochastic_depth): StochasticDepth(p=0.3695652173913043, mode=row)
      (norm2): LayerNorm((512,), eps=1e-05, elementwise_affine=True)
      (mlp): MLP(
        (0): Linear(in_features=512, out_features=2048, bias=True)
        (1): GELU(approximate='none')
        (2): Dropout(p=0.0, inplace=False)
        (3): Linear(in_features=2048, out_features=512, bias=True)
        (4): Dropout(p=0.0, inplace=False)
      )
    )
    (14): SwinTransformerBlockV2(
      (norm1): LayerNorm((512,), eps=1e-05, elementwise_affine=True)
      (attn): ShiftedWindowAttentionV2(
        (qkv): Linear(in_features=512, out_features=1536, bias=True)
        (proj): Linear(in_features=512, out_features=512, bias=True)
        (cpb_mlp): Sequential(
          (0): Linear(in_features=2, out_features=512, bias=True)
          (1): ReLU(inplace=True)
          (2): Linear(in_features=512, out_features=16, bias=False)
        )
      )
      (stochastic_depth): StochasticDepth(p=0.391304347826087, mode=row)
      (norm2): LayerNorm((512,), eps=1e-05, elementwise_affine=True)
      (mlp): MLP(
        (0): Linear(in_features=512, out_features=2048, bias=True)
        (1): GELU(approximate='none')
        (2): Dropout(p=0.0, inplace=False)
        (3): Linear(in_features=2048, out_features=512, bias=True)
        (4): Dropout(p=0.0, inplace=False)
      )
    )
    (15): SwinTransformerBlockV2(
      (norm1): LayerNorm((512,), eps=1e-05, elementwise_affine=True)
      (attn): ShiftedWindowAttentionV2(
        (qkv): Linear(in_features=512, out_features=1536, bias=True)
        (proj): Linear(in_features=512, out_features=512, bias=True)
        (cpb_mlp): Sequential(
          (0): Linear(in_features=2, out_features=512, bias=True)
          (1): ReLU(inplace=True)
          (2): Linear(in_features=512, out_features=16, bias=False)
        )
      )
      (stochastic_depth): StochasticDepth(p=0.41304347826086957, mode=row)
      (norm2): LayerNorm((512,), eps=1e-05, elementwise_affine=True)
      (mlp): MLP(
        (0): Linear(in_features=512, out_features=2048, bias=True)
        (1): GELU(approximate='none')
        (2): Dropout(p=0.0, inplace=False)
        (3): Linear(in_features=2048, out_features=512, bias=True)
        (4): Dropout(p=0.0, inplace=False)
      )
    )
    (16): SwinTransformerBlockV2(
      (norm1): LayerNorm((512,), eps=1e-05, elementwise_affine=True)
      (attn): ShiftedWindowAttentionV2(
        (qkv): Linear(in_features=512, out_features=1536, bias=True)
        (proj): Linear(in_features=512, out_features=512, bias=True)
        (cpb_mlp): Sequential(
          (0): Linear(in_features=2, out_features=512, bias=True)
          (1): ReLU(inplace=True)
          (2): Linear(in_features=512, out_features=16, bias=False)
        )
      )
      (stochastic_depth): StochasticDepth(p=0.43478260869565216, mode=row)
      (norm2): LayerNorm((512,), eps=1e-05, elementwise_affine=True)
      (mlp): MLP(
        (0): Linear(in_features=512, out_features=2048, bias=True)
        (1): GELU(approximate='none')
        (2): Dropout(p=0.0, inplace=False)
        (3): Linear(in_features=2048, out_features=512, bias=True)
        (4): Dropout(p=0.0, inplace=False)
      )
    )
    (17): SwinTransformerBlockV2(
      (norm1): LayerNorm((512,), eps=1e-05, elementwise_affine=True)
      (attn): ShiftedWindowAttentionV2(
        (qkv): Linear(in_features=512, out_features=1536, bias=True)
        (proj): Linear(in_features=512, out_features=512, bias=True)
        (cpb_mlp): Sequential(
          (0): Linear(in_features=2, out_features=512, bias=True)
          (1): ReLU(inplace=True)
          (2): Linear(in_features=512, out_features=16, bias=False)
        )
      )
      (stochastic_depth): StochasticDepth(p=0.45652173913043476, mode=row)
      (norm2): LayerNorm((512,), eps=1e-05, elementwise_affine=True)
      (mlp): MLP(
        (0): Linear(in_features=512, out_features=2048, bias=True)
        (1): GELU(approximate='none')
        (2): Dropout(p=0.0, inplace=False)
        (3): Linear(in_features=2048, out_features=512, bias=True)
        (4): Dropout(p=0.0, inplace=False)
      )
    )
  )
  (6): PatchMergingV2(
    (reduction): Linear(in_features=2048, out_features=1024, bias=False)
    (norm): LayerNorm((1024,), eps=1e-05, elementwise_affine=True)
  )
  (7): Sequential(
    (0): SwinTransformerBlockV2(
      (norm1): LayerNorm((1024,), eps=1e-05, elementwise_affine=True)
      (attn): ShiftedWindowAttentionV2(
        (qkv): Linear(in_features=1024, out_features=3072, bias=True)
        (proj): Linear(in_features=1024, out_features=1024, bias=True)
        (cpb_mlp): Sequential(
          (0): Linear(in_features=2, out_features=512, bias=True)
          (1): ReLU(inplace=True)
          (2): Linear(in_features=512, out_features=32, bias=False)
        )
      )
      (stochastic_depth): StochasticDepth(p=0.4782608695652174, mode=row)
      (norm2): LayerNorm((1024,), eps=1e-05, elementwise_affine=True)
      (mlp): MLP(
        (0): Linear(in_features=1024, out_features=4096, bias=True)
        (1): GELU(approximate='none')
        (2): Dropout(p=0.0, inplace=False)
        (3): Linear(in_features=4096, out_features=1024, bias=True)
        (4): Dropout(p=0.0, inplace=False)
      )
    )
    (1): SwinTransformerBlockV2(
      (norm1): LayerNorm((1024,), eps=1e-05, elementwise_affine=True)
      (attn): ShiftedWindowAttentionV2(
        (qkv): Linear(in_features=1024, out_features=3072, bias=True)
        (proj): Linear(in_features=1024, out_features=1024, bias=True)
        (cpb_mlp): Sequential(
          (0): Linear(in_features=2, out_features=512, bias=True)
          (1): ReLU(inplace=True)
          (2): Linear(in_features=512, out_features=32, bias=False)
        )
      )
      (stochastic_depth): StochasticDepth(p=0.5, mode=row)
      (norm2): LayerNorm((1024,), eps=1e-05, elementwise_affine=True)
      (mlp): MLP(
        (0): Linear(in_features=1024, out_features=4096, bias=True)
        (1): GELU(approximate='none')
        (2): Dropout(p=0.0, inplace=False)
        (3): Linear(in_features=4096, out_features=1024, bias=True)
        (4): Dropout(p=0.0, inplace=False)
      )
    )
  )
), LayerNorm((1024,), eps=1e-05, elementwise_affine=True), Permute(), AdaptiveAvgPool2d(output_size=1), Flatten(start_dim=1, end_dim=-1), Linear(in_features=1024, out_features=1000, bias=True), ReLU(inplace=True), Dropout(p=0.5, inplace=False), Linear(in_features=1000, out_features=2, bias=True)]


##########################################################################################3


maxvit_t
[Sequential(
  (0): Conv2dNormActivation(
    (0): Conv2d(3, 64, kernel_size=(3, 3), stride=(2, 2), padding=(1, 1), bias=False)
    (1): BatchNorm2d(64, eps=0.001, momentum=0.99, affine=True, track_running_stats=True)
    (2): GELU(approximate='none')
  )
  (1): Conv2dNormActivation(
    (0): Conv2d(64, 64, kernel_size=(3, 3), stride=(1, 1), padding=(1, 1))
  )
), ModuleList(
  (0): MaxVitBlock(
    (layers): ModuleList(
      (0): MaxVitLayer(
        (layers): Sequential(
          (MBconv): MBConv(
            (proj): Sequential(
              (0): AvgPool2d(kernel_size=3, stride=2, padding=1)
              (1): Conv2d(64, 64, kernel_size=(1, 1), stride=(1, 1))
            )
            (stochastic_depth): Identity()
            (layers): Sequential(
              (pre_norm): BatchNorm2d(64, eps=0.001, momentum=0.99, affine=True, track_running_stats=True)
              (conv_a): Conv2dNormActivation(
                (0): Conv2d(64, 256, kernel_size=(1, 1), stride=(1, 1), bias=False)
                (1): BatchNorm2d(256, eps=0.001, momentum=0.99, affine=True, track_running_stats=True)
                (2): GELU(approximate='none')
              )
              (conv_b): Conv2dNormActivation(
                (0): Conv2d(256, 256, kernel_size=(3, 3), stride=(2, 2), padding=(1, 1), groups=256, bias=False)
                (1): BatchNorm2d(256, eps=0.001, momentum=0.99, affine=True, track_running_stats=True)
                (2): GELU(approximate='none')
              )
              (squeeze_excitation): SqueezeExcitation(
                (avgpool): AdaptiveAvgPool2d(output_size=1)
                (fc1): Conv2d(256, 16, kernel_size=(1, 1), stride=(1, 1))
                (fc2): Conv2d(16, 256, kernel_size=(1, 1), stride=(1, 1))
                (activation): SiLU()
                (scale_activation): Sigmoid()
              )
              (conv_c): Conv2d(256, 64, kernel_size=(1, 1), stride=(1, 1))
            )
          )
          (window_attention): PartitionAttentionLayer(
            (partition_op): WindowPartition()
            (departition_op): WindowDepartition()
            (partition_swap): Identity()
            (departition_swap): Identity()
            (attn_layer): Sequential(
              (0): LayerNorm((64,), eps=1e-05, elementwise_affine=True)
              (1): RelativePositionalMultiHeadAttention(
                (to_qkv): Linear(in_features=64, out_features=192, bias=True)
                (merge): Linear(in_features=64, out_features=64, bias=True)
              )
              (2): Dropout(p=0.0, inplace=False)
            )
            (mlp_layer): Sequential(
              (0): LayerNorm((64,), eps=1e-05, elementwise_affine=True)
              (1): Linear(in_features=64, out_features=256, bias=True)
              (2): GELU(approximate='none')
              (3): Linear(in_features=256, out_features=64, bias=True)
              (4): Dropout(p=0.0, inplace=False)
            )
            (stochastic_dropout): StochasticDepth(p=0.0, mode=row)
          )
          (grid_attention): PartitionAttentionLayer(
            (partition_op): WindowPartition()
            (departition_op): WindowDepartition()
            (partition_swap): SwapAxes()
            (departition_swap): SwapAxes()
            (attn_layer): Sequential(
              (0): LayerNorm((64,), eps=1e-05, elementwise_affine=True)
              (1): RelativePositionalMultiHeadAttention(
                (to_qkv): Linear(in_features=64, out_features=192, bias=True)
                (merge): Linear(in_features=64, out_features=64, bias=True)
              )
              (2): Dropout(p=0.0, inplace=False)
            )
            (mlp_layer): Sequential(
              (0): LayerNorm((64,), eps=1e-05, elementwise_affine=True)
              (1): Linear(in_features=64, out_features=256, bias=True)
              (2): GELU(approximate='none')
              (3): Linear(in_features=256, out_features=64, bias=True)
              (4): Dropout(p=0.0, inplace=False)
            )
            (stochastic_dropout): StochasticDepth(p=0.0, mode=row)
          )
        )
      )
      (1): MaxVitLayer(
        (layers): Sequential(
          (MBconv): MBConv(
            (proj): Identity()
            (stochastic_depth): StochasticDepth(p=0.02, mode=row)
            (layers): Sequential(
              (pre_norm): BatchNorm2d(64, eps=0.001, momentum=0.99, affine=True, track_running_stats=True)
              (conv_a): Conv2dNormActivation(
                (0): Conv2d(64, 256, kernel_size=(1, 1), stride=(1, 1), bias=False)
                (1): BatchNorm2d(256, eps=0.001, momentum=0.99, affine=True, track_running_stats=True)
                (2): GELU(approximate='none')
              )
              (conv_b): Conv2dNormActivation(
                (0): Conv2d(256, 256, kernel_size=(3, 3), stride=(1, 1), padding=(1, 1), groups=256, bias=False)
                (1): BatchNorm2d(256, eps=0.001, momentum=0.99, affine=True, track_running_stats=True)
                (2): GELU(approximate='none')
              )
              (squeeze_excitation): SqueezeExcitation(
                (avgpool): AdaptiveAvgPool2d(output_size=1)
                (fc1): Conv2d(256, 16, kernel_size=(1, 1), stride=(1, 1))
                (fc2): Conv2d(16, 256, kernel_size=(1, 1), stride=(1, 1))
                (activation): SiLU()
                (scale_activation): Sigmoid()
              )
              (conv_c): Conv2d(256, 64, kernel_size=(1, 1), stride=(1, 1))
            )
          )
          (window_attention): PartitionAttentionLayer(
            (partition_op): WindowPartition()
            (departition_op): WindowDepartition()
            (partition_swap): Identity()
            (departition_swap): Identity()
            (attn_layer): Sequential(
              (0): LayerNorm((64,), eps=1e-05, elementwise_affine=True)
              (1): RelativePositionalMultiHeadAttention(
                (to_qkv): Linear(in_features=64, out_features=192, bias=True)
                (merge): Linear(in_features=64, out_features=64, bias=True)
              )
              (2): Dropout(p=0.0, inplace=False)
            )
            (mlp_layer): Sequential(
              (0): LayerNorm((64,), eps=1e-05, elementwise_affine=True)
              (1): Linear(in_features=64, out_features=256, bias=True)
              (2): GELU(approximate='none')
              (3): Linear(in_features=256, out_features=64, bias=True)
              (4): Dropout(p=0.0, inplace=False)
            )
            (stochastic_dropout): StochasticDepth(p=0.02, mode=row)
          )
          (grid_attention): PartitionAttentionLayer(
            (partition_op): WindowPartition()
            (departition_op): WindowDepartition()
            (partition_swap): SwapAxes()
            (departition_swap): SwapAxes()
            (attn_layer): Sequential(
              (0): LayerNorm((64,), eps=1e-05, elementwise_affine=True)
              (1): RelativePositionalMultiHeadAttention(
                (to_qkv): Linear(in_features=64, out_features=192, bias=True)
                (merge): Linear(in_features=64, out_features=64, bias=True)
              )
              (2): Dropout(p=0.0, inplace=False)
            )
            (mlp_layer): Sequential(
              (0): LayerNorm((64,), eps=1e-05, elementwise_affine=True)
              (1): Linear(in_features=64, out_features=256, bias=True)
              (2): GELU(approximate='none')
              (3): Linear(in_features=256, out_features=64, bias=True)
              (4): Dropout(p=0.0, inplace=False)
            )
            (stochastic_dropout): StochasticDepth(p=0.02, mode=row)
          )
        )
      )
    )
  )
  (1): MaxVitBlock(
    (layers): ModuleList(
      (0): MaxVitLayer(
        (layers): Sequential(
          (MBconv): MBConv(
            (proj): Sequential(
              (0): AvgPool2d(kernel_size=3, stride=2, padding=1)
              (1): Conv2d(64, 128, kernel_size=(1, 1), stride=(1, 1))
            )
            (stochastic_depth): StochasticDepth(p=0.04, mode=row)
            (layers): Sequential(
              (pre_norm): BatchNorm2d(64, eps=0.001, momentum=0.99, affine=True, track_running_stats=True)
              (conv_a): Conv2dNormActivation(
                (0): Conv2d(64, 512, kernel_size=(1, 1), stride=(1, 1), bias=False)
                (1): BatchNorm2d(512, eps=0.001, momentum=0.99, affine=True, track_running_stats=True)
                (2): GELU(approximate='none')
              )
              (conv_b): Conv2dNormActivation(
                (0): Conv2d(512, 512, kernel_size=(3, 3), stride=(2, 2), padding=(1, 1), groups=512, bias=False)
                (1): BatchNorm2d(512, eps=0.001, momentum=0.99, affine=True, track_running_stats=True)
                (2): GELU(approximate='none')
              )
              (squeeze_excitation): SqueezeExcitation(
                (avgpool): AdaptiveAvgPool2d(output_size=1)
                (fc1): Conv2d(512, 32, kernel_size=(1, 1), stride=(1, 1))
                (fc2): Conv2d(32, 512, kernel_size=(1, 1), stride=(1, 1))
                (activation): SiLU()
                (scale_activation): Sigmoid()
              )
              (conv_c): Conv2d(512, 128, kernel_size=(1, 1), stride=(1, 1))
            )
          )
          (window_attention): PartitionAttentionLayer(
            (partition_op): WindowPartition()
            (departition_op): WindowDepartition()
            (partition_swap): Identity()
            (departition_swap): Identity()
            (attn_layer): Sequential(
              (0): LayerNorm((128,), eps=1e-05, elementwise_affine=True)
              (1): RelativePositionalMultiHeadAttention(
                (to_qkv): Linear(in_features=128, out_features=384, bias=True)
                (merge): Linear(in_features=128, out_features=128, bias=True)
              )
              (2): Dropout(p=0.0, inplace=False)
            )
            (mlp_layer): Sequential(
              (0): LayerNorm((128,), eps=1e-05, elementwise_affine=True)
              (1): Linear(in_features=128, out_features=512, bias=True)
              (2): GELU(approximate='none')
              (3): Linear(in_features=512, out_features=128, bias=True)
              (4): Dropout(p=0.0, inplace=False)
            )
            (stochastic_dropout): StochasticDepth(p=0.04, mode=row)
          )
          (grid_attention): PartitionAttentionLayer(
            (partition_op): WindowPartition()
            (departition_op): WindowDepartition()
            (partition_swap): SwapAxes()
            (departition_swap): SwapAxes()
            (attn_layer): Sequential(
              (0): LayerNorm((128,), eps=1e-05, elementwise_affine=True)
              (1): RelativePositionalMultiHeadAttention(
                (to_qkv): Linear(in_features=128, out_features=384, bias=True)
                (merge): Linear(in_features=128, out_features=128, bias=True)
              )
              (2): Dropout(p=0.0, inplace=False)
            )
            (mlp_layer): Sequential(
              (0): LayerNorm((128,), eps=1e-05, elementwise_affine=True)
              (1): Linear(in_features=128, out_features=512, bias=True)
              (2): GELU(approximate='none')
              (3): Linear(in_features=512, out_features=128, bias=True)
              (4): Dropout(p=0.0, inplace=False)
            )
            (stochastic_dropout): StochasticDepth(p=0.04, mode=row)
          )
        )
      )
      (1): MaxVitLayer(
        (layers): Sequential(
          (MBconv): MBConv(
            (proj): Identity()
            (stochastic_depth): StochasticDepth(p=0.06, mode=row)
            (layers): Sequential(
              (pre_norm): BatchNorm2d(128, eps=0.001, momentum=0.99, affine=True, track_running_stats=True)
              (conv_a): Conv2dNormActivation(
                (0): Conv2d(128, 512, kernel_size=(1, 1), stride=(1, 1), bias=False)
                (1): BatchNorm2d(512, eps=0.001, momentum=0.99, affine=True, track_running_stats=True)
                (2): GELU(approximate='none')
              )
              (conv_b): Conv2dNormActivation(
                (0): Conv2d(512, 512, kernel_size=(3, 3), stride=(1, 1), padding=(1, 1), groups=512, bias=False)
                (1): BatchNorm2d(512, eps=0.001, momentum=0.99, affine=True, track_running_stats=True)
                (2): GELU(approximate='none')
              )
              (squeeze_excitation): SqueezeExcitation(
                (avgpool): AdaptiveAvgPool2d(output_size=1)
                (fc1): Conv2d(512, 32, kernel_size=(1, 1), stride=(1, 1))
                (fc2): Conv2d(32, 512, kernel_size=(1, 1), stride=(1, 1))
                (activation): SiLU()
                (scale_activation): Sigmoid()
              )
              (conv_c): Conv2d(512, 128, kernel_size=(1, 1), stride=(1, 1))
            )
          )
          (window_attention): PartitionAttentionLayer(
            (partition_op): WindowPartition()
            (departition_op): WindowDepartition()
            (partition_swap): Identity()
            (departition_swap): Identity()
            (attn_layer): Sequential(
              (0): LayerNorm((128,), eps=1e-05, elementwise_affine=True)
              (1): RelativePositionalMultiHeadAttention(
                (to_qkv): Linear(in_features=128, out_features=384, bias=True)
                (merge): Linear(in_features=128, out_features=128, bias=True)
              )
              (2): Dropout(p=0.0, inplace=False)
            )
            (mlp_layer): Sequential(
              (0): LayerNorm((128,), eps=1e-05, elementwise_affine=True)
              (1): Linear(in_features=128, out_features=512, bias=True)
              (2): GELU(approximate='none')
              (3): Linear(in_features=512, out_features=128, bias=True)
              (4): Dropout(p=0.0, inplace=False)
            )
            (stochastic_dropout): StochasticDepth(p=0.06, mode=row)
          )
          (grid_attention): PartitionAttentionLayer(
            (partition_op): WindowPartition()
            (departition_op): WindowDepartition()
            (partition_swap): SwapAxes()
            (departition_swap): SwapAxes()
            (attn_layer): Sequential(
              (0): LayerNorm((128,), eps=1e-05, elementwise_affine=True)
              (1): RelativePositionalMultiHeadAttention(
                (to_qkv): Linear(in_features=128, out_features=384, bias=True)
                (merge): Linear(in_features=128, out_features=128, bias=True)
              )
              (2): Dropout(p=0.0, inplace=False)
            )
            (mlp_layer): Sequential(
              (0): LayerNorm((128,), eps=1e-05, elementwise_affine=True)
              (1): Linear(in_features=128, out_features=512, bias=True)
              (2): GELU(approximate='none')
              (3): Linear(in_features=512, out_features=128, bias=True)
              (4): Dropout(p=0.0, inplace=False)
            )
            (stochastic_dropout): StochasticDepth(p=0.06, mode=row)
          )
        )
      )
    )
  )
  (2): MaxVitBlock(
    (layers): ModuleList(
      (0): MaxVitLayer(
        (layers): Sequential(
          (MBconv): MBConv(
            (proj): Sequential(
              (0): AvgPool2d(kernel_size=3, stride=2, padding=1)
              (1): Conv2d(128, 256, kernel_size=(1, 1), stride=(1, 1))
            )
            (stochastic_depth): StochasticDepth(p=0.08, mode=row)
            (layers): Sequential(
              (pre_norm): BatchNorm2d(128, eps=0.001, momentum=0.99, affine=True, track_running_stats=True)
              (conv_a): Conv2dNormActivation(
                (0): Conv2d(128, 1024, kernel_size=(1, 1), stride=(1, 1), bias=False)
                (1): BatchNorm2d(1024, eps=0.001, momentum=0.99, affine=True, track_running_stats=True)
                (2): GELU(approximate='none')
              )
              (conv_b): Conv2dNormActivation(
                (0): Conv2d(1024, 1024, kernel_size=(3, 3), stride=(2, 2), padding=(1, 1), groups=1024, bias=False)
                (1): BatchNorm2d(1024, eps=0.001, momentum=0.99, affine=True, track_running_stats=True)
                (2): GELU(approximate='none')
              )
              (squeeze_excitation): SqueezeExcitation(
                (avgpool): AdaptiveAvgPool2d(output_size=1)
                (fc1): Conv2d(1024, 64, kernel_size=(1, 1), stride=(1, 1))
                (fc2): Conv2d(64, 1024, kernel_size=(1, 1), stride=(1, 1))
                (activation): SiLU()
                (scale_activation): Sigmoid()
              )
              (conv_c): Conv2d(1024, 256, kernel_size=(1, 1), stride=(1, 1))
            )
          )
          (window_attention): PartitionAttentionLayer(
            (partition_op): WindowPartition()
            (departition_op): WindowDepartition()
            (partition_swap): Identity()
            (departition_swap): Identity()
            (attn_layer): Sequential(
              (0): LayerNorm((256,), eps=1e-05, elementwise_affine=True)
              (1): RelativePositionalMultiHeadAttention(
                (to_qkv): Linear(in_features=256, out_features=768, bias=True)
                (merge): Linear(in_features=256, out_features=256, bias=True)
              )
              (2): Dropout(p=0.0, inplace=False)
            )
            (mlp_layer): Sequential(
              (0): LayerNorm((256,), eps=1e-05, elementwise_affine=True)
              (1): Linear(in_features=256, out_features=1024, bias=True)
              (2): GELU(approximate='none')
              (3): Linear(in_features=1024, out_features=256, bias=True)
              (4): Dropout(p=0.0, inplace=False)
            )
            (stochastic_dropout): StochasticDepth(p=0.08, mode=row)
          )
          (grid_attention): PartitionAttentionLayer(
            (partition_op): WindowPartition()
            (departition_op): WindowDepartition()
            (partition_swap): SwapAxes()
            (departition_swap): SwapAxes()
            (attn_layer): Sequential(
              (0): LayerNorm((256,), eps=1e-05, elementwise_affine=True)
              (1): RelativePositionalMultiHeadAttention(
                (to_qkv): Linear(in_features=256, out_features=768, bias=True)
                (merge): Linear(in_features=256, out_features=256, bias=True)
              )
              (2): Dropout(p=0.0, inplace=False)
            )
            (mlp_layer): Sequential(
              (0): LayerNorm((256,), eps=1e-05, elementwise_affine=True)
              (1): Linear(in_features=256, out_features=1024, bias=True)
              (2): GELU(approximate='none')
              (3): Linear(in_features=1024, out_features=256, bias=True)
              (4): Dropout(p=0.0, inplace=False)
            )
            (stochastic_dropout): StochasticDepth(p=0.08, mode=row)
          )
        )
      )
      (1): MaxVitLayer(
        (layers): Sequential(
          (MBconv): MBConv(
            (proj): Identity()
            (stochastic_depth): StochasticDepth(p=0.1, mode=row)
            (layers): Sequential(
              (pre_norm): BatchNorm2d(256, eps=0.001, momentum=0.99, affine=True, track_running_stats=True)
              (conv_a): Conv2dNormActivation(
                (0): Conv2d(256, 1024, kernel_size=(1, 1), stride=(1, 1), bias=False)
                (1): BatchNorm2d(1024, eps=0.001, momentum=0.99, affine=True, track_running_stats=True)
                (2): GELU(approximate='none')
              )
              (conv_b): Conv2dNormActivation(
                (0): Conv2d(1024, 1024, kernel_size=(3, 3), stride=(1, 1), padding=(1, 1), groups=1024, bias=False)
                (1): BatchNorm2d(1024, eps=0.001, momentum=0.99, affine=True, track_running_stats=True)
                (2): GELU(approximate='none')
              )
              (squeeze_excitation): SqueezeExcitation(
                (avgpool): AdaptiveAvgPool2d(output_size=1)
                (fc1): Conv2d(1024, 64, kernel_size=(1, 1), stride=(1, 1))
                (fc2): Conv2d(64, 1024, kernel_size=(1, 1), stride=(1, 1))
                (activation): SiLU()
                (scale_activation): Sigmoid()
              )
              (conv_c): Conv2d(1024, 256, kernel_size=(1, 1), stride=(1, 1))
            )
          )
          (window_attention): PartitionAttentionLayer(
            (partition_op): WindowPartition()
            (departition_op): WindowDepartition()
            (partition_swap): Identity()
            (departition_swap): Identity()
            (attn_layer): Sequential(
              (0): LayerNorm((256,), eps=1e-05, elementwise_affine=True)
              (1): RelativePositionalMultiHeadAttention(
                (to_qkv): Linear(in_features=256, out_features=768, bias=True)
                (merge): Linear(in_features=256, out_features=256, bias=True)
              )
              (2): Dropout(p=0.0, inplace=False)
            )
            (mlp_layer): Sequential(
              (0): LayerNorm((256,), eps=1e-05, elementwise_affine=True)
              (1): Linear(in_features=256, out_features=1024, bias=True)
              (2): GELU(approximate='none')
              (3): Linear(in_features=1024, out_features=256, bias=True)
              (4): Dropout(p=0.0, inplace=False)
            )
            (stochastic_dropout): StochasticDepth(p=0.1, mode=row)
          )
          (grid_attention): PartitionAttentionLayer(
            (partition_op): WindowPartition()
            (departition_op): WindowDepartition()
            (partition_swap): SwapAxes()
            (departition_swap): SwapAxes()
            (attn_layer): Sequential(
              (0): LayerNorm((256,), eps=1e-05, elementwise_affine=True)
              (1): RelativePositionalMultiHeadAttention(
                (to_qkv): Linear(in_features=256, out_features=768, bias=True)
                (merge): Linear(in_features=256, out_features=256, bias=True)
              )
              (2): Dropout(p=0.0, inplace=False)
            )
            (mlp_layer): Sequential(
              (0): LayerNorm((256,), eps=1e-05, elementwise_affine=True)
              (1): Linear(in_features=256, out_features=1024, bias=True)
              (2): GELU(approximate='none')
              (3): Linear(in_features=1024, out_features=256, bias=True)
              (4): Dropout(p=0.0, inplace=False)
            )
            (stochastic_dropout): StochasticDepth(p=0.1, mode=row)
          )
        )
      )
      (2): MaxVitLayer(
        (layers): Sequential(
          (MBconv): MBConv(
            (proj): Identity()
            (stochastic_depth): StochasticDepth(p=0.12, mode=row)
            (layers): Sequential(
              (pre_norm): BatchNorm2d(256, eps=0.001, momentum=0.99, affine=True, track_running_stats=True)
              (conv_a): Conv2dNormActivation(
                (0): Conv2d(256, 1024, kernel_size=(1, 1), stride=(1, 1), bias=False)
                (1): BatchNorm2d(1024, eps=0.001, momentum=0.99, affine=True, track_running_stats=True)
                (2): GELU(approximate='none')
              )
              (conv_b): Conv2dNormActivation(
                (0): Conv2d(1024, 1024, kernel_size=(3, 3), stride=(1, 1), padding=(1, 1), groups=1024, bias=False)
                (1): BatchNorm2d(1024, eps=0.001, momentum=0.99, affine=True, track_running_stats=True)
                (2): GELU(approximate='none')
              )
              (squeeze_excitation): SqueezeExcitation(
                (avgpool): AdaptiveAvgPool2d(output_size=1)
                (fc1): Conv2d(1024, 64, kernel_size=(1, 1), stride=(1, 1))
                (fc2): Conv2d(64, 1024, kernel_size=(1, 1), stride=(1, 1))
                (activation): SiLU()
                (scale_activation): Sigmoid()
              )
              (conv_c): Conv2d(1024, 256, kernel_size=(1, 1), stride=(1, 1))
            )
          )
          (window_attention): PartitionAttentionLayer(
            (partition_op): WindowPartition()
            (departition_op): WindowDepartition()
            (partition_swap): Identity()
            (departition_swap): Identity()
            (attn_layer): Sequential(
              (0): LayerNorm((256,), eps=1e-05, elementwise_affine=True)
              (1): RelativePositionalMultiHeadAttention(
                (to_qkv): Linear(in_features=256, out_features=768, bias=True)
                (merge): Linear(in_features=256, out_features=256, bias=True)
              )
              (2): Dropout(p=0.0, inplace=False)
            )
            (mlp_layer): Sequential(
              (0): LayerNorm((256,), eps=1e-05, elementwise_affine=True)
              (1): Linear(in_features=256, out_features=1024, bias=True)
              (2): GELU(approximate='none')
              (3): Linear(in_features=1024, out_features=256, bias=True)
              (4): Dropout(p=0.0, inplace=False)
            )
            (stochastic_dropout): StochasticDepth(p=0.12, mode=row)
          )
          (grid_attention): PartitionAttentionLayer(
            (partition_op): WindowPartition()
            (departition_op): WindowDepartition()
            (partition_swap): SwapAxes()
            (departition_swap): SwapAxes()
            (attn_layer): Sequential(
              (0): LayerNorm((256,), eps=1e-05, elementwise_affine=True)
              (1): RelativePositionalMultiHeadAttention(
                (to_qkv): Linear(in_features=256, out_features=768, bias=True)
                (merge): Linear(in_features=256, out_features=256, bias=True)
              )
              (2): Dropout(p=0.0, inplace=False)
            )
            (mlp_layer): Sequential(
              (0): LayerNorm((256,), eps=1e-05, elementwise_affine=True)
              (1): Linear(in_features=256, out_features=1024, bias=True)
              (2): GELU(approximate='none')
              (3): Linear(in_features=1024, out_features=256, bias=True)
              (4): Dropout(p=0.0, inplace=False)
            )
            (stochastic_dropout): StochasticDepth(p=0.12, mode=row)
          )
        )
      )
      (3): MaxVitLayer(
        (layers): Sequential(
          (MBconv): MBConv(
            (proj): Identity()
            (stochastic_depth): StochasticDepth(p=0.14, mode=row)
            (layers): Sequential(
              (pre_norm): BatchNorm2d(256, eps=0.001, momentum=0.99, affine=True, track_running_stats=True)
              (conv_a): Conv2dNormActivation(
                (0): Conv2d(256, 1024, kernel_size=(1, 1), stride=(1, 1), bias=False)
                (1): BatchNorm2d(1024, eps=0.001, momentum=0.99, affine=True, track_running_stats=True)
                (2): GELU(approximate='none')
              )
              (conv_b): Conv2dNormActivation(
                (0): Conv2d(1024, 1024, kernel_size=(3, 3), stride=(1, 1), padding=(1, 1), groups=1024, bias=False)
                (1): BatchNorm2d(1024, eps=0.001, momentum=0.99, affine=True, track_running_stats=True)
                (2): GELU(approximate='none')
              )
              (squeeze_excitation): SqueezeExcitation(
                (avgpool): AdaptiveAvgPool2d(output_size=1)
                (fc1): Conv2d(1024, 64, kernel_size=(1, 1), stride=(1, 1))
                (fc2): Conv2d(64, 1024, kernel_size=(1, 1), stride=(1, 1))
                (activation): SiLU()
                (scale_activation): Sigmoid()
              )
              (conv_c): Conv2d(1024, 256, kernel_size=(1, 1), stride=(1, 1))
            )
          )
          (window_attention): PartitionAttentionLayer(
            (partition_op): WindowPartition()
            (departition_op): WindowDepartition()
            (partition_swap): Identity()
            (departition_swap): Identity()
            (attn_layer): Sequential(
              (0): LayerNorm((256,), eps=1e-05, elementwise_affine=True)
              (1): RelativePositionalMultiHeadAttention(
                (to_qkv): Linear(in_features=256, out_features=768, bias=True)
                (merge): Linear(in_features=256, out_features=256, bias=True)
              )
              (2): Dropout(p=0.0, inplace=False)
            )
            (mlp_layer): Sequential(
              (0): LayerNorm((256,), eps=1e-05, elementwise_affine=True)
              (1): Linear(in_features=256, out_features=1024, bias=True)
              (2): GELU(approximate='none')
              (3): Linear(in_features=1024, out_features=256, bias=True)
              (4): Dropout(p=0.0, inplace=False)
            )
            (stochastic_dropout): StochasticDepth(p=0.14, mode=row)
          )
          (grid_attention): PartitionAttentionLayer(
            (partition_op): WindowPartition()
            (departition_op): WindowDepartition()
            (partition_swap): SwapAxes()
            (departition_swap): SwapAxes()
            (attn_layer): Sequential(
              (0): LayerNorm((256,), eps=1e-05, elementwise_affine=True)
              (1): RelativePositionalMultiHeadAttention(
                (to_qkv): Linear(in_features=256, out_features=768, bias=True)
                (merge): Linear(in_features=256, out_features=256, bias=True)
              )
              (2): Dropout(p=0.0, inplace=False)
            )
            (mlp_layer): Sequential(
              (0): LayerNorm((256,), eps=1e-05, elementwise_affine=True)
              (1): Linear(in_features=256, out_features=1024, bias=True)
              (2): GELU(approximate='none')
              (3): Linear(in_features=1024, out_features=256, bias=True)
              (4): Dropout(p=0.0, inplace=False)
            )
            (stochastic_dropout): StochasticDepth(p=0.14, mode=row)
          )
        )
      )
      (4): MaxVitLayer(
        (layers): Sequential(
          (MBconv): MBConv(
            (proj): Identity()
            (stochastic_depth): StochasticDepth(p=0.16, mode=row)
            (layers): Sequential(
              (pre_norm): BatchNorm2d(256, eps=0.001, momentum=0.99, affine=True, track_running_stats=True)
              (conv_a): Conv2dNormActivation(
                (0): Conv2d(256, 1024, kernel_size=(1, 1), stride=(1, 1), bias=False)
                (1): BatchNorm2d(1024, eps=0.001, momentum=0.99, affine=True, track_running_stats=True)
                (2): GELU(approximate='none')
              )
              (conv_b): Conv2dNormActivation(
                (0): Conv2d(1024, 1024, kernel_size=(3, 3), stride=(1, 1), padding=(1, 1), groups=1024, bias=False)
                (1): BatchNorm2d(1024, eps=0.001, momentum=0.99, affine=True, track_running_stats=True)
                (2): GELU(approximate='none')
              )
              (squeeze_excitation): SqueezeExcitation(
                (avgpool): AdaptiveAvgPool2d(output_size=1)
                (fc1): Conv2d(1024, 64, kernel_size=(1, 1), stride=(1, 1))
                (fc2): Conv2d(64, 1024, kernel_size=(1, 1), stride=(1, 1))
                (activation): SiLU()
                (scale_activation): Sigmoid()
              )
              (conv_c): Conv2d(1024, 256, kernel_size=(1, 1), stride=(1, 1))
            )
          )
          (window_attention): PartitionAttentionLayer(
            (partition_op): WindowPartition()
            (departition_op): WindowDepartition()
            (partition_swap): Identity()
            (departition_swap): Identity()
            (attn_layer): Sequential(
              (0): LayerNorm((256,), eps=1e-05, elementwise_affine=True)
              (1): RelativePositionalMultiHeadAttention(
                (to_qkv): Linear(in_features=256, out_features=768, bias=True)
                (merge): Linear(in_features=256, out_features=256, bias=True)
              )
              (2): Dropout(p=0.0, inplace=False)
            )
            (mlp_layer): Sequential(
              (0): LayerNorm((256,), eps=1e-05, elementwise_affine=True)
              (1): Linear(in_features=256, out_features=1024, bias=True)
              (2): GELU(approximate='none')
              (3): Linear(in_features=1024, out_features=256, bias=True)
              (4): Dropout(p=0.0, inplace=False)
            )
            (stochastic_dropout): StochasticDepth(p=0.16, mode=row)
          )
          (grid_attention): PartitionAttentionLayer(
            (partition_op): WindowPartition()
            (departition_op): WindowDepartition()
            (partition_swap): SwapAxes()
            (departition_swap): SwapAxes()
            (attn_layer): Sequential(
              (0): LayerNorm((256,), eps=1e-05, elementwise_affine=True)
              (1): RelativePositionalMultiHeadAttention(
                (to_qkv): Linear(in_features=256, out_features=768, bias=True)
                (merge): Linear(in_features=256, out_features=256, bias=True)
              )
              (2): Dropout(p=0.0, inplace=False)
            )
            (mlp_layer): Sequential(
              (0): LayerNorm((256,), eps=1e-05, elementwise_affine=True)
              (1): Linear(in_features=256, out_features=1024, bias=True)
              (2): GELU(approximate='none')
              (3): Linear(in_features=1024, out_features=256, bias=True)
              (4): Dropout(p=0.0, inplace=False)
            )
            (stochastic_dropout): StochasticDepth(p=0.16, mode=row)
          )
        )
      )
    )
  )
  (3): MaxVitBlock(
    (layers): ModuleList(
      (0): MaxVitLayer(
        (layers): Sequential(
          (MBconv): MBConv(
            (proj): Sequential(
              (0): AvgPool2d(kernel_size=3, stride=2, padding=1)
              (1): Conv2d(256, 512, kernel_size=(1, 1), stride=(1, 1))
            )
            (stochastic_depth): StochasticDepth(p=0.18, mode=row)
            (layers): Sequential(
              (pre_norm): BatchNorm2d(256, eps=0.001, momentum=0.99, affine=True, track_running_stats=True)
              (conv_a): Conv2dNormActivation(
                (0): Conv2d(256, 2048, kernel_size=(1, 1), stride=(1, 1), bias=False)
                (1): BatchNorm2d(2048, eps=0.001, momentum=0.99, affine=True, track_running_stats=True)
                (2): GELU(approximate='none')
              )
              (conv_b): Conv2dNormActivation(
                (0): Conv2d(2048, 2048, kernel_size=(3, 3), stride=(2, 2), padding=(1, 1), groups=2048, bias=False)
                (1): BatchNorm2d(2048, eps=0.001, momentum=0.99, affine=True, track_running_stats=True)
                (2): GELU(approximate='none')
              )
              (squeeze_excitation): SqueezeExcitation(
                (avgpool): AdaptiveAvgPool2d(output_size=1)
                (fc1): Conv2d(2048, 128, kernel_size=(1, 1), stride=(1, 1))
                (fc2): Conv2d(128, 2048, kernel_size=(1, 1), stride=(1, 1))
                (activation): SiLU()
                (scale_activation): Sigmoid()
              )
              (conv_c): Conv2d(2048, 512, kernel_size=(1, 1), stride=(1, 1))
            )
          )
          (window_attention): PartitionAttentionLayer(
            (partition_op): WindowPartition()
            (departition_op): WindowDepartition()
            (partition_swap): Identity()
            (departition_swap): Identity()
            (attn_layer): Sequential(
              (0): LayerNorm((512,), eps=1e-05, elementwise_affine=True)
              (1): RelativePositionalMultiHeadAttention(
                (to_qkv): Linear(in_features=512, out_features=1536, bias=True)
                (merge): Linear(in_features=512, out_features=512, bias=True)
              )
              (2): Dropout(p=0.0, inplace=False)
            )
            (mlp_layer): Sequential(
              (0): LayerNorm((512,), eps=1e-05, elementwise_affine=True)
              (1): Linear(in_features=512, out_features=2048, bias=True)
              (2): GELU(approximate='none')
              (3): Linear(in_features=2048, out_features=512, bias=True)
              (4): Dropout(p=0.0, inplace=False)
            )
            (stochastic_dropout): StochasticDepth(p=0.18, mode=row)
          )
          (grid_attention): PartitionAttentionLayer(
            (partition_op): WindowPartition()
            (departition_op): WindowDepartition()
            (partition_swap): SwapAxes()
            (departition_swap): SwapAxes()
            (attn_layer): Sequential(
              (0): LayerNorm((512,), eps=1e-05, elementwise_affine=True)
              (1): RelativePositionalMultiHeadAttention(
                (to_qkv): Linear(in_features=512, out_features=1536, bias=True)
                (merge): Linear(in_features=512, out_features=512, bias=True)
              )
              (2): Dropout(p=0.0, inplace=False)
            )
            (mlp_layer): Sequential(
              (0): LayerNorm((512,), eps=1e-05, elementwise_affine=True)
              (1): Linear(in_features=512, out_features=2048, bias=True)
              (2): GELU(approximate='none')
              (3): Linear(in_features=2048, out_features=512, bias=True)
              (4): Dropout(p=0.0, inplace=False)
            )
            (stochastic_dropout): StochasticDepth(p=0.18, mode=row)
          )
        )
      )
      (1): MaxVitLayer(
        (layers): Sequential(
          (MBconv): MBConv(
            (proj): Identity()
            (stochastic_depth): StochasticDepth(p=0.2, mode=row)
            (layers): Sequential(
              (pre_norm): BatchNorm2d(512, eps=0.001, momentum=0.99, affine=True, track_running_stats=True)
              (conv_a): Conv2dNormActivation(
                (0): Conv2d(512, 2048, kernel_size=(1, 1), stride=(1, 1), bias=False)
                (1): BatchNorm2d(2048, eps=0.001, momentum=0.99, affine=True, track_running_stats=True)
                (2): GELU(approximate='none')
              )
              (conv_b): Conv2dNormActivation(
                (0): Conv2d(2048, 2048, kernel_size=(3, 3), stride=(1, 1), padding=(1, 1), groups=2048, bias=False)
                (1): BatchNorm2d(2048, eps=0.001, momentum=0.99, affine=True, track_running_stats=True)
                (2): GELU(approximate='none')
              )
              (squeeze_excitation): SqueezeExcitation(
                (avgpool): AdaptiveAvgPool2d(output_size=1)
                (fc1): Conv2d(2048, 128, kernel_size=(1, 1), stride=(1, 1))
                (fc2): Conv2d(128, 2048, kernel_size=(1, 1), stride=(1, 1))
                (activation): SiLU()
                (scale_activation): Sigmoid()
              )
              (conv_c): Conv2d(2048, 512, kernel_size=(1, 1), stride=(1, 1))
            )
          )
          (window_attention): PartitionAttentionLayer(
            (partition_op): WindowPartition()
            (departition_op): WindowDepartition()
            (partition_swap): Identity()
            (departition_swap): Identity()
            (attn_layer): Sequential(
              (0): LayerNorm((512,), eps=1e-05, elementwise_affine=True)
              (1): RelativePositionalMultiHeadAttention(
                (to_qkv): Linear(in_features=512, out_features=1536, bias=True)
                (merge): Linear(in_features=512, out_features=512, bias=True)
              )
              (2): Dropout(p=0.0, inplace=False)
            )
            (mlp_layer): Sequential(
              (0): LayerNorm((512,), eps=1e-05, elementwise_affine=True)
              (1): Linear(in_features=512, out_features=2048, bias=True)
              (2): GELU(approximate='none')
              (3): Linear(in_features=2048, out_features=512, bias=True)
              (4): Dropout(p=0.0, inplace=False)
            )
            (stochastic_dropout): StochasticDepth(p=0.2, mode=row)
          )
          (grid_attention): PartitionAttentionLayer(
            (partition_op): WindowPartition()
            (departition_op): WindowDepartition()
            (partition_swap): SwapAxes()
            (departition_swap): SwapAxes()
            (attn_layer): Sequential(
              (0): LayerNorm((512,), eps=1e-05, elementwise_affine=True)
              (1): RelativePositionalMultiHeadAttention(
                (to_qkv): Linear(in_features=512, out_features=1536, bias=True)
                (merge): Linear(in_features=512, out_features=512, bias=True)
              )
              (2): Dropout(p=0.0, inplace=False)
            )
            (mlp_layer): Sequential(
              (0): LayerNorm((512,), eps=1e-05, elementwise_affine=True)
              (1): Linear(in_features=512, out_features=2048, bias=True)
              (2): GELU(approximate='none')
              (3): Linear(in_features=2048, out_features=512, bias=True)
              (4): Dropout(p=0.0, inplace=False)
            )
            (stochastic_dropout): StochasticDepth(p=0.2, mode=row)
          )
        )
      )
    )
  )
), Sequential(
  (0): AdaptiveAvgPool2d(output_size=1)
  (1): Flatten(start_dim=1, end_dim=-1)
  (2): LayerNorm((512,), eps=1e-05, elementwise_affine=True)
  (3): Linear(in_features=512, out_features=512, bias=True)
  (4): Tanh()
  (5): Linear(in_features=512, out_features=1000, bias=False)
), ReLU(inplace=True), Dropout(p=0.5, inplace=False), Linear(in_features=1000, out_features=2, bias=True)]


##########################################################################################3


